lightning_logs/version_21/checkpoints/epoch=1-step=878.ckpt (torch, 820579 bytes, 15 tensors)

model.lstm.weight_ih_l0 f4 [500, 8]
-0.053303268 -0.052040286 -0.12495053 -0.4228365 -0.05565708 -0.051016096 0.0041446313 -0.122215375
0.062392373 -0.0064830133 0.08109536 -0.28098917 -0.11086976 0.043747947 -0.21773212 -0.12107404
0.12651828 -0.0526096 -0.105198815 -0.27895862 -0.057867445 -0.0032140291 -0.07719178 -0.22643904
-0.06433621 -0.051850654 0.07334682 0.19298302 0.084356315 0.05973464 0.025834838 0.20262544
0.018746128 0.06704628 -0.072001845 0.16355522 0.16717714 0.03330529 -0.11837925 0.17952427
0.11554915 0.058502767 0.0419478 0.080928214 0.08259767 0.076626666 0.10669243 -0.023284191
-0.033409096 -0.058817044 -0.2721214 -0.11313632 0.05898892 0.016026214 -0.24743763 -0.01682759
0.041429263 0.09244148 -0.06755007 -0.07548738 -0.009831813 -0.021459987 0.07060078 0.030514954
-0.15495287 0.071497634 0.026667941 0.09308427 0.08871175 -0.090637594 0.07368222 0.22716762
0.09580772 -0.004595792 -0.013215436 -0.14502624 -0.071311705 0.023437187 0.056047752 -0.008009798
-0.005243628 0.27428085 -0.03828897 -0.052272238 -0.10930465 -0.11641351 0.020306036 -0.022225231
0.09273674 0.12617052 -0.015019466 0.30191764 0.019767443 -0.16166428 0.09954151 0.09780549
0.03085678 0.050988182 -0.09617633 -0.18118912 0.10338856 0.13143067 0.0737567 -0.116044916
0.0032118964 0.117365524 -0.032925338 -0.07796233 -0.09514611 -0.021880016 0.08986683 0.009479087
-0.08437087 0.05976806 -0.39719236 -0.14900553 0.17143963 0.08015655 -0.16872883 -0.25601783
-0.04612245 0.101888016 0.022442074 0.29682207 0.12584038 0.020731334 0.06540384 0.26980585
0.1923958 0.11133643 -0.12181765 -0.010819797 0.05122326 0.0498126 0.0053502284 -0.06688123
-0.11323089 0.009333804 -0.12984288 -0.21233247 0.16355787 -0.006108888 -0.044207368 0.0690689
0.01811545 -0.20931044 -0.15875822 -0.3651398 -0.112557285 -0.09055924 -0.34465706 -0.23047648
-0.044483837 -0.007986589 -0.047735028 0.012137581 -0.09140915 0.059860796 -0.11408572 0.09895439
-0.051493224 0.076002106 0.12039027 0.013722349 -0.1458011 -0.0024014204 0.12502015 -0.05543127
-0.059383146 -0.07815606 0.10585101 -0.28673568 -0.07740582 -0.15920736 0.03287557 -0.03662343
0.13212773 0.17807539 0.111915454 -0.010349308 0.15892774 0.123610504 0.22157362 -0.013320437
0.08662215 0.110646926 0.05190601 -0.14850385 0.09795642 0.10306261 -0.040190972 0.04606543
0.06985192 0.08707294 0.113202736 0.40086862 0.10002985 0.07018496 0.067124546 0.10312182
-0.10694068 -0.12592858 0.19764803 0.13174191 -0.071286425 -0.050153233 0.025934102 0.06950342
0.11412189 0.10104488 -0.122010596 0.077643804 -0.078713164 0.13778463 -0.05480613 0.046645768
-0.035790198 -0.09752818 -0.03356682 -0.17729826 -0.093335055 -0.036697198 0.04596424 -0.028281096
-0.12436389 0.0989993 0.09636074 0.3942533 0.13570885 0.21423045 0.00071973103 0.19515155
-0.0780533 -0.08658695 -0.020794699 -0.17222838 0.081353456 0.06987425 -0.21940772 -0.05754674
-0.04798339 -0.24583875 -0.07105121 -0.45507824 0.12249823 0.110475086 0.0024309068 -0.25034416
-0.097715385 -0.12061871 0.0964987 0.14274725 -0.16454232 -0.06015808 0.08932151 0.1490167
00000000: 8754 5abd 3228 55bd 10e6 ffbd 077e d8be
00000010: aef8 63bd 41f6 50bd b0cf 873b 0e4c fabd
00000020: 258f 7f3d 756f d4bb 5315 a63d d0dd 8fbe
00000030: af0f e3bd 0c31 333d 2bf5 5ebe abf5 f7bd
00000040: 028e 013e 2a7d 57bd 7a72 d7bd aad3 8ebe
00000050: 6a06 6dbd 76a2 52bb b916 9ebd a3df 67be
00000060: b4c2 83bd 5a61 54bd dc36 963d 579d 453e
00000070: 01c3 ac3d 4fac 743d 95a3 d33c 0b7d 4f3e
00000080: 7b91 993c 8f4f 893d b475 93bd 057b 273e
00000090: 7c30 2b3e 216b 083d d270 f2bd 36d5 373e
000000a0: 08a5 ec3d 99a0 6f3d 75d1 2b3d b1bd a53d
000000b0: f828 a93d 71ee 9c3d 9081 da3d 7dbe bebc
000000c0: fad7 08bd 24ea 70bd 7f53 8bbe 04b4 e7bd
000000d0: 5e9e 713d 6849 833c 4a60 7dbe 04da 89bc
000000e0: bbb1 293d f551 bd3d b157 8abd 2199 9abd
000000f0: 9d15 21bc dbcc afbc 2497 903d 7ffa f93c
00000100: f7ab 1ebe 5a6d 923d ba76 da3c f7a2 be3d
00000110: 82ae b53d 34a0 b9bd b4e6 963d a19e 683e
00000120: d736 c43d 4c98 96bb 8e85 58bc c281 14be
00000130: df0b 92bd 58ff bf3c 5492 653d 873b 03bc
00000140: bdd2 abbb 8a6e 8c3e e5d4 1cbd 6a1b 56bd
00000150: 1edb dfbd 356a eebd d858 a63c b011 b6bc
00000160: c3ec bd3d d832 013e 3514 76bc f394 9a3e
00000170: 55ef a13c 528b 25be 6bdc cb3d 3f4e c83d
00000180: 5cc7 fc3c fcd8 503d 18f8 c4bd a489 39be
00000190: 62bd d33d c395 063e c10d 973d f5a8 edbd
000001a0: ae7e 523b 565d f03d b8dc 06bd b7aa 9fbd
000001b0: f7db c2bd b83d b3bc 1a0c b83d 2c4e 1b3c
000001c0: a2ca acbd 5acf 743d cc5c cbbe e894 18be
000001d0: df8d 2f3e 1e29 a43d 40c7 2cbe c514 83be
000001e0: e5ea 3cbd aaaa d03d 71d8 b73c 10f9 973e
000001f0: 4ddc 003e c2d4 a93c 73f2 853d fe23 8a3e
00000200: 6803 453e 5b04 e43d 887b f9bd 8545 31bc
00000210: 7bcf 513d 4c08 4c3d f850 af3b 07f9 88bd
00000220: 99e5 e7bd d0ec 183c 88f5 04be af6d 59be
00000230: b77b 273e 112d c8bb c912 35bd ff73 8d3d
00000240: da66 943c 7a55 56be 8491 22be 9bf3 babe
00000250: 6f84 e6bd 1f77 b9bd e476 b0be 0702 6cbe
00000260: af34 36bd 2fda 02bc ce85 43bd b4dc 463c
00000270: b834 bbbd 9830 753d c6a5 e9bd 99a8 ca3d
00000280: 8fea 52bd fea6 9b3d 2d8f f63d b4d3 603c
00000290: e24c 15be 2661 1dbb 4805 003e e60b 63bd
000002a0: be3b 73bd 4910 a0bd 6ac8 d83d 05cf 92be
000002b0: f186 9ebd 4107 23be 89a8 063d 7302 16bd
000002c0: 7e4c 073e 6559 363e ee33 e53d 2590 29bc
000002d0: f4bd 223e 8127 fd3d 32e4 623e f63d 5abc
000002e0: f466 b13d db9a e23d 659b 543d 6511 18be
000002f0: 609d c83d 7d12 d33d 4a9f 24bd 1baf 3c3d
00000300: 860e 8f3d 4c53 b23d d6d6 e73d a73e cd3e
00000310: 73dc cc3d 22bd 8f3d 9878 893d 8831 d33d
00000320: b703 dbbd 6cf3 00be 3f64 4a3e 5ae7 063e
00000330: 9efe 91bd 7a6d 4dbd c173 d43c cf57 8e3d
00000340: bdb8 e93d 9ef0 ce3d b1e0 f9bd b703 9f3d
00000350: 5e34 a1bd 6a17 0d3e 647c 60bd a20f 3f3d
00000360: be98 12bd dbbc c7bd 5d7d 09bd ad8d 35be
00000370: 7326 bfbd cd4f 16bd 0045 3c3d c2ad e7bc
00000380: 7fb2 febd 25c0 ca3d c858 c53d 92db c93e
00000390: 43f7 0a3e 3a5f 5b3e 55ac 3c3a cfd5 473e
000003a0: 69da 9fbd 8054 b1bd a559 aabc a35c 30be
000003b0: a49c a63d 3b1a 8f3d 6bac 60be 21b6 6bbd
000003c0: 3b8a 44bd 27bd 7bbe 4c83 91bd 0400 e9be
000003d0: 5ae0 fa3d c340 e23d d94f 1f3b 1c2d 80be
000003e0: 011f c8bd f106 f7bd 1ca1 c53d 562c 123e
000003f0: c87d 28be 5268 76bd 32ee b63d d597 183e

model.lstm.weight_hh_l0 f4 [500, 125]
0.053898975 -0.09150938 0.18645184 0.03911062 0.29103538 0.08235224 0.103805214 -0.2464042
0.15112208 0.17154905 -0.14477496 -0.21227026 0.19866613 -0.20117547 -0.064457595 0.26350182
-0.07768908 -0.076722145 -0.15073444 -0.1341086 -0.33572218 0.13189796 0.12767749 -0.28116444
0.15185688 0.12427772 0.13742419 -0.1722539 -0.1854188 -0.094312765 -0.1642604 -0.2417882
0.039520428 -0.03596309 0.3150863 -0.2362787 0.1924153 -0.109533496 0.23381129 -0.12923652
0.14711693 -0.18456486 0.21988119 -0.0068934076 0.116638035 0.25266868 -0.25474387 -0.027186958
0.17215703 -0.04938612 -0.14115201 0.12812567 -0.13741884 0.07721908 0.048987977 0.105855525
-0.20896569 0.08356067 -0.21122052 0.0046647927 -0.19964464 0.062456287 -0.09089827 0.020376425
-0.031588063 -0.16572474 -0.033076234 0.21146432 0.19381247 0.050236665 0.26476943 -0.056160763
0.17148307 0.08700827 0.22122493 0.09322868 -0.017940829 -0.0032141118 0.09736876 0.026751265
0.064412676 -0.1948808 0.13377866 0.12916587 -0.20023906 -0.02056429 -0.24538729 -0.0943378
-0.025385195 -0.031226685 -0.22123267 0.025771828 0.104422495 -0.09484771 -0.27090645 -0.10733608
-0.15912648 0.071786046 -0.27634612 0.18641007 -0.0876153 -0.2670268 -0.044975538 0.018862212
-0.04778092 0.27594817 -0.005847674 0.12380322 0.08438701 0.07351485 0.10520267 -0.27129978
-0.024909668 0.080781795 -0.030889181 0.07688332 0.19237046 -0.045777112 0.073565654 -0.28405023
0.24524584 -0.13046198 -0.07418308 0.015240521 0.031609084 0.11463686 0.15237777 -0.079998784
-0.12936586 -0.21350174 0.05345758 -0.20459446 0.09259139 -0.10397987 -0.0996312 0.23741938
0.04853002 -0.10905663 0.24624132 -0.12977703 -0.21397603 0.054885 -0.06170161 0.27203268
0.24240477 0.1968731 -0.22826587 -0.22974163 0.21051337 -0.07202272 -0.18007754 -0.12369054
0.09480643 0.14189455 0.30640033 0.06574116 0.24999742 -0.14644836 0.2140077 -0.24146669
0.101842254 -0.0065837903 0.30396473 -0.09059032 0.21644717 -0.20511927 -0.18640135 -0.15802923
-0.24463439 0.17885844 -0.06318067 0.17770468 -0.2653282 -0.065184474 0.046415467 0.20694527
-0.118428916 0.13878824 -0.1911746 0.10216893 -0.017075347 0.13336042 -0.095105045 0.21951117
-0.032916468 0.1679448 0.0012041176 0.20034477 -0.31493652 -0.015270636 0.2826617 -0.05192876
-0.15389171 -0.27731746 -0.038058665 -0.08030284 0.08525917 -0.017990062 -0.10339321 -0.35970953
-0.23159952 0.14029057 0.16884737 -0.12363916 -0.14511423 -0.28546044 0.026666222 -0.20406067
0.1323317 0.22493479 0.13603185 0.026568461 0.13098986 0.09540165 -0.036154512 0.15730003
0.052529786 0.04205058 0.0005242755 0.13157135 0.032693718 0.060967118 -0.009005528 0.25069264
-0.09524649 0.2032684 0.25867686 0.056700513 -0.14120594 0.18107548 -0.06686457 0.10980906
0.18488008 -0.03222065 -0.16399057 -0.15013109 0.14046152 0.27139822 0.07877707 0.11712909
0.23716328 -0.11827128 -0.008952249 -0.26228368 0.18094896 -0.081377216 0.10917553 0.07694895
-0.1978938 -0.12500905 -0.021842167 -0.12938485 0.03801941 -0.0005868825 0.01765543 -0.041786406
00000000: 2cc5 5c3d 4569 bbbd 3bed 3e3e 7532 203d
00000010: 9702 953e 4ba8 a83d d497 d43d 6251 7cbe
00000020: bfbf 1a3e 8eaa 2f3e e33f 14be 605d 59be
00000030: 226f 4b3e f100 4ebe 5802 84bd b6e9 863e
00000040: 741b 9fbd 8020 9dbd 215a 1abe c453 09be
00000050: c7e3 abbe 4210 073e e3bd 023e c9f4 8fbe
00000060: 5f80 1b3e 5185 fe3d edb8 0c3e 5463 30be
00000070: 6dde 3dbe 0d27 c1bd e133 28be 5397 77be
00000080: 2ce0 213d 084e 13bd fe52 a13e 0bf3 71be
00000090: 8408 453e 1953 e0bd 3a6c 6f3e 9456 04be
000000a0: d2a5 163e 92fe 3cbe 8928 613e 18e2 e1bb
000000b0: ecdf ee3d ca5d 813e ca6d 82be 2fb7 debc
000000c0: ef49 303e 1a49 4abd 278a 10be 6033 033e
000000d0: 86b7 0cbe 0925 9e3d 9ea7 483d c8ca d83d
000000e0: 1afb 55be db21 ab3d 314a 58be 1edb 983b
000000f0: a56f 4cbe 2ad2 7f3d df28 babd 76ec a63c
00000100: 7c62 01bd bfb3 29be f27a 07bd 1a8a 583e
00000110: c776 463e f6c4 4d3d dc8f 873e d408 66bd
00000120: 4299 2f3e 6431 b23d ca88 623e aeee be3d
00000130: a5f8 92bc d9a3 52bb 4669 c73d 7825 db3c
00000140: cbea 833d d58e 47be 46fd 083e 0f44 043e
00000150: 780b 4dbe 7176 a8bc ce46 7bbe 2d34 c1bd
00000160: 9df4 cfbc 1bcf ffbc d18a 62be 711f d33c
00000170: 76db d53d 843f c2bd 40b4 8abe 05d3 dbbd
00000180: 0df2 22be 9004 933d 3d7d 8dbe 48e2 3e3e
00000190: a76f b3bd bdb7 88be 4538 38bd ed84 9a3c
000001a0: edb5 43bd 1449 8d3e d89d bfbb 8b8c fd3d
000001b0: 19d3 ac3d f48e 963d 7f74 d73d cee7 8abe
000001c0: 5c0f ccbc ed70 a53d 4f0b fdbc 0175 9d3d
000001d0: c3fc 443e c880 3bbd 97a9 963d 086f 91be
000001e0: ba21 7b3e d397 05be 4ced 97bd 61b3 793c
000001f0: 8778 013d bbc6 ea3d eb08 1c3e 67d6 a3bd
00000200: 7c78 04be 33a0 5abe 56f6 5a3d 3681 51be
00000210: 8ea0 bd3d 66f3 d4bd 710b ccbd 111e 733e
00000220: 6ac7 463d 1559 dfbd af26 7c3e 45e4 04be
00000230: 881c 5bbe 18cf 603d d4ba 7cbd de47 8b3e
00000240: f538 783e 1a99 493e 87be 69be 6441 6bbe
00000250: d190 573e a680 93bd 3f66 38be 7751 fdbd
00000260: e029 c23d ce4c 113e 81e0 9c3e 4da3 863d
00000270: 53ff 7f3e 8ff6 15be d624 5b3e 0b43 77be
00000280: ac92 d03d d6bc d7bb 44a1 9b3e 6b87 b9bd
00000290: 54a4 5d3e c90a 52be ffdf 3ebe 6ad2 21be
000002a0: 7081 7abe ab26 373e de64 81bd 37f8 353e
000002b0: 19d9 87be 707f 85bd 251e 3e3d 76e9 533e
000002c0: dc8a f2bd 811e 0e3e 46c3 43be f23d d13d
000002d0: 99e1 8bbc a28f 083e 6fc6 c2bd 89c7 603e
000002e0: 6bd3 06bd b9f9 2b3e 7bd3 9d3a 2e27 4d3e
000002f0: 5c3f a1be b131 7abc 09b9 903e 40b3 54bd
00000300: ca95 1dbe 8efc 8dbe 67e3 1bbd d175 a4bd
00000310: 5c9c ae3d e55f 93bc d2bf d3bd d92b b8be
00000320: 6d28 6dbe 55a8 0f3e 53e6 2c3e 8736 fdbd
00000330: d398 14be df27 92be 1f73 da3c 48f5 50be
00000340: f681 073e 4e55 663e ef4b 0b3e 1aa6 d93c
00000350: 3522 063e f161 c33d c116 14bd 4213 213e
00000360: 7929 573d 3b3d 2c3d 896f 093a a4ba 063e
00000370: d9e9 053d a8b8 793d ec8b 13bc c95a 803e
00000380: 9710 c3bd 9725 503e 4b71 843e cc3e 683d
00000390: 4a98 10be da6b 393e 4bf0 88bd 93e3 e03d
000003a0: 3451 3d3e cdf9 03bd 25ed 27be f7bb 19be
000003b0: 25d5 0f3e b5f4 8a3e df55 a13d 60e1 ef3d
000003c0: eeda 723e 3638 f2bd 74ac 12bc 0c4a 86be
000003d0: af4a 393e 19a9 a6bd 6c97 df3d 6997 9d3d
000003e0: aca4 4abe 5f02 00be 58ee b2bc 767d 04be
000003f0: 3eba 1b3d 05d9 19ba 1fa2 903c 3928 2bbd

model.lstm.bias_ih_l0 f4 [500]
-0.2407326 0.2675854 -0.07693674 -0.034998603 0.19249454 -0.020504588 0.042703003 0.25606656
0.22724392 0.13164902 0.17482752 0.11004532 0.09020218 0.21100867 -0.03210945 -0.08479585
0.15379634 0.0082232235 0.0761023 0.24326533 0.05191467 0.15703958 0.14233747 0.24484664
0.09249871 -0.09018558 0.088283844 0.05028401 -0.004366148 0.11782103 -0.15816785 0.20912103
-0.106202066 -0.3006069 0.016183104 0.037126876 0.17130084 0.31268385 0.12581928 0.19383591
0.079683855 -0.056461476 0.2150315 -0.36609024 -0.25574192 0.18358697 0.23588234 -0.05147774
-0.13360505 0.19708884 0.0703689 -0.24438891 -0.03267375 -0.03665709 0.018133804 0.034614738
-0.175066 0.12388265 0.20746571 -0.13326523 0.11701443 -0.23783885 -0.14391632 0.08779715
-0.16911697 0.0774054 -0.012425329 0.1818687 0.15998463 -0.07429088 0.18290986 -0.016753562
0.28712755 0.0044234456 -0.2032242 -0.26151544 -0.0063218847 0.107855 0.005247854 0.03879191
0.17696245 -0.13586733 -0.16414116 -0.1390967 0.01341936 -0.08283362 0.30658388 0.07253445
-0.04637382 -0.07620146 0.16667366 -0.19793779 -0.0756021 -0.11980213 0.18403503 0.07966662
0.12049632 -0.13200252 0.145725 0.03199063 0.07167807 0.19797623 -0.2622476 0.0523868
-0.009256107 -0.06608632 0.06264262 -0.18468256 -0.05397338 0.10133908 0.11639208 0.07364623
-0.004620774 0.056504782 -0.18290779 -0.11147108 0.12999693 -0.07595953 0.05895345 0.084222764
0.013711338 0.15511398 -0.10845399 0.02869687 -0.109045014 -0.13397157 0.014573342 -0.121110454
0.31462663 0.104418606 -0.059098694 0.18969336 -0.07825738 0.19325498 0.14644814 -0.026912887
-0.14064597 0.13101184 -0.16033876 -0.13402139 0.0811351 -0.10323113 0.19000256 0.29593244
0.16622058 0.16979694 -0.102251954 0.15931703 -0.119296625 0.07176044 -0.03810054 -0.07180182
0.08255415 -0.034767326 0.18746136 -0.1420163 0.20163982 -0.059829194 -0.049329035 0.03320607
0.06976347 -0.09015227 0.06795855 -0.036505483 -0.10610679 0.2451256 -0.03261372 0.015322525
-0.11094666 -0.1790652 0.16825506 -0.14282948 -0.028776463 -0.022608735 -0.11151969 0.10383922
-0.17566143 -0.08821933 0.02557462 -0.07918528 -0.097964406 -0.08441833 -0.008836056 0.08183444
-0.036019787 0.19794278 0.036450997 -0.14944188 0.1306297 0.026906319 -0.084556535 -0.026066378
-0.08119697 -0.007344019 -0.019363323 0.13684432 -0.087789014 -0.14045808 -0.05824572 -0.039232463
-0.15552479 0.00012791026 0.22224511 0.055977624 -0.19992763 0.14800699 -0.0675233 -0.16716415
0.0398866 0.00029366682 0.039449543 -0.06760908 -0.06738854 0.019257115 -0.21257952 0.12159607
-0.06370294 -0.07324235 0.01879357 0.17401373 -0.0042954655 0.044902828 0.017207215 0.2122756
0.052841797 0.07116844 0.34251204 -0.059234526 -0.15163888 -0.009951256 -0.01608044 0.045497067
-0.034673844 -0.014139479 0.22870626 -0.10068364 0.052888896 -0.05139876 0.10302078 -0.14876609
-0.06654333 0.061625373 0.08093231 -0.05781437 0.06585533 0.03195501 -0.021407565 0.012937139
-0.03221741 -0.12307331 0.13305518 0.23130777 0.00673484 -0.19196546 -0.21155745 -0.1366276
00000000: 9b82 76be f400 893e 0291 9dbd b25a 0fbd
00000010: 4a1d 453e 3df9 a7bc 58e9 2e3d 281b 833e
00000020: a1b2 683e 00cf 063e fc05 333e 715f e13d
00000030: ecbb b83d a812 583e 3385 03bd 72a9 adbd
00000040: ca7c 1d3e b3ba 063c 86db 9b3d 8c1a 793e
00000050: 7aa4 543d fcce 203e eac0 113e 14b9 7a3e
00000060: f76f bd3d 38b3 b8bd 29ce b43d 9bf6 4d3d
00000070: e711 8fbb 274c f13d c1f6 21be d323 563e
00000080: 7880 d9bd 26e9 99be 6e92 843c 5a12 183d
00000090: 7d69 2f3e 1918 a03e c5d6 003e ec7c 463e
000000a0: 4a31 a33d 2644 67bd 3831 5c3e 2e70 bbbe
000000b0: 9bf0 82be 39fe 3b3e 248b 713e 53da 52bd
000000c0: c3cf 08be a8d1 493e 921d 903d 1641 7abe
000000d0: e9d4 05bd bf25 16bd 588d 943c 2fc8 0d3d
000000e0: 8044 33be 30b6 fd3d e471 543e ae76 08be
000000f0: 43a5 ef3d 078c 73be cd5e 13be fece b33d
00000100: 002d 2dbe b986 9e3d 9b93 4bbc ca3b 3a3e
00000110: 03d3 233e d125 98bd b94c 3b3e c43e 89bc
00000120: 6202 933e 8df2 903b 011a 50be 5ae5 85be
00000130: d027 cfbb 15e3 dc3d 31f6 ab3b 44e4 1e3d
00000140: a535 353e ce20 0bbe 9f14 28be 5e6f 0ebe
00000150: e0dc 5b3c aca4 a9bd 90f8 9c3e f18c 943d
00000160: 7af2 3dbd 830f 9cbd 80ac 2a3e 34b0 4abe
00000170: 46d5 9abd d25a f5bd ae73 3c3e 4128 a33d
00000180: c6c6 f63d ab2b 07be ef38 153e 9b08 033d
00000190: f4cb 923d 48ba 4a3e 5145 86be 8b93 563d
000001a0: eda6 17bc 4458 87bd c64a 803d 6d1d 3dbe
000001b0: 3113 5dbd dd8a cf3d f95e ee3d d6d3 963d
000001c0: dd69 97bb 8f71 673d 2e4c 3bbe f34a e4bd
000001d0: ea1d 053e ac90 9bbd 2c79 713d fc7c ac3d
000001e0: 85a5 603c 33d6 1e3e 201d debd b315 eb3c
000001f0: fe52 dfbd d82f 09be 07c5 6e3c c208 f8bd
00000200: be16 a13e 6cd9 d53d 7911 72bd fa3e 423e
00000210: 6845 a0bd a2e4 453e 80f6 153e 6a78 dcbc
00000220: 7f05 10be f827 063e d82f 24be e73c 09be
00000230: 292a a63d d86a d3bd 0890 423e 7584 973e
00000240: ba35 2a3e 40df 2d3e 7969 d1bd 0124 233e
00000250: ca51 f4bd 23f7 923d 500f 1cbd d50c 93bd
00000260: 2612 a93d 2f68 0ebd dff5 3f3e b96c 11be
00000270: ab7a 4e3e 750f 75bd 3e0d 4abd 1703 083d
00000280: 26e0 8e3d c1a1 b8bd da2d 8b3d c686 15bd
00000290: 844e d9bd 3502 7b3e f795 05bd 540b 7b3c
000002a0: 0138 e3bd de5c 37be 0e4b 2c3e e441 12be
000002b0: 9ebc ebbc f435 b9bc 6f64 e4bd a8a9 d43d
000002c0: 97e0 33be 56ac b4bd de81 d13c e42b a2bd
000002d0: 90a1 c8bd 84e3 acbd 1bc5 10bc d198 a73d
000002e0: 7c89 13bd 83b1 4a3e a44d 153d 4b07 19be
000002f0: cbc3 053e a46a dc3c fa2b adbd 2889 d5bc
00000300: 994a a6bd 19a6 f0bb d59f 9ebc eb20 0c3e
00000310: baca b3bd 3ed4 0fbe 1093 6ebd 38b2 20bd
00000320: e441 1fbe a61f 0639 3994 633e cb48 653d
00000330: d4b9 4cbe 258f 173e a849 8abd 142d 2bbe
00000340: 2260 233d 4bf7 9939 d895 213d a176 8abd
00000350: 0103 8abd 19c1 9d3c 72ae 59be 5c07 f93d
00000360: b076 82bd 1600 96bd f9f4 993c a830 323e
00000370: fac0 8cbb 07ec 373d 25f6 8c3c c65e 593e
00000380: a470 583d c2c0 913d bd5d af3e e79f 72bd
00000390: 3947 1bbe 980a 23bc 20bb 83bc 225b 3a3d
000003a0: 2906 0ebd 46a9 67bc f931 6a3e 3933 cebd
000003b0: 07a2 583d 8287 52bd 8ffc d23d 2356 18be
000003c0: df47 88bd e36a 7c3d d7bf a53d c3ce 6cbd
000003d0: 29df 863d 42e3 023d eb5e afbc 4bf6 533c
000003e0: 67f6 03bd dc0d fcbd 9e3f 083e f2db 6c3e
000003f0: efaf dc3b 9892 44be 84a2 58be 1be8 0bbe

model.lstm.bias_hh_l0 f4 [500]
-0.13965724 0.21010174 -0.087267995 0.046878297 0.17363997 -0.15304999 0.064537436 0.3182655
0.16217436 0.16591595 0.26880646 0.21621487 0.12580797 0.22144994 -0.08332173 -0.14875042
0.07887179 0.042941857 0.13161443 0.25715384 0.05270439 0.18845414 0.038043857 0.21822941
0.07814905 -0.039985932 0.19673054 0.13655062 -0.04544231 0.13755423 -0.14568207 0.1872636
-0.14133674 -0.2314788 0.1202183 0.017623872 0.258341 0.3273449 0.12360559 0.23367912
0.13918385 -0.18347211 0.20634162 -0.38033247 -0.2778592 0.08911223 0.25285807 -0.06410659
-0.17774116 0.2383329 0.0016669144 -0.254752 0.0841229 -0.15302466 0.13573296 0.0074813245
-0.22442079 0.105572246 0.2075607 -0.13106598 0.07373107 -0.3188531 -0.029937183 0.033900913
-0.15647556 0.12995851 0.071245454 0.2787052 0.1669225 -0.1558909 0.09376954 -0.08595469
0.22530064 -0.09164582 -0.19760998 -0.25701815 0.040967155 0.09980423 -0.059279744 -0.049150705
0.25906667 -0.10685608 -0.26129746 -0.10754168 -0.040936932 -0.09776402 0.15339617 0.012989322
-0.012141623 -0.04103911 0.085238874 -0.1901951 0.0045291674 -0.054850776 0.28021592 0.16791475
0.07643553 -0.18918896 0.117101416 -0.10294489 0.07540739 0.14763005 -0.14398777 0.015543118
-0.0517306 -0.12950434 0.081938185 -0.09089935 0.041409824 0.2018338 0.11907963 0.17789055
0.022552682 0.14320679 -0.30089444 -0.1267067 0.07401771 -0.1835944 -0.039101537 0.13460173
-0.06068417 0.1508282 -0.11717644 0.049900338 -0.08823812 -0.081899375 -0.06161637 -0.047196623
0.23109926 0.15177442 0.09945303 0.15546213 -0.0878717 0.11437707 0.15946434 -0.072230175
-0.03162832 0.039508443 -0.14501432 -0.11972512 0.0863291 -0.14297463 0.2214266 0.25546515
0.14899202 0.30081353 -0.09934694 0.20721447 0.016575344 0.048633914 -0.07479668 -0.115881816
0.13982289 0.0098961955 0.23040903 -0.15601937 0.29364225 -0.07236928 -0.01421568 0.09431814
-0.008025408 -0.012133402 0.09116654 0.011404289 -0.038686655 0.2194848 -0.15036339 0.15450642
-0.14147384 -0.06545398 0.18127581 -0.12386936 0.008245554 0.09230953 0.0017606034 0.023077076
-0.052112725 -0.11768003 -0.057940226 0.018546436 -0.020381963 -0.20514058 0.07201968 0.1275744
-0.06558293 0.26694387 0.01125022 -0.15552427 0.102206014 0.021765273 -0.08571394 -0.052578963
-0.18519814 0.085575484 -0.027528076 0.09128641 -0.16856632 -0.21844639 0.030619362 -0.0114633115
-0.18153448 -0.108327955 0.23054099 -0.04140217 -0.1566011 0.0034799655 -0.16867942 -0.058333963
0.069037065 0.05598133 0.10897811 -0.016914843 -0.07837515 0.015053409 -0.17660531 -0.017834438
-0.06286303 -0.21838246 -0.023768026 0.1676657 -0.12955464 0.16812554 0.007485113 0.19415145
0.13518655 0.07638832 0.4298389 -0.12629922 -0.0506772 -0.030984916 -0.091754824 -0.085272454
-0.079224095 -0.13914804 0.16735794 0.0554714 0.15991189 0.08565431 0.2416537 -0.13391429
-0.1766957 0.024446387 0.08448675 0.057489224 0.004132874 -0.09005307 0.016027572 -0.050070025
-0.04491476 -0.13337536 0.13910334 0.13993044 -0.07092626 -0.15745226 -0.17156541 -0.124999516
00000000: 4f02 0fbe e924 573e 90b9 b2bd 7503 403d
00000010: adce 313e 23b9 1cbe 342c 843d b2f3 a23e
00000020: 0911 263e dfe5 293e 00a1 893e 6e67 5d3e
00000030: ced3 003e c6c3 623e 95a4 aabd 0852 18be
00000040: 8887 a13d cde3 2f3d efc5 063e aba9 833e
00000050: 8fe0 573d 1ffa 403e e0d3 1b3d 8877 5f3e
00000060: 9c0c a03d 4ac8 23bd bb73 493e edd3 0b3e
00000070: b721 3abd 04db 0c3e ae2d 15be 07c2 3f3e
00000080: 94ba 10be c708 6dbe 0335 f63d f05f 903c
00000090: 4645 843e c099 a73e ed24 fd3d 9449 6f3e
000000a0: 3686 0e3e 1de0 3bbe 384b 533e f0ba c2be
000000b0: 9043 8ebe 7980 b63d 9d76 813e 514a 83bd
000000c0: c701 36be 8a0d 743e 5e7c da3a db6e 82be
000000d0: a148 ac3d 7fb2 1cbe 95fd 0a3e e625 f53b
000000e0: 90ce 65be 4336 d83d cb8a 543e 2936 06be
000000f0: 5100 973d b740 a3be d33e f5bc afdb 0a3d
00000100: 213b 20be d813 053e 23e9 913d 73b2 8e3e
00000110: bbed 2a3e dda1 1fbe 3f0a c03d 0309 b0bd
00000120: 36b5 663e ceb0 bbbd 455a 4abe e297 83be
00000130: 2dcd 273d 2966 cc3d 51cf 72bd 4052 49bd
00000140: 63a4 843e 5cd7 dabd c8c8 85be d03e dcbd
00000150: 7cad 27bd 8138 c8bd e313 1d3e 2ad1 543c
00000160: a8ed 46bc a018 28bd b891 ae3d 81c2 42be
00000170: 6969 943b 35ab 60bd 7678 8f3e d8f1 2b3e
00000180: 3b8a 9c3d c0ba 41be ded2 ef3d c5d4 d2bd
00000190: 316f 9a3d 552c 173e 8871 13be 90a8 7e3c
000001a0: 77e3 53bd c99c 04be 35cf a73d 7029 babd
000001b0: 599d 293d 85ad 4e3e 05e0 f33d f128 363e
000001c0: 67c0 b83c cda4 123e d60e 9abe 67bf 01be
000001d0: 9996 973d 2c00 3cbe ef28 20bd 09d5 093e
000001e0: f78f 78bd b572 1a3e 34fa efbd 4c64 4c3d
000001f0: 30b6 b4bd dcba a7bd 7261 7cbd 3f51 41bd
00000200: 49a5 6c3e c16a 1b3e 08ae cb3d 7731 1f3e
00000210: 14f6 b3bd 863e ea3d 9f4a 233e 6aed 93bd
00000220: b38c 01bd 9bd3 213d a27e 14be 7232 f5bd
00000230: 50cd b03d f167 12be a8bd 623e 54cc 823e
00000240: 5d91 183e 3b04 9a3e 6976 cbbd 0830 543e
00000250: 04c9 873c 5b34 473d 002f 99bd 7253 edbd
00000260: bb2d 0f3e a723 223c 58f0 6b3e 8bc3 1fbe
00000270: 4758 963e 5836 94bd e2e8 68bc de29 c13d
00000280: 007d 03bc 2dcb 46bc 86b5 ba3d 0ed9 3a3c
00000290: e675 1ebd a0c0 603e dcf8 19be ee36 1e3e
000002a0: 85de 10be bc0c 86bd 5ea0 393e 38af fdbd
000002b0: 5c18 073c c70c bd3d 0cc4 e63a 230c bd3c
000002c0: 2774 55bd 3a02 f1bd bb52 6dbd b2ee 973c
000002d0: 13f8 a6bc 5f10 52be 0e7f 933d dda2 023e
000002e0: 5850 86bd deac 883e d852 383c c141 1fbe
000002f0: 6351 d13d 164d b23c ca8a afbd 0a5d 57bd
00000300: 95a4 3dbe 3342 af3d 8f82 e1bc 5ff4 ba3d
00000310: a69c 2cbe 69b0 5fbe 75d5 fa3c 9dd0 3bbc
00000320: 2de4 39be 0cdb ddbd f012 6c3e 5295 29bd
00000330: 0a5c 20be 2210 643b 4cba 2cbe 98ef 6ebd
00000340: 4e63 8d3d ae4c 653d ea2f df3d ff90 8abc
00000350: 2783 a0bd 93a2 763c 06d8 34be 8719 92bc
00000360: 55be 80bd a79f 5fbe 2ab5 c2bc 8fb0 2b3e
00000370: f9a9 04be 1a29 2c3e ae45 f53b a3cf 463e
00000380: 586e 0a3e 7b71 9c3d d813 dc3e 9554 01be
00000390: e592 4fbd 14d4 fdbc f4e9 bbbd 53a3 aebd
000003a0: 3e40 a2bd d37c 0ebe e15f 2b3e fb35 633d
000003b0: f1bf 233e 876b af3d 1174 773e d420 09be
000003c0: b8ef 34be ca43 c83c 6407 ad3d d279 6b3d
000003d0: 0f6d 873b be6d b8bd 414c 833c 3a16 4dbd
000003e0: 8af8 37bd 8d93 08be 1b71 0e3e ed49 0f3e
000003f0: c941 91bd 2a3b 21be d8ae 2fbe bfff ffbd

model.fc.weight f4 [1, 125]
0.37067142 0.23840621 -0.28450933 0.4040221 0.15253124 0.18291973 -0.22347343 -0.20426673
0.24080738 -0.15668705 0.21100546 -0.1520616 -0.18928684 0.16196543 -0.2907678 0.30160284
-0.091823794 -0.085977204 0.20161746 -0.2075184 -0.10468921 -0.21832316 -0.13229267 0.19073403
0.15845187 0.19548602 0.21389036 0.2229839 -0.08349957 0.17302582 0.44397408 -0.2769443
0.3693919 0.34671524 0.16737008 0.2840196 -0.20633319 0.17369452 0.12437427 0.20388268
-0.29122362 -0.30185986 0.1961304 -0.44227514 -0.19390328 0.11972458 -0.16077435 -0.3359568
0.36116016 -0.1956541 -0.21455331 -0.027716562 -0.21264747 0.21021117 -0.22868437 0.115343586
-0.041129157 -0.2106413 -0.17410763 -0.3127159 0.1582436 0.04173807 0.16496974 -0.33306178
0.22593856 0.138666 -0.22891062 0.24074575 -0.16477528 -0.36184886 0.20212653 -0.04045198
0.11454016 -0.23121256 0.21796641 -0.24667138 0.27557874 0.32604584 -0.30745053 0.1602115
-0.12791295 0.19753397 -0.2225105 -0.270107 0.20348354 -0.25033638 0.18249986 -0.29093656
-0.1544086 0.19206624 -0.16560216 -0.41959652 0.24490413 -0.32024992 -0.08706537 -0.15887727
-0.20533377 0.23121576 0.16238108 0.21327625 0.22980317 -0.009922297 0.2786081 0.1843184
0.40537384 0.18157761 0.2517928 0.16856824 -0.29659042 0.2194237 -0.16390637 -0.20451589
0.23208849 0.40518874 0.37715814 -0.50730956 0.17344949 -0.09110933 -0.21944748 -0.17843857
0.20433404 -0.18159527 0.12761368 -0.2335983 0.17484476
00000000: a5c8 bd3e c220 743e 35ab 91be fcdb ce3e
00000010: 2631 1c3e 4f4f 3b3e 38d6 64be 4c2b 51be
00000020: 3696 763e 9272 20be d111 583e 09b6 1bbe
00000030: 69d4 41be 44da 253e 84df 94be b06b 9a3e
00000040: 1d0e bcbd d114 b0bd cf74 4e3e b47f 54be
00000050: 4c67 d6bd 1b90 5fbe bb77 07be c84f 433e
00000060: 3541 223e 7d2d 483e 1306 5b3e e455 643e
00000070: d301 abbd ae2d 313e 9250 e33e a5cb 8dbe
00000080: ef20 bd3e a984 b13e 1063 2b3e 046b 913e
00000090: 0249 53be fadc 313e f0b7 fe3d 9fc6 503e
000000a0: 431b 95be 608d 9abe 68d6 483e e371 e2be
000000b0: 958e 46be 2932 f53d 08a2 24be 8802 acbe
000000c0: fce9 b83e 8c59 48be ddb3 5bbe d80d e3bc
000000d0: 42c0 59be 9941 573e 3c2c 6abe 4239 ec3d
000000e0: 0c77 28bd 5ab2 57be 4549 32be 4c1c a0be
000000f0: 9c0a 223e 8af5 2a3d d4ed 283e 1387 aabe
00000100: 705c 673e 76fe 0d3e 8c67 6abe 0e86 763e
00000110: daba 28be 4144 b9be 42fa 4e3e fab0 25bd
00000120: 0894 ea3d fcc2 6cbe 9632 5f3e 6c97 7cbe
00000130: a818 8d3e 7bef a63e 286a 9dbe 7c0e 243e
00000140: 9dfb 02be 5846 4a3e cbd9 63be 774b 8abe
00000150: fd5d 503e 172c 80be 3ee1 3a3e a3f5 94be
00000160: 4a1d 1ebe 03ad 443e 9d93 29be 5bd5 d6be
00000170: 26c8 7a3e ccf7 a3be 544f b2bd b9b0 22be
00000180: 0443 52be d3c3 6c3e 3a47 263e 1765 5a3e
00000190: 8651 6b3e 2191 22bc b9a5 8e3e f6bd 3c3e
000001a0: 298d cf3e 7bef 393e fcea 803e 279d 2c3e
000001b0: b3da 97be 9bb0 603e 12d7 27be 9d6c 51be
000001c0: 9ba8 6d3e e674 cf3e df1a c13e 0adf 01bf
000001d0: be9c 313e 8797 babd d7b6 60be 9ab8 36be
000001e0: f13c 513e 1cf4 39be 29ad 023e 6534 6fbe
000001f0: 810a 333e

exp_avg f4 [500, 8]
-0.001376473 -0.0013660523 -0.0010292276 -0.00088484277 0.010217314 0.0024008227 -0.0011300789 -0.0011777271
3.268156e-05 1.6680115e-05 0.00032456167 0.00042268797 -0.0037184686 -0.0036071658 0.0001103248 0.00029754828
-0.0022886838 -0.0027449308 0.000645198 0.00081689085 -0.00025818814 -0.00046262617 -0.0014196346 0.0007492752
-2.606064e-06 -8.535646e-06 -4.350324e-06 -2.6402847e-06 -8.805025e-06 4.4187735e-07 3.7832406e-06 -1.5654026e-06
0.00025514446 0.0002916126 0.0002749779 0.0002505704 -2.6125414e-05 -2.6596725e-05 0.00025729206 0.00035902733
-2.9270259e-05 -4.752393e-05 -2.7878074e-05 -2.9008263e-05 -7.680035e-05 -1.429229e-06 -3.4615336e-05 -2.7750757e-05
4.3976255e-05 0.00011811803 4.701953e-05 2.4220599e-05 0.00014607121 1.5771644e-05 -0.00010102443 -2.458807e-05
9.837041e-05 8.58264e-05 9.724783e-05 8.607778e-05 -0.0004326236 6.36594e-05 0.00015206807 8.912896e-05
-4.2340118e-05 -6.439137e-05 -3.6358895e-05 -3.3212844e-05 -0.00019679019 -1.6511019e-06 1.5650481e-05 -2.7251746e-05
-5.1110696e-06 -5.7924394e-06 -4.6233654e-06 -3.441687e-06 -4.3000346e-05 1.0443249e-07 -6.212027e-07 -2.8733866e-06
-5.1958395e-05 -8.362922e-06 -0.00018073841 -0.00011228812 0.0006450798 0.00062586064 4.550395e-05 -0.00015161719
0.0001505027 0.00079873647 0.00091581466 0.0010822642 -0.013789486 0.0006361104 0.00067050924 0.0010258815
1.41281425e-05 3.834232e-06 -0.00010906119 -0.0002889594 0.0010167141 0.0013417932 8.257313e-05 -0.00027360627
-0.00019445494 -0.00026353402 -0.00016772804 -0.00014420603 0.0001400945 -2.182375e-05 -0.00021812855 -0.00011155631
-3.6952653e-05 -0.0001328074 0.00017728074 8.2115126e-05 -0.00011658181 -2.6807209e-05 -7.0790484e-06 4.8437328e-06
-6.170796e-05 -0.0001555167 -8.479758e-05 -0.00012447406 -0.00029200953 -0.00013337191 -0.0001514338 -0.00010453328
-0.00021862859 -0.00033863215 -0.00030458128 -0.00025663688 0.00010001188 5.780033e-06 -0.0002457563 -0.00015784474
-6.3653235e-05 -0.00010126924 -5.754898e-05 -3.9597428e-05 -6.056612e-05 -5.3633466e-06 3.7719583e-05 -8.044173e-06
-4.2411775e-06 -1.7588977e-07 -8.667426e-07 -8.0558e-07 2.2247421e-05 -1.4972992e-06 -3.0920792e-06 1.9348358e-06
6.7146786e-05 4.919771e-05 5.574511e-05 5.5971872e-05 3.7310092e-06 5.126898e-06 4.5725163e-05 4.479354e-05
4.3674066e-12 9.692687e-12 1.7387434e-11 8.385464e-13 -7.992793e-11 -4.0453353e-13 1.3524619e-11 -1.44932824e-11
-7.7777695e-05 -0.0001355968 3.6009325e-05 2.0716787e-05 0.0026591786 -0.00014883975 -0.00010207931 6.1120925e-05
-5.993604e-06 -6.1865203e-06 -7.862784e-06 -8.997892e-06 -3.6796366e-05 2.1681055e-06 -5.964842e-06 -1.50516535e-05
-2.0430796e-05 9.361465e-05 2.5452075e-05 4.5516786e-05 0.00051325996 0.000865336 7.04128e-05 2.4558034e-05
0.00022744907 0.00028308903 0.00022814907 0.00016490342 7.516616e-05 0.00013976508 0.00027072302 1.17939735e-05
-0.0015613653 -0.0020671787 -0.0023005083 -0.002374622 -0.0017151377 -0.0002529152 -0.0024728235 -0.0024187777
0.00078090397 0.0010183591 0.0008234396 0.0007610924 -0.00014598075 -0.00040239052 0.0006580873 0.0007657026
-8.562086e-07 3.7740836e-07 -1.815751e-06 -2.3139787e-06 6.2970175e-06 8.106905e-07 -1.11307345e-05 -2.9588407e-06
0.00028724252 0.0003422518 0.00023702862 0.00019907381 -7.2432726e-05 0.00018498178 0.00030151464 -4.588173e-05
9.666768e-07 5.299483e-07 2.4378426e-06 1.01472054e-07 -6.0223945e-05 1.4574977e-07 1.4451634e-06 -2.1514645e-06
-0.0012883572 -0.0013427604 -0.0006116103 -0.0001771554 0.00014207936 1.558677e-05 -0.000980151 0.0001329158
3.6732745e-05 5.811798e-05 3.340517e-05 2.509824e-05 6.854381e-05 2.9575526e-06 -1.935053e-05 1.0419046e-05
00000000: c56a b4ba 1c0d b3ba 26e7 86ba cbf4 67ba
00000010: 8566 273c 1f57 1d3b 281f 94ba f75d 9aba
00000020: 8f13 0938 46ec 8b37 ee29 aa39 389c dd39
00000030: 8db1 73bb 3366 6cbb 2d5e e738 4100 9c39
00000040: befd 15bb 4ce4 33bb 8122 293a 9e24 563a
00000050: 6d5d 87b9 a28c f2b9 0813 baba 026b 443a
00000060: d7e3 2eb6 5234 0fb7 00f9 91b6 bf2f 31b6
00000070: 4bb9 13b7 293b ed34 94e3 7d36 d31a d2b5
00000080: e9c4 8539 95e3 9839 e92a 9039 fd5e 8339
00000090: e627 dbb7 081c dfb7 28e5 8639 d53b bc39
000000a0: 6789 f5b7 6e54 47b8 b5db e9b7 c556 f3b7
000000b0: e00f a1b8 efd3 bfb5 ef2f 11b8 4cca e8b7
000000c0: 2573 3838 22b6 f738 d636 4538 572d cb37
000000d0: b12a 1939 594d 8437 14dd d3b8 7a42 ceb7
000000e0: 364c ce38 b3fd b338 88f1 cb38 a884 b438
000000f0: c2d1 e2b9 e180 8538 7674 1f39 bfea ba38
00000100: 5b96 31b8 db09 87b8 1180 18b8 054e 0bb8
00000110: 7759 4eb9 6e9b ddb5 2749 8337 ae9a e4b7
00000120: c17f abb6 ad5c c2b6 6822 9bb6 bcf7 66b6
00000130: 455b 34b8 5e44 e033 b9c0 26b5 68d4 40b6
00000140: e7ed 59b8 7a4e 0cb7 9984 3db9 3a7c ebb8
00000150: 931a 293a cc10 243a 7fdb 3e38 6efb 1eb9
00000160: 43d0 1d39 4c62 513a 4813 703a c3da 8d3a
00000170: 4ced 61bc a5c0 263a 1dc5 2f3a df76 863a
00000180: e907 6d37 cda7 8036 c8b7 e4b8 797f 97b9
00000190: 4443 853a 1cdf af3a 1d2b ad38 d072 8fb9
000001a0: 9ae6 4bb9 f02a 8ab9 27e0 2fb9 0336 17b9
000001b0: 55e6 1239 2512 b7b7 70b9 64b9 56f3 e9b8
000001c0: 9cfd 1ab8 3742 0bb9 70e4 3939 3935 ac38
000001d0: 627d f4b8 0be0 e0b7 9088 edb6 5987 a236
000001e0: 3569 81b8 3212 23b9 5bd5 b1b8 4085 02b9
000001f0: db18 99b9 c0d9 0bb9 33ca 1eb9 e138 dbb8
00000200: aa3f 65b9 708a b1b9 35b0 9fb9 388d 86b9
00000210: 78bd d138 1bf2 c136 dad8 80b9 2083 25b9
00000220: 927d 85b8 8260 d4b8 bf60 71b8 6a15 26b8
00000230: 6008 7eb8 ccf6 b3b6 1835 1e38 76f5 06b7
00000240: 704f 8eb6 36dc 3cb4 19aa 68b5 093f 58b5
00000250: f99f ba37 cff6 c8b5 8481 4fb6 3ad8 0136
00000260: 28d1 8c38 a459 4e38 dbcf 6938 57c3 6a38
00000270: 4062 7a36 b807 ac36 05c9 3f38 b3e0 3b38
00000280: 1aaa 992c fb83 2a2d 05f1 982d a307 6c2b
00000290: 6dc3 afae 6dbb e3aa 78ed 6d2d f1f7 7ead
000002a0: 951c a3b8 fd2e 0eb9 b808 1738 f6c8 ad37
000002b0: 9d45 2e3b de11 1cb9 6a13 d6b8 0c2e 8038
000002c0: ab1c c9b6 ce95 cfb6 66ea 03b7 a7f5 16b7
000002d0: cc55 1ab8 c57f 1136 9a25 c8b6 5c86 7cb7
000002e0: cd62 abb7 fc52 c438 ea81 d537 47e9 3e38
000002f0: 4b8c 063a b7d7 623a 96aa 9338 fa01 ce37
00000300: 657f 6e39 916b 9439 4d3b 6f39 ede9 2c39
00000310: 86a2 9d38 e78d 1239 d4ef 8d39 bbde 4537
00000320: baa6 ccba 8179 07bb 20c4 16bb 8c9f 1bbb
00000330: 79ce e0ba b499 84b9 180f 22bb 5b84 1ebb
00000340: 94b5 4c3a 767a 853a 19dc 573a 0c84 473a
00000350: 6912 19b9 f1f7 d2b9 7e83 2c3a 6fb9 483a
00000360: 35d6 65b5 9c9e ca34 bbb4 f3b5 da49 1bb6
00000370: f84a d336 3a9e 5935 24be 3ab7 7f90 46b6
00000380: 0a99 9639 4270 b339 e38a 7839 78be 5039
00000390: 06e7 97b8 abf7 4139 9c14 9e39 2271 40b8
000003a0: c3be 8135 c541 0e35 d199 2336 dae8 d933
000003b0: f898 7cb8 647f 1c34 70f7 c135 e161 10b6
000003c0: 18de a8ba 90ff afba 7954 20ba cac2 39b9
000003d0: 23fb 1439 55c0 8237 6978 80ba 505f 0b39
000003e0: 7c11 1a38 b5c3 7338 871c 0c38 0f8a d237
000003f0: 2ebf 8f38 5e7a 4636 f252 a2b7 76cd 2e37

exp_avg_sq f4 [500, 8]
9.240125e-06 1.0477145e-05 1.9861216e-05 1.7315002e-05 0.0020557872 8.600811e-05 3.8554736e-05 1.2362976e-05
1.0822632e-06 3.6554784e-06 1.3723377e-06 2.644057e-06 0.0004052021 0.00015096627 3.2436926e-06 2.2643346e-06
3.3883944e-06 2.2485306e-06 1.7828994e-05 1.3852333e-05 0.00030591953 0.00017005912 3.997542e-06 8.1734615e-06
2.022817e-08 2.146819e-08 1.0681665e-08 1.2578377e-08 3.7121054e-06 7.746064e-07 1.5137027e-07 1.20012285e-08
5.454751e-07 5.672145e-07 8.530333e-07 6.558897e-07 1.1435926e-05 6.444701e-05 1.2570741e-06 8.49799e-07
7.8683854e-07 7.9810627e-07 1.1067577e-06 5.558572e-07 6.793347e-06 3.427884e-06 9.2475034e-07 4.1225888e-07
3.866956e-07 3.6563853e-07 1.4040069e-07 2.9460884e-07 1.8758536e-05 1.538647e-06 1.5031212e-07 6.1925556e-07
1.1519215e-06 1.393465e-06 1.1426888e-05 9.051601e-06 5.6009398e-05 3.87799e-05 1.0938622e-05 5.090141e-06
3.5467784e-07 1.926056e-07 2.9108446e-07 3.9973486e-07 1.6004618e-05 6.109347e-05 1.8021305e-07 4.5903593e-07
1.2354401e-07 3.6458636e-07 1.3773312e-06 1.2202848e-06 1.8852075e-05 3.056855e-06 1.7936736e-06 7.873949e-07
1.3082223e-05 2.4169894e-05 3.4862816e-05 3.240825e-05 0.001298269 0.00016039565 5.0652096e-05 1.6690396e-05
2.2105955e-06 4.1236494e-06 2.065714e-05 1.6418246e-05 0.00017260232 5.1227045e-05 2.5198417e-05 7.79801e-06
5.337097e-07 5.01837e-07 4.541885e-07 3.04139e-07 7.3805975e-05 1.076523e-05 7.4150086e-07 3.7013862e-07
1.11706595e-05 1.7692155e-05 3.336239e-05 2.834738e-05 0.00014198423 4.6102316e-05 4.5685716e-05 1.3635484e-05
3.2882772e-06 4.1079556e-06 4.070574e-06 3.1039247e-06 8.49785e-06 6.8755344e-06 3.1875866e-06 1.2807286e-06
1.0117905e-05 2.1434329e-05 1.1305953e-05 1.4053723e-05 3.0071129e-05 6.7608275e-06 1.686728e-05 7.476783e-06
2.420677e-06 4.0860436e-06 2.1872032e-05 1.8050032e-05 1.2550879e-05 8.9997375e-06 6.1450123e-06 9.982431e-06
2.0588938e-07 3.9327026e-07 7.540003e-06 6.0163416e-06 3.6431354e-06 3.7043148e-06 6.7649016e-06 2.7108006e-06
7.7072045e-08 1.5399728e-07 1.4813249e-07 9.590932e-08 0.0003583177 2.6766216e-07 8.495762e-08 1.013853e-07
2.545136e-06 1.1853763e-06 1.6672739e-05 1.2591975e-05 9.812589e-05 0.00012244821 9.769514e-06 7.236581e-06
1.5061635e-08 1.8714855e-08 1.231676e-08 9.7696224e-09 1.2094387e-07 1.5839098e-06 1.45138355e-08 6.086368e-09
1.0007797e-06 1.3932647e-06 1.0031476e-06 1.0491754e-06 0.00012085446 1.8739976e-05 1.4384644e-06 1.1845914e-06
1.8729594e-07 9.073437e-07 1.3148926e-07 6.107474e-07 2.1303633e-05 4.192019e-06 8.2724847e-07 9.856201e-07
1.0480668e-06 1.2834992e-06 1.8035246e-06 9.618943e-07 3.849068e-05 2.504267e-05 1.5142073e-05 9.1761234e-07
2.401341e-06 2.9731016e-06 1.1946017e-06 6.3013135e-07 5.6419667e-05 9.163018e-05 2.2330523e-06 1.2875329e-06
6.672558e-06 1.3062352e-05 4.7895433e-06 7.979838e-06 5.2717965e-05 2.7244601e-05 7.213933e-06 7.5400026e-06
5.0477147e-06 7.1131253e-06 5.106632e-05 4.050264e-05 0.0005117191 2.9369898e-05 2.3977753e-05 4.95408e-05
5.4297675e-07 8.784185e-07 2.3894204e-06 1.9310535e-06 1.4972264e-06 1.9573258e-06 1.46907005e-05 2.5478587e-06
8.9578185e-07 1.2295735e-06 2.3330326e-06 9.663833e-07 0.00024792706 1.4496994e-05 2.840275e-06 6.368671e-07
1.1437685e-08 2.4470681e-08 1.4797726e-08 2.4400364e-08 4.1421234e-07 2.3417327e-07 5.1670145e-08 1.7683135e-08
9.712968e-06 1.3703089e-05 1.2553785e-05 1.0748229e-05 0.00052740955 0.00033686374 1.816207e-05 7.572947e-06
1.4198696e-07 2.7944079e-08 3.1720845e-06 2.462102e-06 1.1358169e-05 6.135297e-05 1.2043485e-07 1.4384002e-06
00000000: 0906 1b37 ffc6 2f37 a39b a637 af3f 9137
00000010: 63ba 063b 415f b438 d5b5 2138 946a 4f37
00000020: 4842 9135 a450 7536 2a31 b835 8e70 3136
00000030: 4e71 d439 b34c 1e39 37ae 5936 f9f4 1736
00000040: 2c64 6336 76e5 1636 798f 9537 5167 6837
00000050: d363 a039 e651 3239 a022 8636 c020 0937
00000060: 37c2 ad32 0d69 b832 7682 3732 4918 5832
00000070: 7c1d 7936 8cee 4f35 5888 2234 f62d 4e32
00000080: c36c 1235 af42 1835 01fc 6435 6610 3035
00000090: eedc 3f37 ba27 8738 bdb8 a835 be1d 6435
000000a0: 2237 5335 723d 5635 e88b 9435 3736 1535
000000b0: 68f2 e336 990a 6636 5c3c 7835 6e54 dd34
000000c0: 0a9b cf34 fa4c c434 0cc1 1634 bb2a 9e34
000000d0: a65b 9d37 8283 ce35 7b65 2134 eb3a 2635
000000e0: b99b 9a35 1807 bb35 1cb6 3f37 55dc 1737
000000f0: a2eb 6a38 9aa7 2238 0685 3737 facb aa36
00000100: 8d6a be34 06cf 4e34 5846 9c34 249b d634
00000110: a841 8637 4f1f 8038 9680 4134 6b71 f634
00000120: 85a7 0434 5ebc c334 bddc b835 abc8 a335
00000130: 8624 9e37 5e24 4d36 28be f035 5e5d 5335
00000140: b87b 5b37 74c0 ca37 aa39 1238 18ee 0738
00000150: ae2a aa3a e12f 2839 4673 5438 5a02 8c37
00000160: be59 1436 e15d 8a36 df48 ad37 eab9 8937
00000170: 95fc 3439 9fdc 5638 3061 d337 33d4 0237
00000180: 4044 0f35 fab5 0635 31d7 f334 8c48 a334
00000190: 48c8 9a38 509c 3437 8d0b 4735 77b7 c634
000001a0: 9e69 3b37 9d69 9437 98ee 0b38 89cb ed37
000001b0: 9ae1 1439 fc5d 4138 aa9e 3f38 f5c3 6437
000001c0: 2cac 5c36 12d7 8936 f795 8836 054d 5036
000001d0: fd91 0e37 64b4 e636 52ea 5536 80e5 ab35
000001e0: 12c0 2937 dfcd b337 b3ae 3d37 48c8 6b37
000001f0: 4241 fc37 11db e236 357e 8d37 14e1 fa36
00000200: ea72 2236 d91a 8936 d579 b737 266a 9737
00000210: 9d91 5237 94fd 1637 4131 ce36 377a 2737
00000220: 7112 5d34 a722 d334 2200 fd36 fbdf c936
00000230: 977c 7436 a597 7836 10fe e236 33eb 3536
00000240: ce82 a533 735a 2534 590e 1f34 b5f6 cd33
00000250: 96dc bb39 35b3 8f34 f271 b633 28b9 d933
00000260: 1bcd 2a36 3819 9f35 6fdc 8b37 1f42 5337
00000270: f0c8 cd38 7165 0039 bee7 2337 c2d1 f236
00000280: e360 8132 67c2 a032 af99 5332 41d7 2732
00000290: ccdc 0134 ba96 d435 8658 7932 4220 d131
000002a0: 8752 8635 3600 bb35 e4a3 8635 64d1 8c35
000002b0: 3f73 fd38 cb33 9d37 4311 c135 40fe 9e35
000002c0: 841b 4934 2f90 7335 7e2f 0d34 3ef2 2335
000002d0: 34b5 b237 2ba9 8c36 1510 5e35 a649 8435
000002e0: 4dab 8c35 b244 ac35 a210 f235 701a 8135
000002f0: 0e71 2138 b912 d237 b50a 7e37 d751 7635
00000300: b926 2136 7f85 4736 3456 a035 4c26 2935
00000310: 28a4 6c38 9429 c038 8cdb 1536 4bcf ac35
00000320: d6e4 df36 6026 5b37 ddb5 a036 25e1 0537
00000330: 7c1d 5d38 568b e437 360f f236 2100 fd36
00000340: 8a5f a936 48ad ee36 0b30 5638 61e1 2938
00000350: e324 063a 605f f637 d523 c937 07ca 4f38
00000360: 14c1 1135 76cc 6b35 ee59 2036 3f97 0136
00000370: 4ff4 c835 9a5a 0336 1478 7637 e1fb 2a36
00000380: a975 7035 d307 a535 3291 1c36 adb4 8135
00000390: 35fc 8139 1d38 7337 8e9b 3e36 2df5 2a35
000003a0: 787f 4432 9933 d232 1639 7e32 f898 d132
000003b0: e960 de34 0f71 7b34 edeb 5d33 a0e5 9732
000003c0: e1f4 2237 52e6 6537 199e 5237 4b53 3437
000003d0: db41 0a3a 169d b039 c05a 9837 1f1b fe36
000003e0: 1475 1834 ae09 f032 ffdf 5436 973a 2536
000003f0: f78e 3e37 a0aa 8038 e150 0134 0e0f c135

exp_avg f4 [500, 125]
1.9630013e-05 0.00012294659 2.085906e-07 2.3815024e-05 -0.00020059485 1.9423951e-05 2.0084382e-05 3.3130404e-05
-2.1818501e-07 0.00010664709 0.0001419781 6.21067e-05 0.00019666871 9.5625925e-05 6.411717e-05 5.2046424e-05
7.8729114e-05 0.00019455886 3.7973896e-05 5.997369e-05 0.00015845687 -8.498057e-06 -7.521618e-05 2.6508498e-05
-2.6689679e-05 -6.460273e-05 -5.4395903e-05 6.1740575e-05 0.00015050685 -5.6888523e-05 -0.00013087054 -6.365042e-05
-1.1213843e-05 -4.6722175e-06 -9.8234865e-05 -0.000106692234 0.00010306503 -2.6621059e-05 -0.00011999387 5.9732796e-05
-1.4586073e-05 -6.144097e-05 -7.250982e-05 -1.957791e-05 -1.725311e-06 -7.88787e-05 9.043212e-05 1.4533443e-05
-1.472912e-05 0.0002124192 3.1404809e-06 2.0056936e-05 4.1096733e-05 5.9451025e-08 -9.1843895e-06 -1.608432e-05
5.0010167e-05 1.8383907e-05 0.0001637415 2.4691475e-05 8.273392e-05 -1.8747938e-05 -1.9103365e-05 7.3264244e-05
-1.887859e-05 -2.3067061e-05 -0.00013281016 -2.7160717e-05 -3.5545134e-05 5.7660886e-06 -9.847727e-05 3.5376095e-07
-4.886e-05 1.9007593e-05 6.892621e-05 1.7323968e-06 5.3971607e-06 1.9153593e-05 -2.0606061e-05 -3.5492617e-06
9.657369e-05 -8.306202e-08 2.0835072e-05 1.3691368e-07 4.476827e-05 3.7353075e-05 0.00014235803 -2.8337417e-05
-2.0671729e-05 -8.1238315e-05 0.00018814587 2.109651e-05 1.9775793e-05 2.2112956e-05 9.341043e-05 0.00013088649
6.462421e-05 3.0667135e-07 0.00010402635 -9.4687784e-05 -4.69698e-05 2.6399312e-05 -1.9564077e-05 -1.0538225e-05
2.7229591e-05 8.551623e-05 5.368537e-06 2.049693e-05 -2.3066603e-07 -9.088173e-06 2.716252e-05 0.00014178858
-1.0934591e-05 -2.1100138e-06 2.9955308e-06 1.3393136e-06 -0.00013212717 -1.7619517e-05 -1.1509904e-06 -5.9070575e-05
-0.000102183105 0.00020446753 -2.7364284e-05 -1.5156528e-05 -7.92891e-06 5.5537525e-06 1.32171e-07 5.9276135e-07
5.657092e-07 1.1681727e-05 5.9989393e-06 7.643822e-06 -1.03509865e-05 -4.04989e-06 -5.909839e-06 -1.1660043e-05
-3.7431646e-06 -3.2592434e-06 -1.0056914e-05 4.0952655e-06 1.4114836e-07 -1.1812062e-06 -1.2830988e-06 -3.4064007e-07
-3.3428971e-06 -3.6267207e-05 6.7025803e-06 6.0291027e-06 -5.64303e-06 1.2075093e-05 1.7055731e-06 7.913264e-06
7.763908e-06 -8.297755e-06 2.862815e-06 -2.6311968e-06 -3.4065764e-07 -2.7166086e-06 3.4454324e-06 8.5778875e-06
-1.976788e-06 7.592888e-06 -3.5298973e-07 4.146778e-07 -1.3639502e-05 -8.845395e-06 1.9147715e-06 1.3536984e-05
-4.0935056e-06 -1.2648036e-08 1.8044738e-06 -7.600677e-06 -9.51494e-06 -1.5603938e-07 -1.0766823e-05 -4.291483e-06
8.537583e-06 2.9158132e-06 -1.1566261e-07 -1.6199823e-06 8.234595e-06 -3.8759072e-07 3.374957e-06 -9.78364e-06
8.4168905e-06 7.6043887e-07 -6.8635472e-06 -8.976952e-06 2.7898861e-06 -5.600046e-06 2.0749433e-06 -5.2956602e-06
7.406743e-06 1.2661607e-07 6.134931e-07 7.3114957e-06 4.747749e-08 5.4095963e-06 5.032919e-06 1.7587352e-07
4.4900253e-07 -1.1618625e-06 7.020476e-07 -2.5102618e-06 1.4572115e-06 -3.7136415e-06 2.8278444e-08 8.561228e-06
-1.2662379e-08 2.1631884e-06 5.2091455e-06 -5.2131486e-06 -1.8162292e-07 -3.790834e-08 -6.61207e-06 -1.1252693e-05
5.4128004e-06 1.5005896e-06 6.3845805e-06 -1.2801659e-05 -3.1652316e-06 4.7420212e-06 3.785355e-10 9.371407e-07
-1.4319735e-05 7.1950476e-06 -5.043976e-05 -5.3564604e-06 2.0027956e-07 -3.692568e-07 -4.3239882e-07 -1.0183358e-06
2.2010267e-06 1.1167391e-06 6.1135097e-06 -5.512245e-06 -1.7563173e-07 -8.059684e-06 -6.0511775e-07 -1.3374604e-07
2.7052642e-09 4.4749518e-06 -1.9074469e-06 -2.612669e-06 1.250676e-06 -5.8147016e-06 -1.5333379e-05 1.3468167e-06
-4.687658e-06 7.66095e-06 1.0647421e-05 -8.953068e-05 -1.0186264e-06 1.2887825e-05 0.00016515431 1.1033314e-05
00000000: 22ab a437 39eb 0039 f3f8 5f34 60c6 c737
00000010: c556 52b9 9ef0 a237 e27a a837 80f5 0a38
00000020: 3d46 6ab4 b8a7 df38 f5df 1439 483f 8238
00000030: db38 4e39 c78a c838 a576 8638 6c4c 5a38
00000040: 5f1b a538 7f02 4c39 2946 1f38 428c 7b38
00000050: 7127 2639 e092 0eb7 61bd 9db8 915e de37
00000060: a6e3 dfb7 547b 87b8 2827 64b8 b87a 8138
00000070: 60d1 1d39 969b 6eb8 4b3a 09b9 0f7c 85b8
00000080: 1723 3cb7 0bc6 9cb6 7103 ceb8 f5bf dfb8
00000090: 9e24 d838 4a50 dfb7 38a5 fbb8 9a89 7a38
000000a0: b5b6 74b7 dfd9 80b8 6a10 98b8 3e3b a4b7
000000b0: 3c91 e7b5 ae6b a5b8 60a6 bd38 aad4 7337
000000c0: 171d 77b7 d8bc 5e39 0dc1 5236 f13f a837
000000d0: 485f 2c38 1857 7f33 a716 1ab7 d0ec 86b7
000000e0: 02c2 5138 2437 9a37 06b2 2b39 8a20 cf37
000000f0: 6f81 ad38 e444 9db7 2a40 a0b7 71a5 9938
00000100: 775d 9eb7 2380 c1b7 f542 0bb9 32d7 e3b7
00000110: 4c16 15b8 537a c136 9585 ceb8 89ec bd34
00000120: 07ef 4cb8 7f72 9f37 7a8c 9038 b384 e835
00000130: 4219 b536 07ac a037 2edb acb7 da2f 6eb6
00000140: 9b87 ca38 d45f b2b3 fac6 ae37 8c02 1334
00000150: 90c5 3b38 8fab 1c38 f145 1539 24b6 edb7
00000160: 3368 adb7 7d5e aab8 0649 4539 69f8 b037
00000170: 31e4 a537 367f b937 58e5 c338 933e 0939
00000180: dc86 8738 97a4 a434 b928 da38 1e93 c6b8
00000190: 7001 45b8 1774 dd37 891d a4b7 55cd 30b7
000001a0: 1a6b e437 2d57 b338 6223 b436 d2f0 ab37
000001b0: ffac 77b4 6879 18b7 11db e337 15ad 1439
000001c0: b673 37b7 c399 0db6 d406 4936 77c2 b335
000001d0: 9e8b 0ab9 a0cd 93b7 bb7b 9ab5 8cc2 77b8
000001e0: 234b d6b8 5666 5639 5a8c e5b7 cb48 7eb7
000001f0: 6906 05b7 5f5a ba36 e3ea 0d34 401e 1f35
00000200: 3ddb 1735 a3fc 4337 7f4a c936 f73d 0037
00000210: 26a9 2db7 4ae4 87b6 214d c6b6 819f 43b7
00000220: 1433 7bb6 60b9 5ab6 1eba 28b7 106a 8936
00000230: 918e 1734 f089 9eb5 f036 acb5 37e1 b6b4
00000240: 8956 60b6 9e1d 18b8 bae6 e036 994d ca36
00000250: 4259 bdb6 2196 4a37 0ceb e435 36c3 0437
00000260: bb41 0237 9636 0bb7 ca1e 4036 9e93 30b6
00000270: a1e3 b6b4 fb4e 36b6 1438 6736 bfe9 0f37
00000280: f6a8 04b6 69c6 fe36 8a82 bdb4 e2a0 de34
00000290: 37d5 64b7 af66 14b7 867f 0036 e71c 6337
000002a0: f25a 89b6 a74a 59b2 3f31 f235 5109 ffb6
000002b0: 5ba2 1fb7 c78b 27b4 27a3 34b7 8fff 8fb6
000002c0: a43c 0f37 4aad 4336 3162 f8b3 2b6e d9b5
000002d0: 5127 0a37 1016 d0b4 527d 6236 6a24 24b7
000002e0: 4536 0d37 f620 4c35 6c4d e6b6 b79b 16b7
000002f0: e139 3b36 07e8 bbb6 413f 0b36 60b1 b1b6
00000300: 7087 f836 f6f3 0734 edae 2435 4555 f536
00000310: 0dea 4b33 1484 b536 72e0 a836 bfd7 3c34
00000320: 700e f134 4bf1 9bb5 5874 3c35 f875 28b6
00000330: 6895 c335 e037 79b6 f5e8 f232 32a2 0f37
00000340: bb89 59b2 4b2b 1136 38ca ae36 9bec aeb6
00000350: 2104 43b4 a9d0 22b3 40dd ddb6 f3c9 3cb7
00000360: 9a9f b536 de67 c935 213b d636 b5c6 56b7
00000370: 446a 54b6 a71d 9f36 231a d02f d28f 7b35
00000380: cb3e 70b7 fd6c f136 488f 53b8 a5bb b3b6
00000390: 6d0c 5734 453e c6b4 7124 e8b4 c0ad 88b5
000003a0: 5ab5 1336 dde2 9535 a622 cd36 d3f5 b8b6
000003b0: 4895 3cb4 1438 07b7 606f 22b5 d59b 0fb4
000003c0: 83e7 3931 8b27 9636 b001 00b6 5055 2fb6
000003d0: e6dc a735 e81b c3b6 2ea0 80b7 45c4 b435
000003e0: ad4a 9db6 8887 0037 53a2 3237 6bc2 bbb8
000003f0: bdb7 88b5 c938 5837 462d 2d39 b91b 3937
