lightning_logs/version_33/checkpoints/epoch=4-step=1100.ckpt (torch, 19098 bytes, 15 tensors)

model.lstm.weight_ih_l0 f4 [40, 8]
000000 cd 19 b7 bd 49 a2 ca bd 9f ce 84 3b c0 98 89 3b
       -0.08940468 -0.09894235 0.0040529515 0.0041991174
000010 be 01 ae ba 7f d5 54 3d ca 9e 12 bc b9 23 3e be
       -0.0013275666 0.05196142 -0.008948991 -0.18568315
000020 9a 03 95 be ca 05 98 3d ff 3b 29 be 23 e1 83 3e
       -0.2910431 0.07422979 -0.16526793 0.25757703
000030 a7 60 65 3e ad f6 35 be 21 10 92 3b 94 2c 32 be
       0.22400151 -0.1776988 0.004457489 -0.17399818
000040 80 d7 15 3e 6c 05 23 3d ba 0a 91 3e d0 64 8a 3e
       0.14632988 0.039800093 0.28328496 0.2703004
000050 4b f7 c1 3d f4 07 a9 3c fe 4e 3c bd 06 89 05 be
       0.094709955 0.020633675 -0.04597377 -0.13040552
000060 18 16 61 be 91 e5 75 3e e9 19 94 3d 01 87 57 be
       -0.21981084 0.24013354 0.072315045 -0.21047594
000070 60 8b 3c be 89 f7 5d 3d 9a a6 af bd 9d 89 a7 3e
       -0.18412542 0.054191146 -0.085766986 0.32722178
000080 eb 29 3e 3d 91 f5 a8 3d 49 bc e9 bd 4b b6 2b be
       0.046426695 0.08249963 -0.11412866 -0.16768758
000090 6c a3 c9 3c d2 4f 5a 3e da f5 ac bd 31 5d 3f be
       0.024614058 0.21319512 -0.0844533 -0.18687893
0000a0 71 33 4d bd be 7e 07 be b5 c0 87 be 22 0f 3d 3e
       -0.050097886 -0.13231942 -0.2651421 0.18462804
0000b0 9c b4 24 be d2 43 63 be 8f 3d 57 3e 7c 75 55 bd
       -0.16084522 -0.2219384 0.21019576 -0.052113995
0000c0 8b 1b 12 3d 11 b3 2c be b3 02 01 3e 5d f7 56 3e
       0.0356708 -0.16865183 0.12598686 0.20992799
0000d0 83 0a 93 3e 3d 76 fc 3d b0 fc a7 bc e3 6e 89 3e
       0.28718957 0.1232724 -0.020506233 0.26842412
0000e0 b2 cb c6 3d d2 2a af 3d b0 f9 8b 3e 06 7a 21 3c
       0.097068205 0.08553089 0.27338934 0.009855753
0000f0 9e 7a 7a 3d 89 24 60 3d d6 47 a0 3e 00 26 61 3e
       0.061152093 0.054722343 0.31304806 0.21987152
000100 f7 2d 44 3d 5f bf ee bd f3 64 d9 3c a7 85 82 be
       0.047895398 -0.11657595 0.026537394 -0.25492594
000110 c1 10 99 be 68 9b 60 3b 3f 58 4b be 84 14 83 be
       -0.29895595 0.0034272317 -0.19857882 -0.2560159
000120 bd 7a 05 be 1d 14 6c be 54 41 0b 3e 82 58 51 be
       -0.13035102 -0.23054548 0.1359914 -0.2044392
000130 85 6e 85 3e 6f 20 50 bd 59 fb c8 3d 88 05 c8 bd
       0.26060882 -0.05081218 0.09813566 -0.0976668
000140 3e 8f 53 3e 97 11 97 3e 18 2f ce 3d 43 a0 85 3e
       0.20660111 0.29505607 0.10067576 0.26098832
000150 db a1 9c bd f7 84 c2 3d b4 4d 4b be a7 ba d7 3d
       -0.07648059 0.09498017 -0.1985386 0.10533648
000160 aa 63 94 be 67 b7 6f be 1c a3 97 be 3b 6d bc bd
       -0.28982288 -0.23409806 -0.2961663 -0.092005216
000170 fe 21 2b be 65 03 ac bd 75 eb 2d be 9b fd 3c 3b
       -0.16712186 -0.08399085 -0.16984351 0.0028837684
000180 57 12 96 3e 0a 7f 7a be f5 9b 97 3e d9 b2 90 be
       0.29310867 -0.24462524 0.29611173 -0.2826145
000190 6e 64 19 3e b8 45 95 bd 1b a3 3d 3d 09 4b 9d be
       0.14979717 -0.072886884 0.046298128 -0.3072131
0001a0 0f 2b 9a bd 6b ff 0d 3e 77 5a ec bd 92 c2 b2 3d
       -0.07527744 0.13866965 -0.11540692 0.087285176
0001b0 c9 9a 93 be 00 bb 3d 3d 52 9f 58 3e 7c 22 94 be
       -0.2882903 0.046320915 0.21154526 -0.2893256
0001c0 0e 26 af bd 27 c3 12 3e b4 bb 99 3e 92 52 a6 3e
       -0.0855218 0.14332257 0.3002602 0.3248487
0001d0 08 18 dd 3c 98 34 68 3e 59 ef 7a bd 0d 4e 4b be
       0.026988998 0.22676313 -0.061263416 -0.19853993
0001e0 30 03 5a be 13 26 35 3e eb a6 90 3e b7 6e e3 3d
       -0.21290278 0.17690305 0.28252348 0.111051016
0001f0 3b c6 4b be 52 57 57 be ce 6a bf bd 38 3d 05 bd
       -0.19899838 -0.21029404 -0.09346543 -0.032529086
000200 a9 36 78 bd d4 66 6a be 6e 44 04 be 21 80 08 3e
       -0.060599003 -0.22890788 -0.12916729 0.13330127
000210 ea f9 5b be 83 68 60 be 2f d1 5a 3c 50 b0 8d 3e
       -0.21482053 -0.21914868 0.013355537 0.27673578
000220 61 a7 bf 3d 2f 57 56 3e 45 cc 9c bd 79 a2 47 3c
       0.09358097 0.20931695 -0.07656149 0.012184733
000230 17 59 54 be c8 a2 40 3e 31 e5 eb 3d b8 6a a9 3e
       -0.2073711 0.18812096 0.11518324 0.33089232
000240 47 c9 40 be e9 26 fd 3d 26 f5 59 be 5e cb 1e 3e
       -0.18826781 0.12360937 -0.21284923 0.15507266
000250 de 64 4a 3e a3 43 6e 3e 9f ba cb 3d 64 63 b8 3d
       0.1976504 0.23267989 0.099477045 0.09003332
000260 1c ee 2a 3e 0a ec a2 3e 0d 4e 4c 3e 12 6b 86 be
       0.16692394 0.3182071 0.19951649 -0.26253563
000270 b7 1b 87 3e 2a 82 3d 3e 2f 33 83 3e 9a 55 9a 3e
       0.26388332 0.18506685 0.25624987 0.30143434
000280 f5 5f bf be 77 7e 03 be d0 7d f9 bd 72 2a 60 be
       -0.37377897 -0.12841211 -0.121822 -0.21891192
000290 a0 ed bf bd f2 a6 1b be c1 e1 8c 3b c3 95 fd bd
       -0.09371495 -0.15200403 0.004299373 -0.123820804
0002a0 b4 d9 c6 bc 51 b9 62 be e4 f5 88 be 7e 0b 09 be
       -0.02427373 -0.22141005 -0.267501 -0.1338329
0002b0 f8 e1 7b be 91 55 e5 3b 03 e3 92 bd 06 15 1f be
       -0.24597919 0.0069987257 -0.07172205 -0.15535364
0002c0 76 1f 81 bd 53 7d ae bd cf ca a0 3c 34 1b 84 be
       -0.06304829 -0.085199974 0.019627957 -0.25802004
0002d0 55 ba 51 3d b8 92 51 3e 77 19 35 bd 10 04 6e bd
       0.05120309 0.20466125 -0.04421374 -0.058109343
0002e0 5a 0e c5 3e 37 de 84 3e 7c 62 48 be d2 ee f9 bc
       0.38487512 0.25950786 -0.19568819 -0.030509386
0002f0 65 f5 95 3d d1 65 42 be fe 2b 24 be be 0a af bd
       0.07322196 -0.18984152 -0.16032407 -0.08546971
000300 bc 91 17 bd ab e1 ed bd 24 97 57 3e 64 92 95 be
       -0.037004218 -0.116153084 0.2105375 -0.2921325
000310 70 16 a1 3e d7 b8 48 3e 04 12 44 be 6e 7a 1e 3e
       0.3146243 0.19601761 -0.19147497 0.1547639
000320 39 56 b4 bd b8 28 4f 3e 63 92 21 be 23 ad 07 be
       -0.08805508 0.20230377 -0.15778498 -0.1324964
000330 7e be 24 bd 35 dc 90 be 7c b2 32 3e ce 4a f6 3d
       -0.04022073 -0.28293005 0.17450899 0.120259866
000340 65 c4 1c 3e de cd 9d be 33 e2 8e be e2 b1 68 bd
       0.15309294 -0.30821127 -0.2790695 -0.056810267
000350 58 d6 f3 bc 96 fa 5c 3e 2c 0f 83 3e 79 0d a0 be
       -0.029765293 0.21579966 0.25597513 -0.3126028
000360 98 18 c7 3d d3 15 da bd c4 a9 05 3d 00 16 b4 be
       0.09721488 -0.10648694 0.032632604 -0.35173035
000370 89 98 45 3e 5f 92 bf 3a e0 f1 6a 3e ad 2b 34 3e
       0.19296469 0.0014615766 0.2294383 0.17594786
000380 77 47 81 3e 0a ea 51 bc b5 27 32 3e c1 f1 66 3d
       0.25249836 -0.012812147 0.1739796 0.0563829
000390 df 9a 87 bd f1 5d 51 3e 04 ad ba 3e ce b5 80 3e
       -0.06621336 0.20445992 0.36460125 0.25138706
0003a0 de d7 9a be 6a 92 0e 3d 39 01 3d 3e b9 7d 51 3e
       -0.3024282 0.0348076 0.18457498 0.20458116
0003b0 6e bd 02 3e 12 5f 9c 3d 4e fc 83 3d 38 ca a9 be
       0.12767574 0.07635321 0.06444608 -0.33162093
0003c0 a0 fb 5c 3e 0c 7b aa be 1e f7 af 3d af c0 db bc
       0.21580362 -0.33297002 0.08592056 -0.026825277
0003d0 2f 37 96 be a6 16 f6 3d f3 5d a3 be 27 ef 4f 3e
       -0.29338977 0.120160386 -0.31907615 0.20306073
0003e0 ea 64 ba be cf 64 7a be bb f2 7c be e7 52 af bd
       -0.36405116 -0.24452518 -0.2470197 -0.08560734
0003f0 f7 c6 2d bd 67 48 1e 3e 60 63 13 3e de 56 50 3e
       -0.042426076 0.15457307 0.14393377 0.20345637

model.lstm.weight_hh_l0 f4 [40, 10]
000000 03 e9 6a bd 11 d5 b2 bc 84 73 2e be 56 b7 0d bd
       -0.057351124 -0.021830114 -0.17036253 -0.03459867
000010 f8 b7 48 3e 10 7c 49 3e c1 5a 58 be 8f 17 f1 3d
       0.19601429 0.19676232 -0.2112837 0.117720716
000020 c7 06 72 bd b8 fb 9b 3e 75 84 14 be 6b 4a 3c 3e
       -0.059088495 0.30465484 -0.14503653 0.18387763
000030 03 dd f1 bd a2 4e 69 be ea 9e 66 3e 9c 76 87 be
       -0.11809733 -0.22783902 0.22521558 -0.2645768
000040 3a e7 20 3e 7a eb 39 be b7 ea 36 be c1 57 06 be
       0.15713206 -0.18156233 -0.17862974 -0.13119413
000050 99 f8 5d be 32 75 0c bd 32 fa 77 3e 41 91 38 3c
       -0.21676864 -0.034291454 0.24216536 0.0112651
000060 7e 99 85 be 49 26 9a be 94 18 70 3c 91 d5 df 3d
       -0.26093668 -0.30107334 0.014654297 0.109294064
000070 5c 1e 94 be 47 12 ef bc d7 c1 7a bd 3f bb 20 3e
       -0.28929412 -0.02918352 -0.061220016 0.15696429
000080 b7 1a 19 bd b7 6f c2 bd 73 5d 66 bc 5e db 6c 3d
       -0.037378993 -0.09493964 -0.014060366 0.057826392
000090 c4 b5 f2 3d 2f b9 94 be 6e 31 df 3d 1d 0d 89 be
       0.11851075 -0.29047534 0.108981 -0.26767817
0000a0 ec 43 45 3e 56 ad 2c 3e 82 6a 50 3d ce 20 81 3e
       0.19264191 0.16862997 0.050882824 0.2522034
0000b0 c0 73 ad 3d 86 d5 0e be 14 29 cf 3d 13 81 7f be
       0.08469343 -0.1394864 0.10115257 -0.24951582
0000c0 3d b1 62 be c5 4c eb 3d 4a 78 83 be 8d 1b 90 3d
       -0.22137924 0.11489252 -0.2567771 0.07036505
0000d0 5e ea 85 3e c9 c6 8c be 98 d7 b2 bd 4a 55 d6 3d
       0.2615537 -0.2749541 -0.087325275 0.10465486
0000e0 d7 fb d7 3d 7c bb d9 bd 8a e3 9f 3e a2 c4 a9 3d
       0.105460815 -0.10631463 0.31228286 0.08289458
0000f0 21 93 36 3e f4 43 50 3e cc 68 4d 3c af 1b e9 bd
       0.17829563 0.20338422 0.012537193 -0.11382233
000100 4b 6a 26 bd 60 ea 20 be c7 e2 82 be ee 18 13 3e
       -0.040628713 -0.15714407 -0.25563642 0.14364979
000110 b3 fe 1f 3e 51 c6 67 3e 28 d2 81 bd 60 cc 46 be
       0.15624504 0.22634245 -0.06338912 -0.194139
000120 bc e0 85 3d 17 62 6b 3e 0d 85 f2 bd ed b5 93 be
       0.06537005 0.22986637 -0.11841784 -0.28849736
000130 a9 bb a2 3c 1c 7a 5c be 0d 69 87 be 17 67 a9 bd
       0.019864874 -0.21530956 -0.26447335 -0.08271616
000140 07 e6 58 3e 12 51 9e bd 1b ee 23 3e eb 03 20 3d
       0.21181498 -0.07730307 0.16008799 0.039066236
000150 25 f8 3a 3e 1d 75 3a 3e 14 9c 97 3d fe 86 4d 3d
       0.18258722 0.18208738 0.074028164 0.050177567
000160 85 b1 c8 3c 4f b9 99 bd e3 7a 20 3e 1a 88 64 be
       0.02449871 -0.07506048 0.15671878 -0.22317544
000170 19 49 a1 3d b5 a8 b0 bc 7b fa a1 bc 73 d5 4e 3e
       0.078752704 -0.02156482 -0.019772759 0.20198612
000180 22 87 20 bd a4 43 25 be a2 fa 66 be 3a a7 2a be
       -0.039191373 -0.16139084 -0.22556546 -0.16665354
000190 16 a7 1a 3e 51 d3 9c 3d 9b 65 83 be ef d6 15 be
       0.151028 0.07657493 -0.25663456 -0.14632772
0001a0 0e 85 0b be 74 bc 21 3e 82 d6 5b bd ae 5b 63 be
       -0.13624975 0.15794545 -0.053671367 -0.22202942
0001b0 69 f2 9b bb 17 70 01 3c 22 31 52 3e 2f 8e 3c 3d
       -0.004759122 0.007900259 0.20526555 0.046034034
0001c0 cd e1 69 be 5e 1a fc 3d 53 c4 90 be 06 d9 a4 3e
       -0.22840042 0.12309717 -0.28274783 0.32196826
0001d0 07 8e 90 be b7 d7 4b 3e 5f e0 05 be 4c 51 3f be
       -0.28233358 0.19906507 -0.13073872 -0.18683356
0001e0 4e 4d ce 3c e7 25 9b 3e a7 d3 cb 3d 2a 8c 24 be
       0.025183346 0.30302355 0.09952479 -0.16069093
0001f0 df 80 c4 bd fc 44 e7 bc 9e 66 5f be a2 5c 8e be
       -0.09594893 -0.028231137 -0.21816489 -0.27805048
000200 7a 2f 8e bd 4f 2a 87 be 93 f5 2e be 97 1d 4a be
       -0.06942649 -0.26399466 -0.17085867 -0.1973785
000210 f6 13 ba bd d3 26 7c 3b 45 dd 1f 3e 69 e7 c6 bd
       -0.090858385 0.003847529 0.15611751 -0.09712107
000220 ec 91 8d 3e f3 fe 35 3e b8 5f 6e 3e 4a 68 21 be
       0.27650392 0.17773037 0.23278701 -0.1576244
000230 b9 8a 19 3e 3e 94 ad bd 73 12 0e bd a0 46 24 3e
       0.14994325 -0.084755406 -0.034685563 0.16042566
000240 17 e5 1d be 9d 2a fd bd 37 dc ab 3d d4 3a 1f be
       -0.15419422 -0.123616435 0.08391612 -0.15549785
000250 c3 9f 47 be 5c 39 50 3e c5 f6 c3 3d e8 1c 26 bd
       -0.19494538 0.20334381 0.09568552 -0.04055491
000260 66 73 a6 3d c5 fb 8b bb 5a c7 05 3e 91 6c 8e 3d
       0.08127479 -0.0042719566 0.13064328 0.06954301
000270 89 ed 44 3e 7e 1b ac be c6 d3 2c 3e 92 79 1c be
       0.19231237 -0.33614725 0.1687766 -0.1528075
000280 2f 24 87 3e 55 6b 04 be e4 5f 2a 3e b9 b4 89 3e
       0.26394793 -0.12931569 0.16638142 0.26895693
000290 6f 5c 84 3e 6e 8a 38 3e 1d 14 36 3c 7e 40 b5 3d
       0.2585177 0.18021557 0.011113194 0.088501915
0002a0 af 21 15 3e e8 27 fb 3c 23 b1 0d be 43 1f 0c 3e
       0.1456363 0.030658677 -0.13837104 0.136838
0002b0 e6 47 80 be 7e 0f af be 66 42 3b be 65 ac 79 3d
       -0.25054854 -0.34191507 -0.18287048 0.060955424
0002c0 25 4e 22 bc 55 be 2e 3e 07 e9 81 3d d5 82 92 be
       -0.009906326 0.17064793 0.063432746 -0.28615442
0002d0 5a c1 07 be 4b 6c 61 3e c1 3a 34 3e 5b a6 aa 3d
       -0.13257352 0.22013967 0.17600538 0.08332511
0002e0 e5 43 0d bd ed c2 9f 3e cd 9d 57 be fd a5 ab bc
       -0.034488577 0.31203404 -0.2105629 -0.020953173
0002f0 c0 2f e3 bd 6e e5 5a bb 2e 2f 4a be e6 8c 1d be
       -0.11093092 -0.003340091 -0.1974456 -0.1538578
000300 da 73 4a be 50 1a 3d 3e d2 76 37 3c ba c8 a7 be
       -0.19770756 0.18467069 0.011197763 -0.3277033
000310 a1 5e 3e bd dd d4 9a 3e 58 10 0c 3e b1 dc 12 3e
       -0.046476964 0.30240527 0.1367811 0.14342
000320 3b 81 8c 3d 45 5d ac 3e 1d 23 cb 3d 9b 41 eb 3d
       0.06860586 0.3366491 0.09918807 0.114871226
000330 1f 05 34 3d f2 3b 61 3d 14 68 86 3e bb f7 63 3e
       0.043950196 0.05498881 0.2625128 0.2226247
000340 96 ab cc ba dc 7b 12 3e 31 37 a3 3d 80 ea c7 3e
       -0.0015615101 0.14305061 0.07969511 0.39046097
000350 76 6d 58 be 4e 1c e1 bd f0 35 01 3e ab 80 2c 3d
       -0.21135506 -0.10991727 0.12618232 0.042114895
000360 c6 81 99 bd 7a 55 ce bd 06 61 14 3d 40 d1 8f 3e
       -0.074954554 -0.10074897 0.03622534 0.28089333
000370 53 0a 9e 3e 48 e8 9e 3d a2 6d ac 3e 29 03 37 3e
       0.30867252 0.07759148 0.33677393 0.17872299
000380 a6 ce 7c 3e 3e 9b 9f b8 92 ce 30 3e 68 5e 59 be
       0.24688205 -7.610627e-05 0.172663 -0.2122742
000390 b5 76 2f be 2d 8c 9a 3d 01 43 e1 bd d0 d6 73 be
       -0.17135127 0.07546268 -0.10999108 -0.23812413
0003a0 fb 8e 76 be c8 c1 52 3e b0 11 e3 bd a8 fc 7f 3e
       -0.2407798 0.20581734 -0.11087358 0.24998724
0003b0 8b 8c 75 be 27 84 0f 3e 82 44 81 3e 6d 8f 21 be
       -0.23979394 0.14015256 0.2524758 -0.15777369
0003c0 08 49 4d be 66 25 21 3d cc ea a0 3d 94 18 c0 bc
       -0.2004739 0.039342307 0.07857284 -0.02344922
0003d0 11 52 b7 be 2a 0b 83 be dc f6 f0 3d 69 50 2c 3e
       -0.358048 -0.25594455 0.11765835 0.16827549
0003e0 35 82 70 be 93 ae 87 be 11 08 9e 3d c8 bd 7f be
       -0.2348717 -0.26500377 0.07716382 -0.2497474
0003f0 90 a9 3c 3e 38 37 f3 3d 49 ca e4 bd 36 8b 95 3e
       0.18424058 0.118757665 -0.11171395 0.29207772

model.lstm.bias_ih_l0 f4 [40]
000000 8e cc 2d 3e 19 64 b8 3e 12 7a 40 be d0 41 f5 3d
       0.16972563 0.36013868 -0.18796566 0.11975443
000010 2a f1 62 be 45 d9 1d be 31 d8 8a be bb 7b 1f be
       -0.2216231 -0.15414913 -0.27118066 -0.15574543
000020 13 3e 8d 3e 76 21 95 3e 00 1b 81 3e e0 af 40 be
       0.2758642 0.2912709 0.25215912 -0.18817091
000030 7f 5f 66 3e d4 2b 95 bd 95 e7 1e 3e d5 2a 8c be
       0.22497366 -0.0728375 0.15518029 -0.27376428
000040 45 d6 b2 be 06 16 4c 3e 7d 6d a7 3e fc 4c 3f be
       -0.349291 0.19930276 0.3270072 -0.18681711
000050 fe ef 1c bd 97 02 9d 3e a9 c2 61 3d 79 7e fc 3d
       -0.038314812 0.30666038 0.055117283 0.1232881
000060 e2 7d 4d be 7a 7c 45 3e 66 d2 eb 3d da a4 9c be
       -0.20067552 0.19285765 0.1151474 -0.30594522
000070 8d 2b 65 be b1 f3 c2 3d d2 4a 41 be 98 34 5e be
       -0.22379895 0.09519137 -0.18876198 -0.2169975
000080 3d 75 0e 3e ec b6 59 be 15 85 90 3e b7 26 54 3e
       0.1391191 -0.21261185 0.28226534 0.20717894
000090 13 45 72 be 8f bc 7d be fa df d0 3d 28 1e 4b 3d
       -0.23659162 -0.2477896 0.1019897 0.049589306

model.lstm.bias_hh_l0 f4 [40]
000000 cb 41 06 3e 42 6d 92 3d c4 39 99 3e b7 af 51 3e
       0.13111036 0.071497455 0.29926884 0.20477186
000010 ed 9e 37 be 9b ec 6f 3e 2a 41 ee bd d6 be 75 3e
       -0.17931719 0.23430102 -0.11633523 0.2399858
000020 04 ca d4 bd e4 db 50 3d 85 50 d2 3d 89 07 d1 bd
       -0.10390094 0.050990954 0.10269264 -0.10206515
000030 cb 4c df bd 69 65 84 be f9 c0 dc 3d 99 10 20 3d
       -0.10903319 -0.2585862 0.10778994 0.03907833
000040 62 ca 0e bd 5e 2f 77 bd 80 c1 46 3e 3a 5f 4c bc
       -0.034860976 -0.060347907 0.19409752 -0.012473876
000050 a6 72 c1 bc 19 da af 3e 56 af 56 be 60 c7 1d bd
       -0.023614239 0.34346083 -0.20965323 -0.038520217
000060 23 93 36 bd a8 88 98 be b1 1b 29 be 21 d5 3a bd
       -0.044573914 -0.2979176 -0.1651447 -0.04561341
000070 e4 9d 06 be 1c 65 fb 3c 29 72 7c 3e 5a 6f d1 bd
       -0.13146168 0.030687861 0.24652924 -0.10226317
000080 5b 31 01 3e d5 df 86 3e 04 0c 9a bd 1a 6c aa 3d
       0.12616484 0.26342645 -0.07521823 0.083214
000090 45 73 df 3c e0 5b 64 3e 9c c2 9e 3e 00 55 48 3e
       0.027276644 0.22300673 0.3100785 0.19563675

model.fc.weight f4 [1, 10]
000000 b8 de b0 3e bf af bb 3e b7 8b 22 3d 87 d0 c3 bd
       0.3454492 0.3665752 0.039684024 -0.09561258
000010 65 06 3c bd 98 68 23 be e2 57 d0 3b 44 23 0b 3e
       -0.045904536 -0.15957868 0.0063581327 0.13587672
000020 e6 a8 a3 be 36 f5 81 3e
       -0.31964797 0.25382394

exp_avg f4 [40, 8]
000000 58 27 8c 3a ec bf 8a bb 84 46 a2 bb c3 43 15 bc
       0.0010692878 -0.0042343047 -0.004952254 -0.009110394
000010 25 dc d9 3c de 1a 2d 3c 7b b0 97 bb 5f ca 05 bc
       0.02659423 0.010565488 -0.0046291924 -0.008165925
000020 2a c8 7d 3a d8 c0 4f 39 03 51 9f 3b d5 46 30 3b
       0.0009681011 0.00019812898 0.0048619523 0.0026897688
000030 67 76 b5 3a c7 13 a4 bb 1c 42 70 3b 78 ce c4 3b
       0.0013844491 -0.0050072405 0.0036660498 0.0060060583
000040 ea b8 9f ba 0b cf 92 b9 80 a6 86 37 2d 34 95 39
       -0.0012185846 -0.0002800155 1.6051577e-05 0.0002845837
000050 de 10 6a b9 ca fe 0e bb 20 42 7f 37 6b c1 7b 39
       -0.00022322263 -0.0021819347 1.521458e-05 0.00024009279
000060 38 b4 e8 3a 5c b2 df 3a d6 a8 0c 3a 37 4d c9 39
       0.0017753905 0.0017066705 0.00053657347 0.00038395237
000070 41 95 de ba 2c 7d 6f bb 76 1d c0 3a 46 0c 36 3a
       -0.0016981737 -0.0036543114 0.0014657218 0.0006944578
000080 f0 36 ba 39 ca cf bb b9 80 88 ac 3a 67 eb f7 39
       0.00035517616 -0.00035822234 0.0013163239 0.000472869
000090 38 26 f4 ba 36 ba 35 bb 80 bc 36 38 9c 92 b1 b9
       -0.0018627113 -0.0027729399 4.3567736e-05 -0.00033869303
0000a0 a6 d2 43 3a 1c 39 49 3b 76 d3 f4 3a 64 83 ee 3a
       0.0007470049 0.0030704206 0.0018678743 0.0018197116
0000b0 eb 4a c5 3a 1d 13 a5 3a cc c9 46 3b 77 d0 04 3b
       0.0015052235 0.0012594197 0.0030332683 0.0020265856
0000c0 bc 0c 5c 38 d7 52 88 b8 b6 7f 64 39 84 35 3a 38
       5.2463947e-05 -6.5004155e-05 0.0002179135 4.4395696e-05
0000d0 48 78 03 ba 64 56 8e ba 19 d1 e9 38 60 d3 29 37
       -0.0005015177 -0.0010859487 0.00011149253 1.01223995e-05
0000e0 4d f2 22 bb cd 3b 51 ba af 78 06 bb 84 ce 72 ba
       -0.002486366 -0.00079816283 -0.002051871 -0.00092623406
0000f0 af 01 6e 3b bc ff 9d 3b ea d0 44 ba 44 2d e3 ba
       0.0036316921 0.0048217457 -0.0007507937 -0.0017332216
000100 e0 8e ee 3a 24 3a 35 3a 88 f8 8f 39 d2 1d e1 ba
       0.0018200539 0.00069132657 0.00027460256 -0.0017175025
000110 c8 f4 ea 3a d4 0f 6d 3b 05 23 52 3a c2 68 e7 3a
       0.0017925734 0.0036172764 0.00080160826 0.0017655122
000120 d0 c6 dd 3a 3f 28 8e 3a 0c 42 d9 3a 74 c6 f7 b9
       0.0016920213 0.0010845735 0.001657547 -0.0004725937
000130 84 3e af bb 80 9b 1e bc 01 73 b6 3a fc 90 af b9
       -0.0053480286 -0.009680629 0.0013919772 -0.00033486623
000140 1c 06 7c bb 44 e7 6e 3a dc 2d 22 bb e0 08 71 3b
       -0.003845579 0.0009113441 -0.0024746573 0.0036778972
000150 a5 4f bc 3c 0f e9 db 3c 1e 51 bf b9 d0 e3 74 3b
       0.022987196 0.02684453 -0.00036490796 0.0037367232
000160 c0 51 b6 3b ff 47 26 3b a0 01 98 3b a1 4b d0 3a
       0.0055639446 0.0025372503 0.0046388656 0.001589168
000170 e2 24 1f bc 4d 3d 42 bc 0c 07 33 3b 95 46 f5 3a
       -0.009713383 -0.011855436 0.0027317433 0.0018713052
000180 a1 e3 5e 39 b0 d0 b9 39 45 25 80 b8 dc e6 21 38
       0.00021256368 0.00035441434 -6.1104576e-05 3.8600396e-05
000190 98 94 93 3a d0 fa 26 3b 9e 29 53 39 fb 8d a9 b9
       0.0011259494 0.0025479086 0.00020138032 -0.00032339976
0001a0 ea 09 22 39 85 a9 1b 3a d6 06 66 39 0f 69 a4 39
       0.00015453217 0.0005938041 0.00021937056 0.00031358792
0001b0 ab 4a 41 3a 9b 0f b4 3a e9 dd 96 39 48 95 83 b9
       0.0007373492 0.0013737561 0.00028775565 -0.0002509749
0001c0 f4 89 4d ba b0 0e ab ba 47 70 b2 ba 6f 0b a1 ba
       -0.0007840686 -0.0013050642 -0.0013613784 -0.0012286733
0001d0 9f f5 17 3b 46 5f ca 3a 2b 83 8e ba 14 a4 2c ba
       0.0023187173 0.0015439771 -0.0010872831 -0.0006585729
0001e0 06 a1 9e ba 26 de 7a ba 29 8f 95 ba d0 74 56 ba
       -0.0012102432 -0.0009569846 -0.0011410463 -0.00081808586
0001f0 7c 37 03 39 02 cf 55 39 e8 2c b7 ba f8 08 98 ba
       0.00012513803 0.0002039038 -0.0013975175 -0.0011599353
000200 c0 cb 65 b6 24 69 12 b7 03 dd 82 38 cc 5a 83 38
       -3.4242257e-06 -8.726758e-06 6.24005e-05 6.263479e-05
000210 dc 22 e2 b8 14 76 c9 b8 a7 9d ff 37 e8 4b 5a b7
       -0.00010783013 -9.606421e-05 3.0471781e-05 -1.3011486e-05
000220 bb c2 2d bb d2 1f 44 ba ad 1a 08 bb 2e 58 e0 39
       -0.0026513773 -0.0007481548 -0.0020767853 0.00042790308
000230 94 c7 fb b9 4c 63 f0 b9 86 d1 84 ba 00 aa 5a ba
       -0.00048023148 -0.0004585035 -0.0010133244 -0.0008341372
000240 14 ca 00 3c 8b a0 3f 3b d8 04 a5 3b 76 b2 bb 3a
       0.007860679 0.0029239978 0.005035978 0.0014320153
000250 3f ff a7 ba da 6c 8f 3b aa 77 40 3b 1b 22 82 3b
       -0.0012817158 0.00437699 0.00293682 0.003971351
000260 e6 a7 a2 3a 90 c8 04 b9 33 0a 18 3a 6f 65 00 ba
       0.0012409657 -0.00012663216 0.00057998596 -0.0004897927
000270 14 b0 0e 39 36 20 fa 3a 2f ad f6 b9 97 c0 4a 3a
       0.0001360777 0.0019083086 -0.00047049808 0.00077343866
000280 2d 76 d6 3c ec a9 d6 3b f5 e7 b7 3c 49 b1 a4 3a
       0.026179397 0.006551018 0.022449473 0.0012565042
000290 5a 72 32 bd a5 fe 4e bd 49 3d 44 3c ec ad 76 3c
       -0.043566085 -0.050535817 0.011977502 0.015056115
0002a0 d2 13 18 3c fe 53 18 bb 23 b5 04 3c a0 4f b8 b9
       0.009282069 -0.0023243423 0.008099827 -0.0003515454
0002b0 60 74 d8 bc 57 52 d1 bc 80 58 2c 39 6e 97 fb 3b
       -0.02642268 -0.025551958 0.00016436167 0.007677964
0002c0 ad e2 69 3b af b4 45 3b be 91 11 3b 60 c9 9d 3a
       0.0035688088 0.003016751 0.0022212113 0.0012038164
0002d0 d4 b1 02 3a 06 33 59 3b 68 4c 16 3b 74 92 05 3b
       0.0004985605 0.0033141985 0.0022933725 0.0020381482
0002e0 ca be 40 bc c9 ae 37 bb 52 6a 0b bc a6 ff 61 3a
       -0.011764238 -0.0028027764 -0.008509235 0.00086211634
0002f0 2c 7d 49 3b ca 46 d7 ba 1e 02 81 bb f9 8f 31 bb
       0.0030744774 -0.0016424295 -0.00393702 -0.002709387
000300 ce 94 35 bb 06 50 1e 3b 2b 87 52 ba 7b b2 6c 3b
       -0.0027707103 0.0024156584 -0.0008031006 0.0036117125
000310 b0 da 0f b8 c2 35 c3 ba f8 39 98 3a 66 9a 57 3b
       -3.4297525e-05 -0.001489334 0.0011613956 0.0032898425
000320 3a 9f a8 bc 57 0c 15 bc a8 9c 92 bc a2 87 be bb
       -0.020583738 -0.00909718 -0.017896965 -0.0058145085
000330 16 fa 96 3b 7e 7d 0d 3b 8a 6b 2e bc c4 34 0a bc
       0.0046074493 0.0021589692 -0.0106457565 -0.008435432
000340 d8 69 96 3a 58 fb 33 3b b3 76 c8 3a 3e c2 29 3b
       0.0011475636 0.0027463045 0.0015294164 0.002590313
000350 52 5f 9b 3b dc 40 8f 3b 23 6a 08 3b 34 41 22 3b
       0.0047415877 0.0043717455 0.0020815216 0.0024758102
000360 44 05 7c 3c 56 4d 0d 3c 32 90 66 3c 46 63 71 3b
       0.015382115 0.008624395 0.014072465 0.0036832853
000370 06 a3 1a bb 00 1b 2d 37 08 aa 27 3c ea be d5 3b
       -0.0023595705 1.031789e-05 0.01023341 0.006523003
000380 a2 12 5a bc 66 3f 00 3b 12 04 33 bc 94 fa bb 3a
       -0.0133101065 0.0019569038 -0.010926263 0.0014341646
000390 f2 04 10 3c 71 d4 a4 3c 40 d2 22 bb 74 bf 42 bc
       0.008790242 0.020120831 -0.0024844557 -0.011886466
0003a0 9f 14 99 3c d0 88 ca 3b ca c9 67 3c a0 3d e2 ba
       0.01868659 0.00618086 0.014147231 -0.0017260797
0003b0 0c 91 ab bb db c7 c3 3b b6 f6 e2 3b 7b 0d 1c 3c
       -0.005235797 0.0059747524 0.006926383 0.009524698
0003c0 8c 58 0f 3b ed ce f4 3b d2 14 8f bb 13 aa 38 3b
       0.0021872846 0.0074709565 -0.0043664956 0.0028177544
0003d0 cf a6 69 3c e8 53 b2 3c 0e 9c 83 3b 67 f1 87 3b
       0.014260962 0.021768525 0.004016406 0.0041486504
0003e0 4b 8e c8 3c 04 8a 6a 3c 66 d0 42 3c 24 41 7b 3a
       0.024481913 0.014315132 0.011890506 0.0009584597
0003f0 f8 4c c1 3b d2 02 cf 3c f1 be 45 3c 91 f4 9c 3b
       0.005899068 0.0252699 0.01206945 0.004789897

exp_avg_sq f4 [40, 8]
000000 4c c7 39 39 04 57 1a 39 03 e0 17 39 95 72 94 39
       0.00017717219 0.00014719 0.00014483933 0.0002831413
000010 d2 e3 79 3e 23 1a 9f 3b f3 9c 43 39 7f 10 6d 39
       0.24403313 0.0048554107 0.00018655117 0.00022608227
000020 c2 66 01 39 c4 9e 31 39 fd 57 ae 39 81 f4 b3 39
       0.00012340679 0.0001693918 0.00033253423 0.0003432371
000030 b6 34 67 3b b0 c6 c0 3b c7 13 81 39 40 78 be 39
       0.003527922 0.0058830604 0.00024619533 0.00036329217
000040 3d 27 35 36 f8 ed ae 35 14 58 86 35 b1 af 69 35
       2.6993941e-06 1.3033268e-06 1.0009412e-06 8.705493e-07
000050 1e 9a 47 37 7d 60 e6 37 15 2f 66 35 67 56 57 35
       1.18972075e-05 2.7463067e-05 8.575019e-07 8.0219473e-07
000060 c4 13 a0 37 8a ad 32 37 70 c4 25 37 c6 9a 46 37
       1.908269e-05 1.0650032e-05 9.880503e-06 1.1837756e-05
000070 51 4a 4c 38 35 57 65 39 d1 f8 18 37 0d 3e ee 36
       4.8706603e-05 0.00021871629 9.117838e-06 7.1001764e-06
000080 6f 8b 4f 36 22 98 11 36 3d 57 10 36 6d df 26 36
       3.0926565e-06 2.1695237e-06 2.1508451e-06 2.4865979e-06
000090 f2 62 55 38 c6 5f 5e 37 c5 4d 1a 36 77 fe 05 36
       5.0875307e-05 1.325453e-05 2.2993056e-06 1.9966662e-06
0000a0 0b 3f 59 38 e6 c9 93 38 ad 2e bd 38 f3 92 b7 38
       5.1795545e-05 7.047113e-05 9.020916e-05 8.7534914e-05
0000b0 28 3c 18 38 94 c5 82 38 31 63 97 38 15 5b 78 38
       3.629565e-05 6.235685e-05 7.218717e-05 5.9212634e-05
0000c0 9e 49 ad 34 e5 bd 4e 35 01 b5 74 35 6a 5c 91 35
       3.2277325e-07 7.7017313e-07 9.116048e-07 1.0830238e-06
0000d0 bf 3e c0 35 6d bd 76 36 dc 83 80 35 34 17 87 35
       1.4323376e-06 3.6767117e-06 9.575119e-07 1.0065037e-06
0000e0 dc fc 9e 37 9a 1b 4b 37 09 f7 b0 37 43 7a a7 37
       1.8952815e-05 1.2106169e-05 2.109587e-05 1.9964884e-05
0000f0 4f 93 0e 3a ae 01 1f 3a 55 5f 6c 37 bd b3 11 37
       0.0005438821 0.0006065619 1.4088892e-05 8.684522e-06
000100 b8 ca 4c 38 7b a9 2e 38 65 cb 70 38 44 e0 13 38
       4.8826187e-05 4.1642674e-05 5.7409885e-05 3.5256395e-05
000110 ba ac 42 39 e5 f1 9e 3a b9 5c 2c 38 5d e1 bc 37
       0.00018565627 0.0012126534 4.109435e-05 2.251629e-05
000120 53 a0 1b 38 bb a9 45 38 80 9a f2 37 02 c1 13 38
       3.7104193e-05 4.7126534e-05 2.8920593e-05 3.5227284e-05
000130 2d ce db 39 20 49 c7 3a 5b d0 0e 38 f4 56 50 38
       0.00041924548 0.0015204288 3.4049484e-05 4.9672046e-05
000140 62 a9 45 38 a5 12 0f 38 4b 03 0d 38 d1 fe 13 38
       4.712621e-05 3.411122e-05 3.3620086e-05 3.5284847e-05
000150 2c 45 0e 3b e5 8c cb 3a c1 2f f8 37 8a e0 8a 38
       0.002170871 0.0015529661 2.9586141e-05 6.6221764e-05
000160 8f 2e 07 39 3e 4e 74 38 cd e6 8f 38 6e 2d 65 38
       0.00012891948 5.8247002e-05 6.861761e-05 5.4640164e-05
000170 15 da bf 39 fc 85 78 3a 3c 71 4d 38 0c ba 2f 39
       0.00036592843 0.00094804144 4.8981266e-05 0.00016758608
000180 40 fc 00 35 9f cc 1a 35 22 b0 e0 34 30 37 92 34
       4.805079e-07 5.7667233e-07 4.1851405e-07 2.7234773e-07
000190 82 8e 8e 37 e9 d1 a7 38 40 4d f4 34 14 48 91 34
       1.699408e-05 8.002279e-05 4.5504748e-07 2.7060798e-07
0001a0 1a 38 83 36 44 6c 4e 36 7d 14 20 36 a6 8b e8 35
       3.9106353e-06 3.075941e-06 2.3853784e-06 1.732599e-06
0001b0 bf b7 1d 36 8e 15 d1 36 bc 35 12 36 d3 e7 be 35
       2.3501777e-06 6.2311947e-06 2.1786973e-06 1.4223573e-06
0001c0 c8 55 75 36 e1 34 5f 36 1d d2 bd 35 1b e4 92 35
       3.6557776e-06 3.326037e-06 1.4142748e-06 1.0944235e-06
0001d0 7a a4 1a 3a 3b e9 88 37 05 b8 25 36 cb e5 a9 35
       0.00058991427 1.632107e-05 2.469403e-06 1.265836e-06
0001e0 2a 0e 88 38 af d6 44 38 26 82 11 38 83 13 8a 37
       6.4876236e-05 4.692998e-05 3.4691904e-05 1.6459968e-05
0001f0 3a 20 71 37 10 06 50 37 d7 9a 21 38 52 24 3e 37
       1.4372223e-05 1.2399178e-05 3.8529597e-05 1.1333339e-05
000200 a8 1a 25 34 85 7f 07 34 3e 4c e3 33 62 e7 12 34
       1.537652e-07 1.2619246e-07 1.05843796e-07 1.3681486e-07
000210 16 27 51 34 c9 4a 1e 34 d7 94 04 34 28 bd 53 34
       1.9478861e-07 1.4742103e-07 1.2347606e-07 1.9719721e-07
000220 1a 1a 34 38 33 50 a3 37 39 8f 1c 38 0a 5d 23 37
       4.2939653e-05 1.946846e-05 3.7326685e-05 9.737219e-06
000230 9e 24 0c 39 d3 9a 1b 39 46 cb ea 37 a3 db 61 37
       0.00013365081 0.00014839628 2.798963e-05 1.3462183e-05
000240 bf 8a 36 39 91 75 02 39 4c 7a f0 38 85 26 6d 38
       0.0001740856 0.00012441563 0.000114668714 5.6541077e-05
000250 5a e3 2a 38 f7 b4 8b 38 2f 6f d8 38 b8 ba 84 38
       4.0742896e-05 6.661744e-05 0.00010320392 6.3290296e-05
000260 ce d6 44 37 a3 7d b8 36 52 e4 98 36 5d 20 06 37
       1.17325235e-05 5.4982534e-06 4.556533e-06 7.994558e-06
000270 92 20 98 37 37 9a d9 37 89 3b ac 36 94 4f a5 37
       1.8134979e-05 2.5940228e-05 5.1329303e-06 1.970659e-05
000280 5a 99 8e 3a 34 c5 fb 39 b0 27 21 3a 37 1b 87 39
       0.0010879443 0.00048021378 0.00061475765 0.00025769483
000290 26 1b 0e 3b d9 91 30 3b 4a 74 43 3a 82 9b bb 39
       0.0021683662 0.00269424 0.0007455988 0.00035783282
0002a0 f9 67 85 3a 23 7d e6 39 a6 41 2d 3a 1a b1 b1 39
       0.0010178081 0.00043962253 0.00066092086 0.00033892022
0002b0 18 c8 aa 3b 94 4f 01 3c b6 d9 4d 3a 30 f1 c2 39
       0.0052118413 0.007892508 0.0007852571 0.00037182262
0002c0 4c 42 98 37 28 4a 64 37 f2 4f 57 37 38 2e d3 36
       1.8150684e-05 1.3607125e-05 1.2833612e-05 6.2936706e-06
0002d0 4a 99 54 37 19 20 61 37 2e e8 45 37 fb db d1 36
       1.2671875e-05 1.3418518e-05 1.1796174e-05 6.2542945e-06
0002e0 96 7a 16 39 28 04 cf 38 a6 d4 99 38 67 b8 46 38
       0.00014350782 9.871303e-05 7.3352174e-05 4.7378617e-05
0002f0 90 f9 0a 3a 88 6a 51 39 c6 8c 9a 38 3d bc 29 38
       0.000530147 0.00019971479 7.369513e-05 4.046805e-05
000300 24 75 63 38 c7 6d dc 37 45 98 c5 38 11 31 a6 38
       5.4230113e-05 2.6277163e-05 9.4220544e-05 7.924636e-05
000310 da d3 49 37 8f eb f1 37 df e9 3e 38 67 df 8f 38
       1.2029859e-05 2.883913e-05 4.551734e-05 6.860383e-05
000320 b2 b1 9d 3a 42 1e 67 3a 91 46 40 3a e7 30 bc 39
       0.0012031107 0.00088164594 0.0007334734 0.0003589459
000330 1d af 02 3a a2 c4 40 39 dd 6e 31 3a 17 9d a3 39
       0.00049852004 0.00018383798 0.0006768534 0.00031206824
000340 9f 96 03 37 fd 34 36 37 d2 7d a5 36 69 e7 fa 36
       7.843278e-06 1.0860383e-05 4.9320306e-06 7.4775203e-06
000350 20 81 f1 38 a3 8b b6 37 91 a2 e0 36 8b 18 9d 36
       0.00011515827 2.1761114e-05 6.6946454e-06 4.681822e-06
000360 b3 c6 f9 3a 34 0f fa 3a 63 9e f4 3a 68 44 94 3a
       0.0019056409 0.0019078017 0.0018662926 0.001131189
000370 df d4 30 3a a7 8e ab 3a ac e4 e3 3a 74 4d 5e 3a
       0.00067455875 0.0013088778 0.0017386875 0.00084801693
000380 dd 4b 2d 3a 7e cd 1c 39 7b 8e ab 39 f7 50 44 39
       0.0006610731 0.00014953871 0.00032721818 0.00018722178
000390 86 3e f1 3c 80 27 88 3b 9d 3b 4f 39 73 2c 2d 39
       0.029448759 0.0041550994 0.00019763266 0.00016515124
0003a0 84 1d 52 3b 74 36 29 3b e1 0c f0 3a 85 9a 4e 3a
       0.003206105 0.002581981 0.0018314385 0.00078813016
0003b0 0f a8 9c 3a 76 bb 07 3b 57 c3 f2 3a 55 17 5b 3a
       0.0011951941 0.00207111 0.001852135 0.0008357664
0003c0 4b 1f 9a 39 04 5a 26 39 60 54 11 3a 03 13 d3 39
       0.00029396484 0.00015864527 0.0005543884 0.0004025922
0003d0 bc 5a bd 3a e7 b0 b1 3b d4 67 8e 39 81 ce 8e 39
       0.0014446597 0.0054226997 0.0002716171 0.00027238208
0003e0 04 13 47 3a 4c 01 e4 39 3e a0 db 39 96 56 96 39
       0.0007594081 0.00043488515 0.00041890325 0.0002867474
0003f0 12 8a 0e 3c ef 00 39 3b 70 79 b0 39 28 86 7a 39
       0.008699911 0.0028229316 0.00033659814 0.00023891835

exp_avg f4 [40, 10]
000000 16 b7 39 ba d4 e0 24 bb 12 78 27 3a b7 2d 1b 3a
       -0.0007084472 -0.0025158422 0.00063884363 0.0005919593
000010 38 07 00 bb 61 1f 72 ba 1b c1 85 ba 1e ef a4 3a
       -0.0019535553 -0.0009236243 -0.0010204645 0.001258347
000020 6a 0a 5f 3b 9b 4a b3 ba ba c9 26 39 03 02 94 ba
       0.0034033307 -0.001367885 0.00015906143 -0.0011292103
000030 ce 2a 4c 3a 07 e9 fa b9 ac 8d 2c ba c0 0e e1 b9
       0.0007788361 -0.00047857335 -0.000658239 -0.00042926334
000040 1d ed 55 ba da 35 1e 3a b9 4c ce 3a ec 2d 1f ba
       -0.0008160638 0.0006035246 0.0015739418 -0.00060722115
000050 14 21 af b8 e0 63 5f 38 9d 2a a2 38 9c 5d f5 37
       -8.3508115e-05 5.326036e-05 7.732699e-05 2.9249866e-05
000060 3a 26 f3 38 64 e3 8b b8 94 a4 19 39 ec fd 2d 39
       0.00011594263 -6.670391e-05 0.00014652527 0.00016593159
000070 c0 db 4a 38 c2 37 74 38 a4 c5 8d b9 ad 08 19 ba
       4.836521e-05 5.822606e-05 -0.0002704087 -0.00058377796
000080 2d 94 81 38 02 1c a9 38 31 a9 15 ba 24 fe 14 b6
       6.178799e-05 8.063765e-05 -0.00057091104 -2.2201648e-06
000090 8e 54 5d b8 89 a4 af 39 04 eb 78 3a 25 a0 78 b9
       -5.2769254e-05 0.0003350119 0.0009495469 -0.00023710782
0000a0 16 81 9b b8 65 10 99 b9 de 7a be 38 e3 0d 67 b8
       -7.41502e-05 -0.0002919465 9.082792e-05 -5.5087625e-05
0000b0 d6 be 3b 39 30 6f 65 36 17 51 bf b8 28 0a 10 38
       0.00017904802 3.4188379e-06 -9.122694e-05 3.4341734e-05
0000c0 2e e6 2c 39 ec ec c2 38 98 ce 98 b8 c0 3a 16 36
       0.00016488947 9.294771e-05 -7.286406e-05 2.2385939e-06
0000d0 ec b2 0d 39 bc fa da 38 03 f0 1c b9 34 f3 24 b9
       0.00013513461 0.00010441753 -0.0001496673 -0.00015730859
0000e0 e8 d4 ef 37 e0 73 2c 39 64 4c a5 39 58 95 ce b7
       2.8590162e-05 0.00016446365 0.00031528168 -2.4626657e-05
0000f0 c6 29 ae b8 af 06 6a b9 c6 e8 c3 38 87 3a 32 38
       -8.3047475e-05 -0.00022318469 9.341682e-05 4.2493015e-05
000100 39 57 2f b8 e5 ce 20 b8 f0 4c 75 b7 a2 70 30 39
       -4.1804484e-05 -3.833966e-05 -1.4621051e-05 0.00016826627
000110 50 a4 a0 39 bf c3 05 b8 d7 e6 74 b9 20 97 6e 39
       0.0003064 -3.1891974e-05 -0.00023355648 0.00022753747
000120 cc ed 01 b9 6c 95 b2 39 2a 52 93 37 96 2c 22 b9
       -0.00012390985 0.00034062134 1.7562026e-05 -0.00015466133
000130 d4 3b b6 38 e4 26 1c 39 6a 4b 1d 39 d3 bf 23 b9
       8.68958e-05 0.00014891807 0.0001500078 -0.00015616351
000140 ee 8a 1c 3a a9 73 d6 ba ba 7c ab 3a 83 87 be b9
       0.000597163 -0.0016361374 0.0013083436 -0.00036340588
000150 3b f1 8a ba 42 3e 9c b9 cb 49 72 ba e2 b8 c9 3a
       -0.0010600457 -0.00029801024 -0.00092425634 0.0015390182
000160 8a 1c 16 3b 04 54 9e ba f4 f7 ad b8 8a 36 80 ba
       0.0022905194 -0.0012079482 -8.295468e-05 -0.0009781879
000170 c1 b4 47 3a f8 48 bd 37 da 18 29 b9 76 78 51 b9
       0.0007618182 2.2564534e-05 -0.00016126354 -0.00019976668
000180 a1 2c 43 b8 5b c5 46 3a 24 3c b9 3a ed ff 7f b9
       -4.6533187e-05 0.0007582509 0.0014132303 -0.00024414035
000190 94 6a 9e b9 56 7b e8 39 cb e3 ed b9 78 9b 85 b9
       -0.00030215515 0.0004434238 -0.00045373882 -0.0002548357
0001a0 64 05 8e 38 5c d9 8c 39 1d f7 b2 39 22 5e af 39
       6.772092e-05 0.00026864826 0.0003413492 0.00033448735
0001b0 d0 02 81 b9 be 02 86 b9 8e b8 40 b9 50 0f dc ba
       -0.00024606893 -0.00025560515 -0.00018379299 -0.0016789231
0001c0 e5 41 02 3a f4 52 ed b9 17 e9 85 b9 47 df 55 b9
       0.00049689255 -0.00045265967 -0.00025541402 -0.0002039644
0001d0 ea 32 e4 b9 76 de 63 3a 97 6e fc 3a 8d 1f 86 b9
       -0.00043525483 0.0008692512 0.0019259033 -0.0002558198
0001e0 4b c3 73 b8 15 24 30 b8 48 ff be b7 bc 04 5f 38
       -5.8117595e-05 -4.1995274e-05 -2.276864e-05 5.3171752e-05
0001f0 91 d8 99 b8 de 6d 46 b8 5e d0 ca b7 d0 3f fd 37
       -7.335947e-05 -4.73092e-05 -2.4177305e-05 3.0189665e-05
000200 86 ef ad 38 d8 d7 83 b8 09 82 dc b8 4d 02 77 38
       8.2938976e-05 -6.286771e-05 -0.000105146384 5.889153e-05
000210 5c 71 9c b9 91 17 a2 38 c0 06 1d 35 ee 5b 51 39
       -0.00029839098 7.7291515e-05 5.849688e-07 0.0001996604
000220 b5 2f b6 b7 7d 30 71 b9 3e 45 7c b9 6c 02 a6 38
       -2.1718306e-05 -0.00023001614 -0.00024058387 7.915948e-05
000230 24 73 f8 38 84 49 f3 38 6e b7 4d b7 b2 4e 38 38
       0.00011847008 0.00011600836 -1.226166e-05 4.394231e-05
000240 e6 dd 9f b8 a7 c9 8a b7 ed 70 60 b8 68 b1 1d b8
       -7.6230426e-05 -1.6544784e-05 -5.3510932e-05 -3.759694e-05
000250 98 36 11 b8 1a 7d ed b8 28 83 a9 b9 30 2f 17 ba
       -3.462154e-05 -0.000113243426 -0.0003233191 -0.00057672244
000260 5a a1 51 39 ee 39 72 38 4f f9 26 b9 ae 67 05 b9
       0.00019991901 5.7751247e-05 -0.00015923868 -0.00012722492
000270 07 48 b9 b7 c2 ca ce 39 e1 18 31 3a 92 15 46 b8
       -2.2087259e-05 0.00039442448 0.00067557214 -4.7226968e-05
000280 56 a3 4c 37 e4 99 c8 37 b9 2f 8d b7 90 aa 86 b7
       1.2197377e-05 2.3913519e-05 -1.6830732e-05 -1.605347e-05
000290 12 ce c1 37 4d 54 1b 38 7c 06 6a 37 ae b4 5a b7
       2.3103352e-05 3.703339e-05 1.3948997e-05 -1.303588e-05
0002a0 c0 99 3d b8 54 19 01 37 2e 9d 8e b9 80 b9 c4 35
       -4.5204302e-05 7.694896e-06 -0.0002720146 1.4657126e-06
0002b0 a2 0c 47 39 90 3c 8e 39 7f 16 51 39 8c f0 50 b9
       0.00018982825 0.00027129473 0.00019940174 -0.00019926036
0002c0 9b de c8 39 c6 b4 40 3a 05 e5 94 39 f6 bc a5 b8
       0.00038312827 0.0007351156 0.00028399393 -7.90301e-05
0002d0 70 7f c7 39 8b e0 a1 ba d8 ef 33 39 97 34 40 ba
       0.00038051186 -0.0012350244 0.00017160119 -0.0007332055
0002e0 e4 57 8e ba 9c 7e 7b 39 9a 86 94 ba a0 8f 85 b7
       -0.0010859934 0.00023984391 -0.0011331618 -1.5921716e-05
0002f0 6a 4f 69 3a 72 02 dc b9 71 65 c6 39 6d 0e a0 b9
       0.0008900078 -0.00041963492 0.00037841083 -0.00030528326
000300 49 32 50 39 17 1f 84 b9 f3 8e 6a b9 de db 70 39
       0.00019855158 -0.00025200166 -0.00022369232 0.0002297009
000310 12 91 85 b9 c6 26 45 39 8c 29 80 39 35 57 82 b9
       -0.00025475823 0.00018801828 0.00024445017 -0.00024860507
000320 bf 98 23 3b b7 03 db ba 7c bd 48 3a 34 d4 60 bb
       0.002496287 -0.0016709481 0.000765763 -0.003430617
000330 eb 3d 95 b9 b8 7b 7a 3a f0 af 27 bb 49 eb 08 bb
       -0.00028465627 0.00095551787 -0.0025587045 -0.0020892194
000340 ac 97 a3 ba e7 3f 85 3a 6e b1 9f 3a b1 d4 58 bb
       -0.0012481115 0.0010166139 0.0012183615 -0.0033085758
000350 c1 4e c4 3a b8 05 b4 ba c4 c0 6f ba 9e 12 c6 b9
       0.0014977084 -0.0013734614 -0.0009145851 -0.00037779374
000360 39 d8 dc ba 61 84 b4 3a 6c 7a 73 3b 3c e2 ba ba
       -0.0016849107 0.0013772362 0.0037151827 -0.0014258097
000370 51 3f 7e 39 9d 28 a1 b9 18 f5 34 38 d4 91 70 b9
       0.00024246915 -0.00030738572 4.3143606e-05 -0.00022942509
000380 ca 58 96 b9 6c 09 96 39 af 54 ad b9 04 e2 d4 b9
       -0.00028676382 0.0002861725 -0.00033060226 -0.00040604186
000390 40 95 b2 37 a0 df 02 37 00 df 29 37 50 9e 07 3b
       2.1288753e-05 7.800671e-06 1.0125106e-05 0.0020693727
0003a0 a6 fe ca 39 b2 c0 96 3a 10 9e 65 39 13 41 ed b9
       0.0003871817 0.001150152 0.00021898025 -0.00045252647
0003b0 87 d0 b9 3a f0 5c 35 3a 2c b9 c8 ba 70 b8 68 39
       0.0014176526 0.0006918451 -0.0015313975 0.00022193952
0003c0 cd 6a 4d 3a ca e2 77 3a 00 17 78 3a 18 2f 59 39
       0.0007836044 0.00094560964 0.00094638765 0.00020712276
0003d0 9e 99 e6 39 93 5a d3 b9 a5 50 16 3a 1a ba 6b 3a
       0.00043983472 -0.0004031254 0.0005734063 0.000899227
0003e0 86 ca 45 ba f7 cb 92 b8 38 0d a8 b9 3e 89 0e 3b
       -0.0007545132 -6.999814e-05 -0.00032053306 0.0021749283
0003f0 41 5e 1c 3a a0 c7 c3 3a 44 25 b8 3a 0a 3e 94 ba
       0.00059649727 0.0014936812 0.0014049192 -0.0011309993

exp_avg_sq f4 [40, 10]
000000 37 df 27 36 39 dc dc 36 30 32 45 36 3a ad 84 35
       2.5014867e-06 6.582148e-06 2.93845e-06 9.885182e-07
000010 40 31 8c 36 ac 9e 8e 36 1e a1 8d 36 55 b1 c0 36
       4.1780586e-06 4.2504016e-06 4.220884e-06 5.74269e-06
000020 47 c5 7e 37 ae f3 9e 36 64 26 d4 35 e0 a3 54 36
       1.5185512e-05 4.737135e-06 1.5806404e-06 3.168585e-06
000030 2e ca 97 35 e3 1b 5b 35 2c ed 07 36 92 81 11 36
       1.1309219e-06 8.162444e-07 2.025462e-06 2.1682104e-06
000040 3e b9 f3 35 69 f4 00 36 7c a0 1a 37 c2 46 f8 35
       1.8158823e-06 1.9215752e-06 9.216481e-06 1.8498033e-06
000050 44 49 8c 32 c2 81 d5 32 f9 e3 f6 31 1a a9 16 32
       1.6331462e-08 2.485547e-08 7.18546e-09 8.769598e-09
000060 82 aa 06 33 7f fc 8a 32 a1 ce f1 32 a4 b3 c3 32
       3.1354382e-08 1.6180136e-08 2.8150057e-08 2.2782679e-08
000070 e4 08 02 33 f9 8f 05 33 ad a3 01 34 16 80 92 34
       3.027607e-08 3.1097418e-08 1.2073606e-07 2.7287814e-07
000080 7e ea 41 33 04 4e f9 32 40 5a 32 34 19 c5 a0 33
       4.5149584e-08 2.9022893e-08 1.6610375e-07 7.4864325e-08
000090 df fa 00 34 af dd 92 33 6c e5 fc 34 7d 58 b5 33
       1.2012195e-07 6.838979e-08 4.7105584e-07 8.444565e-08
0000a0 35 50 30 33 80 73 7e 33 3d 1a ea 32 3e a3 ad 32
       4.105114e-08 5.924403e-08 2.7253117e-08 2.0214085e-08
0000b0 bd e9 36 33 18 5e 59 33 25 ce 26 33 28 5e 46 33
       4.258776e-08 5.0609827e-08 3.8837374e-08 4.6186102e-08
0000c0 2f 21 d1 33 b4 e7 16 33 b0 10 6d 34 15 61 94 34
       9.738357e-08 3.513533e-08 2.2078416e-07 2.7637785e-07
0000d0 77 79 89 34 7c d4 ec 33 2e a1 9b 34 19 dd 81 34
       2.5606616e-07 1.1028257e-07 2.8988273e-07 2.4188992e-07
0000e0 dc 67 95 34 8f 12 b6 34 c4 78 0c 35 e2 f9 58 34
       2.782898e-07 3.3913645e-07 5.23298e-07 2.0207474e-07
0000f0 07 3d 51 32 8b b9 cd 32 a2 1c be 31 99 54 93 31
       1.2179277e-08 2.3949516e-08 5.532983e-09 4.2878807e-09
000100 29 ad 96 31 ad 8d 6c 32 4a c2 58 31 e6 5b 49 32
       4.3852606e-09 1.3769221e-08 3.1542577e-09 1.1720635e-08
000110 ce 77 4f 33 21 85 85 31 5e 84 9d 34 f7 e7 49 35
       4.8304905e-08 3.8859445e-09 2.933984e-07 7.521589e-07
000120 06 4c 60 34 c2 e7 1d 34 c5 4f de 34 00 03 ae 34
       2.0889283e-07 1.4706077e-07 4.1408762e-07 3.2412208e-07
000130 a9 40 c8 34 9a 65 31 35 17 33 e1 35 ed 42 f0 34
       3.729995e-07 6.608549e-07 1.6778675e-06 4.4752178e-07
000140 45 b5 65 35 37 d6 0f 36 86 78 49 35 2e 1a a4 34
       8.557293e-07 2.143335e-06 7.505372e-07 3.056643e-07
000150 0f e9 9f 35 f0 ed 9c 35 2d 59 86 35 f9 a2 e8 35
       1.1914252e-06 1.1692155e-06 1.0009732e-06 1.7332778e-06
000160 86 4f d6 36 86 cd 87 35 c3 5c 63 35 70 47 5a 35
       6.3869547e-06 1.0118099e-06 8.4699076e-07 8.1315284e-07
000170 bc 6e a7 34 c0 e4 87 34 d1 bf 6c 35 be 64 d1 34
       3.1186744e-07 2.5312147e-07 8.819598e-07 3.9002583e-07
000180 00 9f 4c 35 68 26 e5 34 c9 ba e2 35 ab d4 6a 35
       7.62273e-07 4.2682518e-07 1.6892674e-06 8.7481266e-07
000190 2c b0 f2 35 25 28 3a 36 e4 e3 1f 35 7a e2 e9 34
       1.8081678e-06 2.7739527e-06 5.956374e-07 4.3564415e-07
0001a0 40 9d d2 35 a7 b5 8b 35 e5 b7 a4 35 03 72 c2 35
       1.5691985e-06 1.0409175e-06 1.2272473e-06 1.4487308e-06
0001b0 50 44 6c 36 f2 5d e2 35 8c 6f 3b 36 c5 88 03 37
       3.5206504e-06 1.6865654e-06 2.79301e-06 7.840053e-06
0001c0 da b3 b2 34 51 8a 39 35 55 92 91 35 1c 7e d2 35
       3.3285943e-07 6.911915e-07 1.084593e-06 1.5682922e-06
0001d0 3c d3 f9 34 26 ed f5 35 6b a5 2c 37 a3 19 58 35
       4.6533557e-07 1.8322942e-06 1.0290513e-05 8.0503577e-07
0001e0 16 2e db 31 6b a4 3e 32 1f 7f aa 32 bd 3d d2 31
       6.3789782e-09 1.109684e-08 1.9848413e-08 6.1188232e-09
0001f0 ca 79 dc 32 c5 95 2c 32 5d d8 ba 32 19 ce b1 32
       2.5666754e-08 1.0045771e-08 2.175164e-08 2.0699234e-08
000200 cc 9f ee 32 72 a0 97 32 35 fd 0d 33 1d 62 2c 33
       2.7779514e-08 1.7651676e-08 3.305941e-08 4.0136104e-08
000210 4c e0 6f 33 28 21 08 33 48 27 8d 32 bb ec cd 33
       5.585052e-08 3.1695123e-08 1.6432423e-08 9.5891174e-08
000220 81 fa ac 32 21 e5 2b 33 8c 55 e2 33 ee 56 24 32
       2.0137351e-08 4.002243e-08 1.0539506e-07 9.565822e-09
000230 30 fa 21 33 4b d8 92 33 a3 20 a6 32 01 38 45 32
       3.7713278e-08 6.837998e-08 1.9339785e-08 1.1479643e-08
000240 79 2f 91 33 f2 69 6a 32 5c 30 e9 32 34 54 58 33
       6.760724e-08 1.3644682e-08 2.7146761e-08 5.0368e-08
000250 9d e6 e6 33 68 dd 15 33 e0 2f 87 34 69 a3 9c 34
       1.0752158e-07 3.4893134e-08 2.5180543e-07 2.917616e-07
000260 05 3f 25 35 a5 0b 10 34 58 69 c4 33 d9 86 b0 35
       6.1558995e-07 1.3415281e-07 9.146123e-08 1.3152268e-06
000270 4d 8e ba 33 60 dd ae 34 4a db 0c 35 1f dd a4 33
       8.687184e-08 3.2571097e-07 5.247317e-07 7.677067e-08
000280 be 96 12 31 35 dc 8b 31 2f 9f bd 30 af a3 b8 30
       2.1331483e-09 4.070467e-09 1.3796803e-09 1.3434284e-09
000290 b2 c3 43 31 51 f7 fd 31 8f 78 75 31 34 48 31 31
       2.8487475e-09 7.3913857e-09 3.5720722e-09 2.5797933e-09
0002a0 da 40 3e 32 d2 eb bf 30 58 90 58 34 93 4e 20 35
       1.1074201e-08 1.3964103e-09 2.016908e-07 5.9718985e-07
0002b0 17 03 08 35 0d 1e 30 34 8c 62 0c 35 99 55 d3 34
       5.0668444e-07 1.640221e-07 5.229747e-07 3.9364093e-07
0002c0 8f 9d 03 35 e0 9f 32 36 2c 31 ac 35 ce c8 ff 34
       4.903058e-07 2.6617126e-06 1.282931e-06 4.7643556e-07
0002d0 3a 97 d0 35 0a 47 a1 36 20 5a 30 35 4d 90 24 35
       1.554122e-06 4.806444e-06 6.569626e-07 6.1304746e-07
0002e0 3b b8 cc 35 a9 3a 46 35 5b 69 f0 35 ac ab fc 35
       1.5252803e-06 7.384611e-07 1.7912056e-06 1.8825426e-06
0002f0 ee f1 d8 36 92 85 9d 35 4f b1 8e 34 1c 37 f8 34
       6.465466e-06 1.1736286e-06 2.657857e-07 4.6233697e-07
000300 a5 37 da 33 02 7b 94 33 4e 92 5f 34 be 60 96 34
       1.0161538e-07 6.914162e-08 2.0821719e-07 2.8010066e-07
000310 7c 15 f0 33 17 8e 64 34 cd 76 57 35 82 21 88 34
       1.1179779e-07 2.1285847e-07 8.026662e-07 2.5356354e-07
000320 7f 2b 54 37 a6 a7 1e 38 c4 a3 6e 37 e6 b3 fe 36
       1.2646312e-05 3.782627e-05 1.4224035e-05 7.590733e-06
000330 09 13 18 37 83 d1 6b 37 46 5e 06 37 20 d6 08 38
       9.064338e-06 1.4055872e-05 8.008972e-06 3.2624346e-05
000340 1c aa 9b 38 7b db 1f 37 2a c7 48 37 b8 b9 da 37
       7.422661e-05 9.52824e-06 1.19673e-05 2.6074107e-05
000350 48 99 ae 36 df 43 a2 36 f1 b8 43 37 56 4e 6e 37
       5.2034484e-06 4.8358775e-06 1.1665966e-05 1.42041445e-05
000360 41 06 20 37 a8 0e 57 37 6a 90 7c 38 90 ec da 36
       9.538199e-06 1.2818411e-05 6.0215978e-05 6.524446e-06
000370 47 0d 56 34 33 a4 43 35 22 26 8b 34 a2 81 25 34
       1.9935133e-07 7.28821e-07 2.5918513e-07 1.5413983e-07
000380 fe 86 a8 34 0b 65 88 34 8d 09 23 34 f2 44 bd 35
       3.1390658e-07 2.5405492e-07 1.5184033e-07 1.4101663e-06
000390 fa 26 0d 36 2d 9d 2c 34 27 1d a5 35 ba d9 5f 36
       2.1033325e-06 1.6075928e-07 1.2301942e-06 3.3356323e-06
0003a0 bb 4c 62 35 c0 b2 1d 35 a0 75 41 35 f0 8f 3e 35
       8.430322e-07 5.8747173e-07 7.206927e-07 7.098997e-07
0003b0 86 3d af 35 7c 5d 93 35 6a 06 64 36 bd ae 00 35
       1.3056422e-06 1.0979561e-06 3.397838e-06 4.7937993e-07
0003c0 97 1a 96 35 fd c6 b3 35 da 1b 53 35 02 5f 63 34
       1.118361e-06 1.3394452e-06 7.8644155e-07 2.1175586e-07
0003d0 8c 07 41 35 b1 9a 0a 35 71 7e 15 35 a9 af 81 35
       7.1909085e-07 5.163411e-07 5.569082e-07 9.662373e-07
0003e0 c8 37 cd 35 73 ff 37 35 45 d0 e6 36 ce a1 9e 37
       1.5289925e-06 6.854454e-07 6.87878e-06 1.8910414e-05
0003f0 37 35 e3 36 df 0b 84 36 8a c9 d6 36 79 12 74 36
       6.771322e-06 3.9352885e-06 6.401159e-06 3.6369586e-06

exp_avg f4 [40]
000000 a4 2a 0c bc ec 70 c1 bb 4e 31 aa b9 14 63 14 bb
       -0.008555088 -0.005903354 -0.00032461662 -0.0022642063
000010 fd 1c 31 b9 49 14 8a ba c6 76 51 ba 38 16 2d b9
       -0.00016890834 -0.001053461 -0.0007990416 -0.00016506843
000020 85 e5 06 bc af 73 8c bb f4 4a c5 39 0f 63 aa bb
       -0.008233433 -0.0042862515 0.00037630612 -0.005199797
000030 7c 6b fa b8 cf 4a 88 3a e8 43 15 b8 44 c7 c5 ba
       -0.000119409495 0.0010398271 -3.558761e-05 -0.0015089293
000040 0e 13 1d 39 14 20 8d ba 28 6d 1c bb de 46 9e ba
       0.00014979785 -0.0010767006 -0.0023868773 -0.0012075563
000050 d0 e6 0c ba 26 d9 59 bc a0 94 9f 38 5d 89 4e 3b
       -0.000537497 -0.013296401 7.6093944e-05 0.003151498
000060 28 13 2d ba 80 a4 5d ba 29 6e c1 3a 8a 70 89 3b
       -0.0006602281 -0.00084549934 0.0014757562 0.004194324
000070 f4 60 fe 3b 0f dc 9f bc 5c a1 1d bc b0 b6 7a bc
       0.0077630226 -0.019514112 -0.009620991 -0.015302345
000080 6c e2 09 b9 71 63 1f bb f2 e0 f2 b9 4c 11 80 b9
       -0.00013149687 -0.0024320746 -0.00046325434 -0.0002442695
000090 1f 9e 1c ba 30 9d 87 b8 65 2a 34 bc c8 9b 7f bb
       -0.00059744896 -6.46658e-05 -0.010996436 -0.0039002765

exp_avg_sq f4 [40]
000000 9f 6c d9 38 4e e4 aa 38 26 c8 7a 34 d6 e0 17 36
       0.000103675986 8.148757e-05 2.3355878e-07 2.2631625e-06
000010 95 d6 32 35 3f 00 8c 36 73 9d a2 34 9e a5 8d 37
       6.6622425e-07 4.172354e-06 3.028941e-07 1.6885631e-05
000020 ef 98 79 38 3c 02 1a 37 5d 83 bf 37 b1 94 6a 38
       5.9508657e-05 9.1796355e-06 2.2830145e-05 5.5928427e-05
000030 a1 87 6e 34 7a 2d 87 35 52 6a 3d 35 33 3e cb 36
       2.2214819e-07 1.0071519e-06 7.0562703e-07 6.0571124e-06
000040 b2 b1 91 33 f8 d6 75 37 04 a4 0d 38 55 47 e7 36
       6.784411e-08 1.4653189e-05 3.376977e-05 6.8926406e-06
000050 72 5e 42 3a 84 44 07 3a de 70 eb 37 8e c8 af 37
       0.0007414586 0.0005160051 2.8066741e-05 2.0955016e-05
000060 66 a6 1f 37 18 6a 89 39 73 0e 88 36 80 2d e7 39
       9.515881e-06 0.00026209722 4.054798e-06 0.00044093654
000070 d1 77 8e 39 15 b5 66 3a aa 24 1e 39 f1 94 a3 39
       0.0002717362 0.0008800787 0.00015081713 0.00031200753
000080 fc 8a 89 34 02 fc 1d 36 6d b7 38 35 f5 b1 52 37
       2.5619363e-07 2.354151e-06 6.881226e-07 1.2558409e-05
000090 87 c8 84 34 b4 a1 c8 37 52 7c 19 39 5a 33 38 37
       2.473282e-07 2.3917157e-05 0.0001463753 1.0979211e-05

exp_avg f4 [40]
000000 a4 2a 0c bc ea 70 c1 bb 4f 31 aa b9 15 63 14 bb
       -0.008555088 -0.005903353 -0.00032461665 -0.0022642065
000010 07 1d 31 b9 48 14 8a ba c5 76 51 ba 30 16 2d b9
       -0.00016890849 -0.0010534609 -0.00079904153 -0.00016506831
000020 85 e5 06 bc b0 73 8c bb e8 4a c5 39 11 63 aa bb
       -0.008233433 -0.004286252 0.00037630578 -0.005199798
000030 74 6b fa b8 d0 4a 88 3a 08 44 15 b8 45 c7 c5 ba
       -0.00011940944 0.0010398272 -3.5587727e-05 -0.0015089294
000040 10 13 1d 39 14 20 8d ba 26 6d 1c bb e0 46 9e ba
       0.00014979788 -0.0010767006 -0.0023868768 -0.0012075566
000050 b0 e6 0c ba 24 d9 59 bc 60 94 9f 38 5c 89 4e 3b
       -0.0005374951 -0.013296399 7.609348e-05 0.0031514978
000060 2a 13 2d ba 80 a4 5d ba 28 6e c1 3a 8e 70 89 3b
       -0.0006602282 -0.00084549934 0.001475756 0.004194326
000070 f6 60 fe 3b 10 dc 9f bc 5d a1 1d bc af b6 7a bc
       0.0077630235 -0.019514114 -0.009620992 -0.015302344
000080 74 e2 09 b9 70 63 1f bb f2 e0 f2 b9 4b 11 80 b9
       -0.00013149698 -0.0024320744 -0.00046325434 -0.00024426947
000090 1e 9e 1c ba 30 9d 87 b8 64 2a 34 bc c8 9b 7f bb
       -0.0005974489 -6.46658e-05 -0.010996435 -0.0039002765
