lightning_logs/version_26/checkpoints/epoch=1-step=440.ckpt (torch, 19098 bytes, 15 tensors)

model.lstm.weight_ih_l0 f4 [40, 8]
0.11367304 -0.022662664 0.0870169 -0.27059472 0.036215585 -0.20512356 -0.28094292 0.099097766
0.28451598 -0.011459688 -0.053998016 -0.11285002 -0.2452955 0.18768555 -0.25380787 0.013945032
0.27840188 0.10152141 0.1766669 0.28658855 -0.13644108 -0.25580433 -0.27109098 -0.028709726
0.1526058 0.28907955 -0.05002235 -0.08799221 0.30420154 0.090460666 0.07022967 -0.119751476
-0.1617469 -0.07015736 0.28949565 0.2856077 -0.06482134 -0.13145977 -0.22254254 -0.2982308
0.2970165 -0.139532 0.023880092 0.089557886 -0.14504164 -0.24381617 0.039772943 -0.055562206
-0.3023212 -0.20502672 -0.18550211 0.17851907 -0.28454736 0.005768959 -0.24058343 0.14198036
-0.028012767 -0.16454078 -0.13062198 0.2751351 0.26297414 -0.078641795 0.19510695 0.12278076
0.31489706 -0.3008556 -0.21688889 0.33144072 -0.018650644 -0.22357218 0.15208367 0.32952544
-0.10853448 -0.25964132 -0.28560516 0.114359066 0.11280692 0.05499775 -0.017376378 -0.22011708
-0.025240865 -0.22174692 0.22804193 -0.22969665 0.22502872 0.047250412 0.16830926 -0.12792899
-0.29149178 0.070454724 0.18390381 -0.07401783 0.2414804 -0.030177725 -0.24241185 0.13386914
0.26699325 0.2957963 0.11035709 -0.2220374 0.029826416 0.11925213 0.005390949 -0.29311684
0.21349397 -0.11428012 0.08307951 -0.16789567 -0.19156441 0.25402862 -0.080081195 0.2767717
0.07810098 -0.094230756 0.15464464 -0.00945326 -0.030057069 0.23393069 0.11442307 -0.19595684
-0.26378658 -0.01846817 0.33535153 0.30317554 0.24362315 0.09076637 0.022781966 -0.28319168
0.005000502 -0.00030562998 -0.09682921 -0.21361518 0.27127126 -0.003685316 0.017712878 0.07155941
0.11484999 0.015600322 -0.18232697 -0.26151 0.3072027 -0.1779322 0.15591559 0.0327994
0.25114304 -0.07657578 -0.17036442 0.14568253 -0.22330548 -0.16755918 -0.32616094 -0.20025268
-0.15604024 0.052787542 -0.2991484 -0.21588 -0.13314444 0.01837316 0.039119624 -0.23735662
-0.20989686 0.061984163 -0.2191177 0.25402302 -0.18203288 -0.27748638 0.15220515 -0.052245222
0.06284455 -0.1292538 0.1788455 -0.13545193 -0.30967858 -0.052039523 0.2869528 0.24761012
0.08320885 -0.2976637 0.15924445 0.16674852 -0.2982986 -0.20081098 -0.096355446 0.22114813
-0.22201961 -0.32282734 0.24462278 0.030242335 0.22163576 0.13504565 0.08703953 -0.26884276
-0.20366676 0.0037866146 0.007077865 0.14981402 -0.22468126 -0.097792484 0.14226292 0.047752455
-0.18127114 0.036144607 0.050754506 0.25953087 0.1934538 0.13621332 -0.2469928 0.2253005
-0.07896572 0.047383904 -0.13109884 -0.09637918 -0.15142201 0.2018248 -0.2447114 0.0844337
-0.18758868 -0.10254795 0.2318354 -0.25984386 -0.29034042 -0.0812254 -0.17903735 0.13668926
0.2639827 -0.097742826 0.019942936 0.18517923 0.06716449 -0.1526951 0.024666341 0.2638581
-0.20299073 0.03720006 -0.2693676 0.06528059 -0.003160382 -0.1751757 0.06888292 0.29436696
-0.0024559274 -0.0120648015 0.2655635 -0.21115458 0.1524131 -0.19488536 -0.25270432 0.2065763
0.022944475 0.14588508 -0.030398067 -0.10932321 -0.23696329 0.1882469 -0.23149057 -0.27182314
00000000: 69cd e83d 0da7 b9bc eb35 b23d 648b 8abe
00000010: cb56 143d e90b 52be c0d7 8fbe c5f3 ca3d
00000020: 14ac 913e 6ac1 3bbc 062d 5dbd e91d e7bd
00000030: be2e 7bbe a430 403e 1bf3 81be b479 643c
00000040: b18a 8e3e 75ea cf3d 2be8 343e bcbb 923e
00000050: 36b7 0bbe c9f8 82be 70cc 8abe a930 ebbc
00000060: b244 1c3e 3c02 943e 3ce4 4cbd 4335 b4bd
00000070: 4ec0 9b3e 7143 b93d 93d4 8f3d 4340 f5bd
00000080: fba0 25be a9ae 8fbd c638 943e 2c3b 923e
00000090: 0dc1 84bd 649d 06be 31e2 63be b5b1 98be
000000a0: 8c12 983e 7ae1 0ebe 2fa0 c33c 206a b73d
000000b0: cc85 14be f2aa 79be f4e8 223d 3295 63bd
000000c0: d8c9 9abe 86f2 51be 44f4 3dbe b4cd 363e
000000d0: 31b0 91be 8909 bd3b 815b 76be 4d63 113e
000000e0: 087b e5bc 617d 28be c5c1 05be 82de 8c3e
000000f0: 8ca4 863e f30e a1bd 1eca 473e 7b74 fb3d
00000100: 303a a13e bf09 9abe 1f18 5ebe 99b2 a93e
00000110: 3cc9 98bc 1bf0 64be d2bb 1b3e 8fb7 a83e
00000120: 5347 debd b5ef 84be d73a 92be 1635 ea3d
00000130: 5107 e73d 5245 613d e858 8ebc 5f66 61be
00000140: eec5 cebc a011 63be d383 693e 9935 6bbe
00000150: ee6d 663e a689 413d 4359 2c3e d1ff 02be
00000160: 693e 95be 914a 903d 4851 3c3e a996 97bd
00000170: a346 773e 4737 f7bc d03a 78be fe14 093e
00000180: 57b3 883e 9d72 973e e602 e23d c65d 63be
00000190: 8756 f43c 763a f43d 8fa6 b03b 6913 96be
000001a0: 2a9e 5a3e b20b eabd 9725 aa3d d8ec 2bbe
000001b0: 7629 44be 0a10 823e 9c01 a4bd 05b5 8d3e
000001c0: 68f3 9f3d 0efc c0bd 2a5b 1e3e d9e1 1abc
000001d0: 3e3a f6bc 878b 6f3e a456 ea3d e9a8 48be
000001e0: 090f 87be 8f4a 97bc 32b3 ab3e d339 9b3e
000001f0: 5978 793e b8e3 b93d 3fa1 ba3c 80fe 90be
00000200: 40db a33b f63c a0b9 654e c6bd f0bd 5abe
00000210: 11e4 8a3e 5885 71bb 991a 913c bd8d 923d
00000220: 7936 eb3d 7e98 7f3c ecb3 3abe a4e4 85be
00000230: ac49 9d3e dc33 36be 56a8 1f3e aa58 063d
00000240: d295 803e c3d3 9cbd 0374 2ebe cd2d 153e
00000250: 31aa 64be a294 2bbe 91fe a6be 0a0f 4dbe
00000260: 03c9 1fbe c037 583d fb29 99be a60f 5dbe
00000270: 0457 08be 4f83 963c e63b 203d 9d0d 73be
00000280: 34ef 56be 1be3 7d3d 6460 60be 4e0f 823e
00000290: d466 3abe b212 8ebe abdb 1b3e 16ff 55bd
000002a0: a5b4 803d 1c5b 04be 4623 373e e9b3 0abe
000002b0: 318e 9ebe 6527 55bd 7aeb 923e 828d 7d3e
000002c0: 6769 aa3d 6067 98be fa10 233e 20c0 2a3e
000002d0: 98ba 98be 65a1 4dbe 0156 c5bd a874 623e
000002e0: 1c59 63be a049 a5be 657e 7a3e c6be f73c
000002f0: 7cf4 623e 6849 0a3e c841 b23d c2a5 89be
00000300: 058e 50be da28 783b 6fed e73b d968 193e
00000310: d812 66be 6d47 c8bd 5fad 113e 1498 433d
00000320: 249f 39be 5e0c 143d f5e3 4f3d 3be1 843e
00000330: c118 463e 817b 0b3e aeeb 7cbe 2db5 663e
00000340: c8b8 a1bd a015 423d c63e 06be 7362 c5bd
00000350: 5f0e 1bbe 29ab 4e3e a095 7abe 93eb ac3d
00000360: 3f17 40be a904 d2bd 4266 6d3e 410a 85be
00000370: 80a7 94be 8159 a6bd 9155 37be 45f8 0b3e
00000380: be28 873e 642d c8bd 5e5f a33c a09f 3d3e
00000390: 898d 893d 1b5c 1cbe 1111 ca3c 6918 873e
000003a0: cddc 4fbe 175f 183d 8dea 89be d4b1 853d
000003b0: 691e 4fbb 4261 33be 7d12 8d3d 44b7 963e
000003c0: a0f3 20bb 72ab 45bc f0f7 873e e838 58be
000003d0: 2e12 1c3e 0790 47be 7662 81be bd88 533e
000003e0: 0df6 bb3c e662 153e 5e05 f9bc d9e4 dfbd
000003f0: 81a6 72be ccc3 403e dd0b 6dbe 672c 8bbe

model.lstm.weight_hh_l0 f4 [40, 10]
-0.17988612 0.22058028 -0.06693762 0.1758096 0.28798208 -0.02375509 -0.17989811 -0.13768442
-0.13680233 -0.20418085 -0.17695144 0.11177475 -0.07099418 -0.22346702 0.2925377 0.08516535
0.106112644 0.08475377 -0.19776937 -0.16135122 0.10310369 0.21399967 0.15119272 -0.0978001
-0.14999758 0.28823236 -0.09044632 0.05060864 -0.0663641 0.27158263 -0.02856174 -0.30176875
0.157555 0.2464637 0.057313055 -0.19193551 0.05439041 0.11901034 0.2269087 0.10523663
-0.17910796 -0.20257662 0.20682274 0.045508064 -0.0617454 0.14755043 0.12271891 -0.1494326
0.04664462 0.17948878 -0.08637863 -0.10081357 0.274165 -0.06872789 0.016008085 -0.21710847
0.15876895 -0.10472475 0.23781744 0.07749069 0.12262375 0.11146745 -0.10197592 0.16231008
0.03252978 -0.2184642 0.22535674 0.11516524 -0.06072526 -0.29968694 -0.0118921 0.07181489
0.07330091 0.30634242 -0.053550225 -0.19128 0.05651837 -0.1729007 0.09175641 0.28759006
0.27186647 0.19282275 -0.34475926 0.20343122 0.26044694 -0.2727059 0.24327165 -0.109000444
-0.2339594 -0.28754586 0.14940697 0.011665488 -0.13474244 0.15164395 0.037647337 -0.006362658
-0.08047626 0.20855238 0.14724554 0.05328887 -0.27106905 -0.032566607 -0.10544767 -0.0880944
0.10795124 0.058953468 0.22977439 -0.06863053 -0.027492197 -0.09158942 0.07343645 -0.106363185
0.018593712 -0.09291401 -0.27600402 0.066811405 0.02554545 -0.22975062 -0.26348764 0.25362542
0.0034133592 -0.18230134 -0.22417109 -0.085722946 -0.2142826 -0.12178943 0.19607385 -0.14880146
-0.20733188 -0.222267 0.17599346 -0.18311183 0.32876143 0.188571 -0.12572701 0.08449752
0.17524616 -0.089331344 -0.28141138 -0.087942414 -0.15080021 0.0468852 -0.3361949 -0.043991327
0.3114076 0.32877466 -0.23071778 0.17189208 -0.2044468 -0.0071104355 0.0039709355 0.23970334
-0.0521026 -0.1965697 0.29934773 0.32601923 -0.013833005 -0.07010194 0.11595373 0.1818953
-0.19483571 0.05250168 0.29276076 0.09174688 -0.025812617 -0.08435227 -0.26581427 0.12738138
0.28011787 -0.016914096 -0.08549997 0.0037525594 -0.16263863 -0.048001472 -0.2173802 -0.112889834
0.022651188 -0.14872232 0.23201644 -0.22704971 -0.009116489 0.062745795 -0.1002668 0.23841359
-0.11302106 0.15121546 -0.20540488 0.25731218 -0.25894877 0.039825235 0.124020934 0.026425779
0.14579073 0.263691 0.29197046 0.043675307 -0.26617894 0.049030725 -0.095693804 0.0049602366
-0.0751838 0.017741568 -0.11189199 -0.16924936 0.090277724 0.0463895 0.23104477 0.19061767
-0.0640805 -0.28306037 0.29278055 -0.24650934 0.3082836 -0.28850108 -0.18559894 0.086917475
-0.2360156 0.29594678 -0.11448483 0.08141824 -0.14326444 -0.04447193 0.07979696 -0.2849134
-0.22075914 0.07113459 0.24639764 -0.0042046933 -0.17248167 -0.1514095 -0.09050375 -0.03072671
0.15066603 -0.0064981612 -0.099642284 -0.29255155 -0.27194637 -0.2627465 0.053967483 0.1358944
0.09814424 0.18417613 -0.15820636 0.1626512 -0.32586607 -0.28534552 -0.12656018 -0.14181897
-0.30516312 -0.065671645 0.14445853 0.15272787 -0.18504147 -0.057256293 -0.15980664 -0.3369983
00000000: 1134 38be ccdf 613e 9716 89bd 6f07 343e
00000010: 6372 933e 099a c2bc 3637 38be 25fd 0cbe
00000020: e915 0cbe c914 51be c232 35be 29ea e43d
00000030: 6665 91bd 8ad4 64be 80c7 953e 2c6b ae3d
00000040: 9651 d93d 6293 ad3d 0e84 4abe 4139 25be
00000050: 0728 d33d bb22 5b3e 44d2 1a3e 6b4b c8bd
00000060: f798 19be 3193 933e ec3b b9bd 014b 4f3d
00000070: e7e9 87bd e10c 8b3e 4ffa e9bc 6f81 9abe
00000080: 1956 213e fb60 7c3e 18c1 6a3d be8a 44be
00000090: 7bc8 5e3d b1bb f33d c15a 683e 4d86 d73d
000000a0: 1468 37be 3f70 4fbe 57c9 533e aa66 3a3d
000000b0: bfe8 7cbd 7617 173e 0d54 fb3d dc04 19be
000000c0: 6e0e 3f3d e8cb 373e 47e7 b0bd 5877 cebd
000000d0: 5b5f 8c3e 35c1 8cbd 6323 833c af51 5ebe
000000e0: 5494 223e ee79 d6bd 6a86 733e 70b3 9e3d
000000f0: 2922 fb3d 0c49 e43d c0d8 d0bd 9d34 263e
00000100: f23d 053d 14b5 5fbe ebc3 663e c1db eb3d
00000110: 0dbb 78bd 9170 99be 15d7 42bc af13 933d
00000120: ca1e 963d ead8 9c3e 7b57 5bbd e8de 43be
00000130: ce7f 673d e20c 31be c9ea bb3d 013f 933e
00000140: 1532 8b3e 5473 453e 4984 b0be 4650 503e
00000150: 4d59 853e 1ca0 8bbe 341c 793e a03b dfbd
00000160: 0e93 6fbe 3639 93be 24fe 183e 9a20 3f3c
00000170: ecf9 09be 8d48 1b3e 1834 1a3d d87d d0bb
00000180: bdd0 a4bd c18e 553e 89c7 163e 6e45 5a3d
00000190: 90c9 8abe 9064 05bd f3f4 d7bd d66a b4bd
000001a0: 8a15 dd3d 3179 713d fa49 6b3e 2a8e 8cbd
000001b0: 5137 e1bc 3c93 bbbd d965 963d f1d4 d9bd
000001c0: d751 983c b349 bebd 6650 8dbe 6bd4 883d
000001d0: b144 d13c bf43 6bbe dae7 86be 31db 813e
000001e0: aab2 5f3b 34ad 3abe 1b8d 65be 838f afbd
000001f0: e66c 5bbe bd6c f9bd 95c7 483e 695f 18be
00000200: cf4e 54be f699 63be a137 343e ab81 3bbe
00000210: 6b53 a83e c218 413e 95be 00be 090d ad3d
00000220: bb73 333e 5af3 b6bd 2715 90be 271b b4bd
00000230: 5f6b 1abe b20a 403d bd21 acbe 4030 34bd
00000240: d170 9f3e 2755 a83e 4841 6cbe 7a04 303e
00000250: 805a 51be a8fe e8bb 9f1e 823b cb74 753e
00000260: 8969 55bd 9149 49be 1b44 993e feeb a63e
00000270: d4a3 62bc 9b91 8fbd 2679 ed3d c342 3a3e
00000280: 0383 47be 000c 573d bde4 953e cae5 bb3d
00000290: fb74 d3bc e2c0 acbd cf18 88be 4470 023e
000002a0: 9c6b 8f3e 6e8f 8abc 9c1a afbd 80ed 753b
000002b0: be8a 26be 319d 44bd ea98 5ebe c932 e7bd
000002c0: fc8e b93c aa4a 18be b895 6d3e b87f 68be
000002d0: 545d 15bc de80 803d ae58 cdbd b122 743e
000002e0: 9677 e7bd 3ad8 1a3e a855 52be 6cbe 833e
000002f0: ef94 84be c91f 233d b0fe fd3d e07a d83c
00000300: 2a4a 153e 8202 873e 277d 953e e1e4 323d
00000310: 9b48 88be 71d4 483d 1dfb c3bd 7b89 a23b
00000320: f7f9 99bd c456 913c a127 e5bd b44f 2dbe
00000330: 87e3 b83d eb02 3e3d 0097 6c3e 4731 433e
00000340: a33c 83bd 4aed 90be 55e7 953e f26c 7cbe
00000350: 59d7 9d3e 6ab6 93be a60d 3ebe ca01 b23d
00000360: 13ae 71be 5686 973e 0677 eabd 9bbe a63d
00000370: eab3 12be 3328 36bd 976c a33d 2be0 91be
00000380: af0e 62be 03af 913d aa4f 7c3e 86c7 89bb
00000390: 099f 30be 180b 1bbe 085a b9bd 95b6 fbbc
000003a0: 3248 1a3e 87ee d4bb 4111 ccbd 51c9 95be
000003b0: 8e3c 8bbe b686 86be 020d 5d3d e727 0b3e
000003c0: d9ff c83d ab98 3c3e d900 22be 098e 263e
000003d0: ebd7 a6be cf18 92be fe98 01be fe38 11be
000003e0: 573e 9cbe db7e 86bd f0ec 133e b264 1c3e
000003f0: 837b 3dbe 9385 6abd 5aa4 23be 0b8b acbe

model.lstm.bias_ih_l0 f4 [40]
0.037343625 0.1023958 0.2111667 0.10480947 0.12865299 -0.21683688 0.1951888 -0.10820222
0.266704 0.0146166375 -0.25305498 -0.2773472 -0.21509272 -0.008519949 0.27901858 -0.21384118
0.33411732 0.24845888 0.2903958 0.1728043 -0.03434135 -0.24196656 0.11776981 -0.19681065
-0.11069858 -0.060171 0.19060512 0.13128795 0.005994254 -0.27674007 0.10609926 -0.25965303
-0.15888521 0.011685151 0.17640193 -0.2568676 -0.13258807 0.2329932 0.19806352 -0.18549198
00000000: a1f5 183d e4b4 d13d 153c 583e 59a6 d63d
00000010: 9cbd 033e 7d0a 5ebe 93df 473e 2099 ddbd
00000020: 6d8d 883e 9f7a 6f3c 6c90 81be 7400 8ebe
00000030: 4441 5cbe 4297 0bbc 86db 8e3e 2ff9 5abe
00000040: 6d11 ab3e 016c 7e3e c2ae 943e 9cf3 303e
00000050: 84a9 0cbd 15c6 77be 4c31 f13d bb88 49be
00000060: f0b5 e2bd de75 76bd fd2d 433e 5970 063e
00000070: 726b c43b e0b0 8dbe 924a d93d 3ef1 84be
00000080: ceb2 22be 1373 3f3c b5a2 343e 2684 83be
00000090: 2bc5 07be c595 6e3e 2ad1 4a3e 9cf1 3dbe

model.lstm.bias_hh_l0 f4 [40]
-0.06748105 -0.12131966 -0.16875105 -0.27421463 -0.09418867 0.15430874 0.21201149 0.18822278
-0.22965826 0.12597209 0.103800386 -0.094015606 -0.1781235 -0.24179536 -0.15480633 0.26152295
-0.010107864 0.19758733 -0.026251571 -0.2653511 0.10742526 -0.035479844 0.2341163 0.27156642
-0.11225614 -0.21158634 0.2854405 0.013370145 -0.091813244 0.17298017 0.032597244 0.20634982
-0.08009348 -0.2082508 -0.021024376 -0.16140835 -0.12994736 0.25668958 -0.32179666 -0.0039935373
00000000: 8133 8abd 7176 f8bd 13cd 2cbe dc65 8cbe
00000010: fde5 c0bd 1c03 1e3e 8a19 593e 79bd 403e
00000020: 892b 6bbe d4fe 003e 4c95 d43d 418b c0bd
00000030: 0266 36be 3499 77be 8d85 1ebe 56e6 853e
00000040: 749b 25bc 5554 4a3e 890d d7bc 19dc 87be
00000050: c601 dc3d 5053 11bd 2fbc 6f3e c10a 8b3e
00000060: 8ce6 e5bd 17aa 58be 4225 923e 740e 5b3c
00000070: 9508 bcbd b721 313e b084 053d 5e4d 533e
00000080: 0d08 a4bd b33f 55be 503b acbc 3b48 25be
00000090: ec10 05be d16c 833e 88c2 a4be 38dc 82bb

model.fc.weight f4 [1, 10]
-0.13793729 0.020833189 -0.17927414 0.31863812 0.13121079 0.035528425 0.0944107 0.24486499
0.09901909 -0.13566236
00000000: 6f3f 0dbe 5daa aa3c a493 37be 8924 a33e
00000010: 1f5c 063e 4186 113d 665a c13d e3bd 7a3e
00000020: 85ca ca3d 13eb 0abe

exp_avg f4 [40, 8]
-0.0027726844 -0.0008440891 0.001458806 0.0011297108 -0.0029606558 -0.009198719 0.001295821 0.001554168
2.584807e-05 -0.0002274364 -0.00027940667 -0.0002395229 0.0003489191 0.00094923715 -0.0003169339 -0.00050270645
-0.0028469893 0.00018206591 -0.0021574786 -0.00042000366 0.005527579 0.0044420315 -0.0003992891 0.0002086293
0.006421643 0.007679891 0.005969755 0.0023279404 -0.0068716235 -0.010736646 0.0072070886 0.0038859216
-0.0011302523 -0.0017248718 -0.0024497365 -0.0010755946 -0.0006460235 0.001410941 -0.0024563284 -0.0015278885
-0.00059566606 -3.089183e-05 -0.00052329217 -5.628094e-05 -7.0944596e-05 -0.0004503056 -0.00015535623 -3.9351475e-05
0.0012299571 0.0011136611 0.0017489595 0.0009293457 -0.002781793 -0.005162592 0.0014769693 0.001164399
0.007560157 0.0015555968 0.0019450232 -0.0023729512 -0.00018573648 0.011570505 0.00028630922 -0.003677215
0.0009766083 -0.00029770655 -0.00089027506 -0.0014747428 0.00023313289 0.004208246 -0.0009629979 -0.0018769404
-0.0036304686 -0.0022780905 0.0015506911 0.0020084898 -0.0072199013 -0.018150002 0.00016618198 0.0031058188
-0.001543582 -0.00086686964 -0.0025794033 -0.0016418857 0.0018174687 0.0029192884 -0.0018485655 -0.0014058903
-0.00037847718 -0.0002540495 -0.0002114403 -9.031038e-05 -8.2729806e-05 -0.00036616062 -0.0001642261 3.0422387e-05
-0.005001589 -0.0041332757 -0.004671174 -0.002972647 -0.0016621759 -0.0031283216 -0.0042499937 -0.0030789287
0.007188358 0.007383191 0.0056146695 0.0042199646 0.0007875095 0.0026783484 0.0057145734 0.002562708
0.0010425106 0.00030425505 0.001205634 0.00042651512 -0.00020278175 -0.0004960429 0.001058291 0.0006727099
-0.0007686521 -0.0003447868 -0.00051143026 -5.1877658e-05 0.00018285392 -8.1915925e-05 -0.0003145992 -0.00014477437
0.0027854221 0.0019618468 0.0012992583 0.00051299995 0.00083229993 0.0029245662 0.0013403642 0.00024996075
-0.008499404 -0.0036849997 -0.0063142697 -0.0006083076 0.00686023 0.0033818297 -0.003196253 0.0009772936
0.0015067671 0.001287235 0.0023416476 0.0016890941 -0.0015687484 -0.0017156401 0.0016331818 0.0019766928
0.006685189 0.00472785 0.0020790072 6.869875e-05 0.0028716172 0.011307754 0.0027229493 -0.00069476437
-0.029202579 -0.023276296 -0.029463 -0.017721951 0.009248033 0.0064276676 -0.024146236 -0.013022809
0.0021799968 0.0015083995 0.0018692621 0.0011494872 0.00040645472 0.0005363581 0.0014690917 0.0011507707
-0.014893905 -0.009039286 -0.015248259 -0.0068767853 -0.00043859263 -0.0026062874 -0.009765389 -0.0057602935
0.026853539 0.019342985 0.030694192 0.01785271 -0.0034984315 0.0044855587 0.022312583 0.014790285
0.026469221 0.014609908 0.019591933 0.0057811574 -0.008765457 -0.0018957002 0.013881147 0.0032640628
0.003221896 0.0013945807 0.001635283 -7.605458e-05 -7.939729e-05 0.0032633583 0.00090397336 0.00018260477
0.011917853 0.0064012576 0.005374151 0.0004038422 0.0026434744 0.012152275 0.0040608067 0.0008151479
0.038908854 0.026116634 0.038983956 0.021013085 -0.01873228 -0.017429175 0.02877767 0.02149425
0.018296108 0.011320615 0.0110201165 0.003437641 0.00011803082 0.012414077 0.00877515 0.001309457
-0.021291485 -0.01902007 -0.019380307 -0.010334615 0.008175323 0.0077701313 -0.016947864 -0.009767302
-0.006759258 -0.0016975754 -0.0028455872 0.00036611862 -0.0005710021 -0.0060089948 -0.0015081277 0.0013899255
-0.00035619564 -0.0006524778 -0.00019954996 -0.00015989739 -8.375531e-05 0.00018212025 -0.0004227256 -0.00029211707
00000000: edb5 35bb dc45 5dba 6835 bf3a ce12 943a
00000010: 9007 42bb 39b6 16bc 8ad8 a93a 39b5 cb3a
00000020: 4fd4 d837 fe7b 6eb9 547d 92b9 7028 7bb9
00000030: 21ef b639 3ad6 783a 262a a6b9 0fc8 03ba
00000040: 8e94 3abb f2e8 3e39 7c64 0dbb f033 dcb9
00000050: b220 b53b 768e 913b ad57 d1b9 80c3 5a39
00000060: a56c d23b 98a7 fb3b ef9d c33b 5c90 183b
00000070: 5b2b e1bb c2e8 2fbc 7129 ec3b f2aa 7e3b
00000080: f924 94ba 1815 e2ba c28b 20bb f7fa 8cba
00000090: e759 29ba 53ef b83a 5afa 20bb 6e43 c8ba
000000a0: 7926 1cba da91 01b8 8b2d 09ba 330f 6cb8
000000b0: 17c8 94b8 ff16 ecb9 1fe7 22b9 530d 25b8
000000c0: 8336 a13a 44f8 913a 583d e53a 569f 733a
000000d0: be4e 36bb f62a a9bb de96 c13a bf9e 983a
000000e0: 32bb f73b 2be5 cb3a 26f0 fe3a 8483 1bbb
000000f0: 42c2 42b9 3792 3d3c c61b 9639 6efd 70bb
00000100: 8901 803a 7f15 9cb9 5961 69ba 284c c1ba
00000110: 2275 7439 53e5 893b b271 7cba ab03 f6ba
00000120: 28ed 6dbb 044c 15bb 8f40 cb3a dea0 033b
00000130: ec94 ecbb 50af 94bc 2341 2e39 fe8a 4b3b
00000140: 0452 caba a33e 63ba 350b 29bb 8b34 d7ba
00000150: 2138 ee3a 8851 3f3b 914b f2ba da45 b8ba
00000160: 596e c6b9 f231 85b9 13b6 5db9 0465 bdb8
00000170: 3a7f adb8 3ff9 bfb9 1c34 2cb9 9433 ff37
00000180: 5fe4 a3bb 6e70 87bb a610 99bb bed0 42bb
00000190: 5edd d9ba 8704 4dbb 8843 8bbb dac7 49bb
000001a0: 518c eb3b b2ee f13b 43fb b73b a147 8a3b
000001b0: de70 4e3a 3b87 2f3b 5141 bb3b 1bf3 273b
000001c0: daa4 883a 6c84 9f39 5d06 9e3a e49d df39
000001d0: d0a1 54b9 e008 02ba 5ab6 8a3a cc58 303a
000001e0: 5f7f 49ba 80c4 b4b9 8111 06ba 3697 59b8
000001f0: 7abc 3f39 47ca abb8 caf0 a4b9 93ce 17b9
00000200: a18b 363b 5492 003b e04b aa3a d87a 063a
00000210: b42e 5a3a 14aa 3f3b 29af af3a 2a0d 8339
00000220: 1641 0bbc 0980 71bb efe7 cebb d576 1fba
00000230: c8cb e03b b0a1 5d3b 3a78 51bb 8818 803a
00000240: b77e c53a 70b8 a83a 5476 193b 9864 dd3a
00000250: 769e cdba 54df e0ba 7d10 d63a 678b 013b
00000260: 6e0f db3b 15ec 9a3b f43f 083b 5c12 9038
00000270: be31 3c3b 2844 393c 8273 323b d920 36ba
00000280: 3f3a efbc eead bebc 645c f1bc a02d 91bc
00000290: 1085 173c 2f9f d23b 54ce c5bc 9f5d 55bc
000002a0: 47de 0e3b 7db5 c53a 0702 f53a 64aa 963a
000002b0: 6e19 d539 629a 0c3a 8a8e c03a 75d5 963a
000002c0: 9105 74bc 8319 14bc d5d3 79bc a856 e1bb
000002d0: e8f2 e5b9 3fce 2abb 03ff 1fbc d8c0 bcbb
000002e0: f4fb db3c 2e75 9e3c 6372 fb3c d93f 923c
000002f0: f145 65bb 98fb 923b e1c8 b63c f452 723c
00000300: fbd5 d83c 655e 6f3c 437f a03c dd6f bd3b
00000310: fe9c 0fbc 2579 f8ba c06d 633c e3e9 553b
00000320: 7226 533b 5dca b63a fe56 d63a 7e7f 9fb8
00000330: 1882 a6b8 11de 553b a0f8 6c3a 9879 3f39
00000340: 1943 433c a4c1 d13b a519 b03b c8ba d339
00000350: 243e 2d3b 561a 473c 8410 853b a6af 553a
00000360: e45e 1f3d 8df2 d53c a4ad 1f3d a223 ac3c
00000370: 7074 99bc a1c7 8ebc 26bf eb3c b614 b03c
00000380: b8e1 953c 1a7a 393c b88d 343c 0c4a 613b
00000390: 5087 f738 6a64 4b3c a6c5 0f3c 16a2 ab3a
000003a0: 7b6b aebc facf 9bbc 73c3 9ebc 8452 29bc
000003b0: caf1 053c 969c fe3b 3fd6 8abc 0907 20bc
000003c0: c47c ddbb 2e81 deba 087d 3abb 9cf3 bf39
000003d0: 4daf 15ba 1ae7 c4bb 5eac c5ba 292e b63a
000003e0: c5bf bab9 0b0b 2bba 493e 51b9 21aa 27b9
000003f0: caa5 afb8 88f7 3e39 45a1 ddb9 4a27 99b9

exp_avg_sq f4 [40, 8]
1.7577988e-05 1.9966237e-05 2.0725987e-05 1.5610607e-05 8.720462e-05 7.5726646e-05 1.4702286e-05 2.0412188e-05
5.5408105e-07 2.057684e-06 9.3645815e-07 1.6745835e-06 6.8168006e-06 1.2649693e-05 9.3957925e-07 1.251704e-06
2.078041e-05 2.8941602e-05 1.3888997e-05 1.719556e-05 8.571216e-05 8.1270424e-05 1.7692195e-05 1.540732e-05
6.418856e-05 0.00011815324 0.00013217956 0.0001586419 5.713866e-05 8.6562046e-05 0.00011838457 8.073929e-05
2.1676386e-05 3.7135498e-05 2.7187942e-05 2.9979674e-05 4.8652608e-05 3.2241245e-05 3.0317522e-05 1.5054422e-05
4.7062045e-07 7.280185e-07 1.4522375e-06 1.3431492e-06 7.320275e-07 7.0795346e-07 8.398121e-07 1.2414519e-06
2.1217427e-06 1.9391282e-06 3.849831e-06 2.5483866e-06 1.6637166e-05 9.79296e-05 2.890247e-06 2.0067464e-06
8.680002e-05 0.00014787544 7.406867e-05 0.000114885406 0.00019096934 0.0006122334 9.611024e-05 4.007015e-05
6.899614e-06 9.879638e-06 1.1023937e-05 1.0487207e-05 0.00057022594 2.7666509e-05 9.4649e-06 7.950662e-06
0.00013066751 5.6112247e-05 4.4029468e-05 1.6565285e-05 0.0007635564 0.0018732009 4.0317587e-05 2.1783355e-05
1.0263233e-05 5.6949484e-06 1.0091811e-05 5.636045e-06 4.9360556e-06 9.772682e-06 8.8812485e-06 4.5142892e-06
4.875792e-07 5.279176e-07 5.090479e-07 5.3056243e-07 1.1933517e-06 2.0683142e-06 3.0672575e-07 4.5407796e-07
5.6312794e-05 7.3379815e-05 4.9240327e-05 4.6657704e-05 0.000523899 6.224789e-05 6.883263e-05 2.5921643e-05
6.4690146e-05 0.00014459359 7.799912e-05 0.00011349051 0.00012279328 0.00031420658 9.638225e-05 3.156156e-05
1.6187249e-05 1.7825696e-05 1.346347e-05 1.1240511e-05 2.3331702e-05 9.7842085e-06 1.564233e-05 7.4818513e-06
1.2827675e-06 6.1407087e-07 5.293363e-07 2.113464e-07 2.5634395e-07 7.0044763e-07 4.863745e-07 2.2722622e-07
5.3453878e-06 2.4401256e-06 1.2474428e-06 1.1151614e-06 1.7850847e-06 6.9673015e-06 1.5911087e-06 1.5355411e-06
0.00011579418 4.7110072e-05 8.2735096e-05 2.401776e-05 0.000130666 0.00019672926 5.9234026e-05 1.702112e-05
5.6756353e-06 5.3626836e-06 8.620081e-06 6.0285965e-06 3.2364023e-06 5.977505e-06 6.6665393e-06 6.2428526e-06
6.15984e-05 4.6614987e-05 9.85668e-06 5.9945564e-06 8.616717e-05 0.0006986215 1.970548e-05 3.5025173e-06
0.00071985327 0.0007292041 0.0012533688 0.0008335353 0.000112470916 0.00011327306 0.00097077875 0.0005042101
9.255131e-06 6.63958e-06 6.59418e-06 4.3919467e-06 1.23534e-05 8.835673e-06 5.4950456e-06 3.207679e-06
0.0011386571 0.0013457756 0.0009940871 0.00083262555 0.00013562999 0.0002603952 0.0011055284 0.0002546445
0.00075804 0.00047822122 0.0019348719 0.0014199631 0.00016428345 0.00022865729 0.0010707282 0.0010293465
0.0007140427 0.00047929556 0.00035924785 0.00010427305 3.419378e-05 0.00010827112 0.00033004797 8.0497084e-05
1.4575054e-05 8.54623e-06 6.6894463e-06 3.0439357e-06 3.4708023e-06 1.1253947e-05 5.937743e-06 3.4285476e-06
0.000113023016 6.824986e-05 1.69151e-05 1.2518163e-05 0.00012902898 0.00026750955 2.8917271e-05 1.528816e-05
0.00089034246 0.0006457751 0.0007655691 0.00035675886 0.00014647495 0.00027210228 0.00063004834 0.00043446568
0.00040084549 0.00028134856 0.00011753565 4.3119595e-05 0.003890177 0.0037751333 0.00015755756 0.00016652656
0.0006234276 0.0007405191 0.0013055793 0.00092526653 0.0008234821 0.0003909354 0.0010041202 0.0006772631
8.665358e-05 3.2506396e-05 3.347438e-05 1.2287299e-05 0.00017194505 0.00021533585 2.5289259e-05 1.3137544e-05
2.5771392e-06 2.6928258e-06 1.101435e-06 7.094788e-07 6.3251414e-06 4.7989656e-06 1.474187e-06 7.8033725e-07
00000000: 7174 9337 2b7d a737 b8dc ad37 86f3 8237
00000010: a0e1 b638 6fcf 9e38 d6a9 7637 d73a ab37
00000020: 29bc 1435 be16 0a36 ea60 7b35 40c2 e035
00000030: dfbb e436 053a 5437 6537 7c35 3900 a835
00000040: 9751 ae37 9ec7 f237 ca04 6937 2f3f 9037
00000050: 5ec0 b338 ba6f aa38 b369 9437 f83e 8137
00000060: f99c 8638 0ac9 f738 ae99 0a39 1c59 2639
00000070: 2ba8 6f38 a588 b538 3b45 f838 9452 a938
00000080: afd5 b537 f0c1 1b38 a911 e437 dc7c fb37
00000090: 5710 4c38 c63a 0738 6252 fe37 4092 7c37
000000a0: 95a9 fc34 0d6d 4335 80ea c235 4146 b435
000000b0: 8c80 4435 310a 3e35 736f 6135 f69f a635
000000c0: 4363 0e36 f821 0236 cc2d 8136 f304 2b36
000000d0: 0b90 8b37 8e5f cd38 11f6 4136 a4ab 0636
000000e0: 6808 b638 030f 1b39 5055 9b38 a2ee f038
000000f0: f13e 4839 4a7e 203a cb8e c938 ff10 2838
00000100: 3c83 e736 b9c0 2537 73f3 3837 36f2 2f37
00000110: 377b 153a 6015 e837 70cb 1e37 d563 0537
00000120: cb03 0939 115a 6b38 48ac 3838 aef5 8a37
00000130: 6729 483a 3186 f53a ae1a 2938 66bb b637
00000140: 4030 2c37 3c17 bf36 0050 2937 421d bd36
00000150: 65a0 a536 59f5 2337 ac00 1537 7379 9736
00000160: 30e2 0235 39b6 0d35 81a5 0835 f96b 0e35
00000170: 412b a035 5ecd 0a36 11ac a434 00c8 f334
00000180: 6731 6c38 7de3 9938 6687 4e38 54b2 4338
00000190: 4456 093a 158b 8238 3d5a 9038 4e72 d937
000001a0: 42aa 8738 0c9e 1739 7593 a338 c101 ee38
000001b0: 12c2 0039 18bc a439 d420 ca38 f860 0438
000001c0: dac9 8737 6488 9537 2ae1 6137 a195 3c37
000001d0: 73b8 c337 db26 2437 a637 8337 9d0c fb36
000001e0: 8e2b ac35 a1d6 2435 b717 0e35 75ee 6234
000001f0: a59f 8934 6506 3c35 678f 0235 78fb 7334
00000200: 885c b336 0ac1 2336 cf6d a735 a7ac 9535
00000210: 0b97 ef35 aac8 e936 148e d535 ca18 ce35
00000220: 87d6 f238 0e98 4538 1182 ad38 bf79 c937
00000230: 6303 0939 1c49 4e39 0d72 7838 94c8 8e37
00000240: 5671 be36 1af1 b336 f79e 1037 4049 ca36
00000250: f830 5936 6192 c836 23b1 df36 b279 d136
00000260: 642e 8138 7684 4338 1e5e 2537 d924 c936
00000270: a6b4 b438 b223 373a 324d a537 ca0c 6b36
00000280: 89b4 3c3a 0f28 3f3a 1448 a43a 9b81 5a3a
00000290: 5dde eb38 038d ed38 dc7b 7e3a f82c 043a
000002a0: 7c46 1b37 8fc9 de36 9343 dd36 895e 9336
000002b0: 7341 4f37 ed3c 1437 1562 b836 8143 5736
000002c0: fe3e 953a bc64 b03a 074c 823a 8e44 5a3a
000002d0: e637 0e39 a785 8839 61e7 903a ce81 8539
000002e0: 34b7 463a c4b9 fa39 879b fd3a 0e1e ba3a
000002f0: 8143 2c39 b9c3 6f39 ad57 8c3a 23eb 863a
00000300: 982e 3b3a f649 fb39 6e59 bc39 2bad da38
00000310: 4b6b 0f38 9d0f e338 4a0a ad39 8bd0 a838
00000320: 6187 7437 c761 0f37 e875 e036 6b46 4c36
00000330: eeeb 6836 56cf 3c37 d33c c736 0016 6636
00000340: c506 ed38 5d21 8f38 e7e4 8d37 1a05 5237
00000350: f44b 0739 8640 8c39 5e93 f237 133f 8037
00000360: df65 693a 3c49 293a 79b0 483a 5d0b bb39
00000370: 1297 1939 f3a8 8e39 d429 253a ffc8 e339
00000380: 9228 d239 f781 9339 797d f638 50db 3438
00000390: 57f2 7e3b 3a68 773b 0936 2539 a29d 2e39
000003a0: 856d 233a 651f 423a f91f ab3a 968d 723a
000003b0: f3de 573a 76f6 cc39 af9c 833a 5b8a 313a
000003c0: c9b9 b538 7a57 0838 d866 0c38 8c25 4e37
000003d0: 264c 3439 c7cb 6139 4524 d437 5269 5c37
000003e0: eaf2 2c36 65b6 3436 05d5 9335 0373 3e35
000003f0: 8d3c d436 cd06 a136 aedc c535 5e78 5135

exp_avg f4 [40, 10]
-0.00030537203 -0.0009410374 -7.491137e-05 0.0008548004 -0.00039392215 0.00010660081 0.00095294486 -0.00019764673
-0.00013347823 -0.0007522498 7.678384e-05 -4.1597697e-05 0.00018300753 9.062064e-05 1.3178367e-05 -0.00020918128
0.00011166482 -7.906563e-05 0.00014751375 -7.6725555e-05 -4.7672005e-05 -0.00056096487 9.853532e-05 0.00050651794
-0.0002466184 -0.00021975537 0.00073068205 0.00016054884 5.457837e-05 -0.00039323026 -0.00053297327 0.0008351275
-0.0013541578 -0.0005041996 0.00018341516 0.0016687642 -0.0015012168 0.00034526575 -0.0008005362 0.00036615433
5.013659e-05 -2.8368631e-05 -1.9300634e-05 -2.083044e-05 -0.00013846513 -0.0001825537 0.000107231564 -5.01013e-05
-0.00022422803 0.00014925949 -4.035511e-05 -6.7281035e-05 -1.9398227e-05 7.847811e-05 -4.329678e-05 -4.2878487e-06
6.712969e-05 3.4544013e-05 -6.0243045e-05 -6.548079e-05 -0.00015489628 5.065488e-05 -0.00032700814 -0.00013066258
-4.8251477e-05 0.00045736245 -0.0002044347 3.0253228e-05 -0.00017222893 0.00019713359 0.00024562626 0.0013331305
-4.6835892e-05 -0.00079357903 0.0006718371 -8.6127286e-05 -0.0018233818 -0.00046882476 0.00037580266 0.0005613751
0.00022757621 8.8265486e-05 0.0005052136 -7.677037e-05 7.9947116e-05 -0.00040997152 0.00014339451 -9.236188e-05
0.0005069219 0.00012738007 -0.00017161852 -0.00112722 -3.4173834e-05 0.0012413388 -0.00028562697 0.00011298623
0.0011818496 -0.00052505394 -0.0001074618 -0.0009843679 6.158011e-05 0.00026590895 -5.7100384e-05 -0.00023021392
6.682708e-05 -3.8057202e-05 -0.00019513542 8.912624e-05 -0.00028080257 0.00016099971 -4.543203e-05 -0.00012790269
-1.9661655e-05 8.186135e-05 -7.800643e-05 1.6836027e-05 0.00011714095 -6.219767e-06 -3.3451794e-05 -6.245116e-05
-0.00072521647 -0.00027147232 -0.0008681848 0.00018473755 -0.000606982 0.0005688815 7.4050025e-05 -0.00026316504
-0.0013240614 -0.000212984 6.115166e-05 0.0010904326 -0.0007162272 -0.0013055084 0.00040859048 0.00066034077
-0.001553557 0.00048738805 -0.0003741111 0.0013136903 0.0002188698 -0.0004642119 0.0003851871 0.00025336747
-6.8940746e-05 -0.0004327639 0.0005742259 0.00014618586 0.00050488045 -8.63266e-05 5.4974853e-06 -9.252722e-05
8.1580016e-05 0.00012724566 -2.1208034e-05 -0.00011694696 0.0001278687 -5.964469e-05 1.6446478e-05 -0.00014430242
0.00011649466 0.0006298856 -4.2482425e-05 -0.0005972215 0.00025432615 0.0001231102 -0.0007748384 0.00011379486
0.00015886144 0.0005170395 1.7310824e-05 4.095299e-05 0.00024760747 0.0003107688 0.00040210193 -0.00046932325
-0.0002260501 0.0004948999 -0.00020987881 -0.0008454678 -1.0998898e-05 -5.6718098e-05 -0.00015519606 -5.6479585e-05
-1.6570862e-05 0.00024226625 5.2258874e-05 2.3666624e-05 -6.4660206e-05 0.00016332649 6.0743507e-05 0.0013586411
-0.00056175847 -0.0019949179 0.00020749494 0.00067147915 -0.001622074 0.0009410654 -0.00024753428 0.0021148324
-0.00036034329 -0.0031038953 0.00064822193 0.0019221051 -0.0021645904 -0.001743548 0.0040211855 0.00068141334
-0.0012363027 -0.0016413514 7.0953785e-05 0.00016170193 -3.8027116e-05 -0.00019563173 0.00012089718 0.00018015329
-0.00021938082 1.7037019e-05 0.0001331239 0.00022376825 -0.0014293025 -0.0015343549 -0.0013605965 0.0011031212
-0.0018528346 0.00016142416 0.001028337 -3.597443e-05 -0.0023717391 -0.0013141041 -9.7656564e-05 0.004739045
-0.0015542125 -0.0033789799 0.0031082237 0.0034656068 -0.0068168407 -0.0009140067 0.0014661613 0.0028635776
0.0011559774 0.0031609165 0.0004242466 -0.002253551 0.002036499 0.0009313959 -0.0034516458 -0.00066761964
0.002183401 0.0023934827 0.00013999108 0.00066560414 -1.7175025e-05 -0.0006696882 0.00029797107 0.00023381531
00000000: 571a a0b9 f3af 76ba bc19 9db8 af14 603a
00000010: 5687 ceb9 e08e df38 0ccf 793a 643f 4fb9
00000020: 4af6 0bb9 a132 45ba 0307 a138 3079 2eb8
00000030: b6e5 3f39 960b be38 a818 5d37 ac57 5bb9
00000040: 982d ea38 09d0 a5b8 ecad 1a39 b8e7 a0b8
00000050: 6df3 47b8 b70d 13ba bfa4 ce38 d8c7 043a
00000060: 904c 81b9 226e 66b9 3e8b 3f3a 0059 2839
00000070: 14eb 6438 792a ceb9 3bb7 0bba 75ec 5a3a
00000080: ff7d b1ba 432c 04ba 2253 4039 6fba da3a
00000090: 7ac4 c4ba c904 b539 13db 51ba 67f8 bf39
000000a0: c149 5238 2cf9 edb7 cce7 a1b7 07bd aeb7
000000b0: f330 11b9 e36b 3fb9 82e1 e038 dc23 52b8
000000c0: c11e 6bb9 8a82 1c39 f842 29b8 3b19 8db8
000000d0: 60b9 a2b7 9d94 a438 9099 35b8 57e0 8fb6
000000e0: fac7 8c38 5ae3 1038 7aad 7cb8 bb52 89b8
000000f0: a76b 22b9 4376 5438 4a72 abb9 7802 09b9
00000100: a161 4ab8 26ca ef39 865d 56b9 50c8 fd37
00000110: 5a98 34b9 a5b5 4e39 66c7 8039 70bc ae3a
00000120: a871 44b8 3008 50ba 391e 303a 3c9f b4b8
00000130: 8afe eeba 98cc f5b9 6107 c539 3f29 133a
00000140: 86a1 6e39 2c1b b938 5070 043a c7ff a0b8
00000150: 48a9 a738 72f1 d6b9 2c5c 1639 68b2 c1b8
00000160: f4e2 043a 5491 0539 7ff4 33b9 3abf 93ba
00000170: e055 0fb8 6bb4 a23a 34c0 95b9 05f3 ec38
00000180: 4be8 9a3a c6a3 09ba 1d5d e1b8 e805 81ba
00000190: 9224 8138 b269 8b39 127f 6fb8 9465 71b9
000001a0: 8425 8c38 9c9f 1fb8 449d 4cb9 49e9 ba38
000001b0: af38 93b9 08d2 2839 458e 3eb8 9e1d 06b9
000001c0: 15ef a4b7 faac ab38 6297 a3b8 183b 8d37
000001d0: 92a9 f538 64b3 d0b6 974e 0cb8 36f8 82b8
000001e0: 741c 3eba 6654 8eb9 e596 63ba 1cb6 4139
000001f0: df1d 1fba fe20 153a 4e4b 9b38 6af9 89b9
00000200: 218c adba 7554 5fb9 8c3e 8038 d9ec 8e3a
00000210: 32c1 3bba 981d abba 1638 d639 b81a 2d3a
00000220: b9a0 cbba 1e88 ff39 5824 c4b9 2230 ac3a
00000230: 6a80 6539 7761 f3b9 f0f2 c939 68d6 8439
00000240: 4894 90b8 96e4 e2b9 a687 163a 7849 1939
00000250: f459 043a 3e0a b5b8 0a77 b836 2c0b c2b8
00000260: f015 ab38 3f6d 0539 e8e7 b1b7 6c41 f5b8
00000270: 7e14 0639 002b 7ab8 8bf6 8937 e34f 17b9
00000280: 984e f438 e81e 253a 282f 32b8 db8e 1cba
00000290: 1457 8539 2517 0139 861e 4bba 26a5 ee38
000002a0: 0b94 2639 ef89 073a b636 9137 f0c4 2b38
000002b0: 50d1 8139 afee a239 35d1 d239 800f f6b9
000002c0: dd07 6db9 2cbc 013a ea12 5cb9 62a2 5dba
000002d0: e887 38b7 98e4 6db8 20bc 22b9 7ee4 6cb8
000002e0: a801 8bb7 da08 7e39 8a30 5b38 b087 c637
000002f0: 2f9a 87b8 9f42 2b39 d8c6 7e38 6e14 b23a
00000300: f942 13ba 2bbd 02bb 0093 5939 3406 303a
00000310: c69b d4ba d4b1 763a 7dc7 81b9 0099 0a3b
00000320: 75ec bcb9 b96a 4bbb 70ed 293a 25ef fb3a
00000330: cddb 0dbb c387 e4ba 26c4 833b e0a0 323a
00000340: 6f0b a2ba 9d22 d7ba 06cd 9438 888e 2939
00000350: 4e7f 1fb8 7e22 4db9 2e8a fd38 88e7 3c39
00000360: 9709 66b9 b8ea 8e37 2d97 0b39 55a3 6a39
00000370: 6f57 bbba 681c c9ba 0b56 b2ba 9b96 903a
00000380: d0da f2ba f843 2939 44c9 863a 40e3 16b8
00000390: 2e6f 1bbb 043e acba f8cc ccb8 fe49 9b3b
000003a0: b8b6 cbba e071 5dbb 57b3 4b3b 3c1f 633b
000003b0: ce5f dfbb f499 6fba 362c c03a dcaa 3b3b
000003c0: 2a84 973a 6127 4f3b 6a6d de39 50b0 13bb
000003d0: c976 053b ec28 743a 0235 62bb 3203 2fba
000003e0: 6417 0f3b fadb 1c3b 92ca 1239 f07b 2e3a
000003f0: 1613 90b7 048e 2fba 0039 9c39 522c 7539

exp_avg_sq f4 [40, 10]
1.5165617e-07 5.4925613e-07 1.770664e-07 3.2800327e-07 1.6067177e-07 2.064086e-07 7.341996e-07 1.8365647e-07
2.7061702e-07 2.5865023e-07 1.7359273e-08 2.0523268e-08 4.319542e-08 1.0505345e-08 1.6048425e-08 5.0507353e-08
3.0923143e-08 1.2951735e-08 2.7729806e-08 8.628798e-09 1.2740185e-07 1.9444605e-07 3.4772233e-07 2.0129335e-07
1.7310988e-07 3.7222918e-07 3.0906682e-07 3.5533685e-07 5.1085675e-07 1.5021696e-07 5.092285e-07 9.4468305e-07
1.6822411e-06 6.1829707e-07 5.572236e-07 1.847859e-06 1.3644462e-06 4.471132e-07 6.8991375e-07 7.45525e-07
1.03114665e-07 1.4768533e-07 2.569504e-07 1.3033153e-07 1.4067776e-07 2.2039544e-07 1.6537678e-07 1.3652131e-07
2.8794378e-07 7.8220815e-08 3.889134e-09 1.3048136e-08 5.7583294e-09 8.742772e-09 6.1636074e-09 4.208454e-09
1.7152992e-08 7.567464e-09 8.086454e-09 1.1088382e-08 3.0193277e-08 1.7267407e-08 5.9572244e-08 2.557519e-08
1.7372624e-08 7.564671e-08 1.8251122e-08 1.4509836e-08 4.290122e-08 2.3740224e-08 6.740291e-07 1.2600746e-06
1.0531476e-06 1.0552608e-06 5.347165e-07 7.592975e-07 1.3539889e-06 8.8848174e-07 1.4529134e-06 7.7431844e-07
8.305036e-08 7.787896e-08 2.83497e-07 1.301013e-07 8.517139e-08 2.6340177e-07 1.3319162e-07 1.7013892e-07
2.6098195e-07 7.65253e-08 7.3610586e-08 1.3594072e-06 1.5379472e-07 1.3789895e-06 1.1880288e-07 1.5401015e-07
1.3068528e-06 4.4800078e-07 1.9499855e-07 8.8964214e-07 2.3583036e-07 1.893636e-07 1.512814e-07 5.539299e-08
1.2167342e-07 2.4313627e-07 2.7749795e-07 4.4397787e-08 2.9014757e-07 9.8785506e-08 5.1994413e-09 4.4292396e-08
7.56334e-09 2.084771e-08 1.2945946e-08 8.878259e-09 3.5014313e-08 8.283224e-09 5.109231e-09 1.2224065e-08
7.745621e-07 1.3620719e-07 1.359979e-06 4.7133106e-08 5.9030845e-07 1.1678252e-06 9.100513e-08 3.120277e-07
2.3839818e-06 8.1823345e-08 6.226733e-08 7.469304e-07 3.747241e-07 1.9202942e-06 1.975598e-07 2.1446861e-07
9.1240986e-07 9.464228e-07 4.3856136e-07 7.0328775e-07 2.2167417e-07 2.3269908e-07 2.9534343e-07 5.029673e-08
1.957073e-07 3.9460187e-07 3.6298115e-07 8.1232244e-08 5.901848e-07 7.0340256e-08 6.7061254e-09 1.00473345e-08
1.5220412e-08 6.9385035e-09 6.9168222e-09 1.956162e-08 1.8090326e-08 5.9544476e-09 1.1019382e-08 8.3432585e-09
2.0441815e-08 1.4992618e-07 2.0303055e-08 1.07182345e-07 2.6722459e-08 3.143517e-08 2.1648471e-07 3.3497876e-08
2.087822e-08 7.942492e-08 3.1996558e-07 4.0766244e-07 7.13525e-07 8.531537e-07 2.579806e-07 4.268302e-07
6.615691e-07 1.3762814e-06 8.8369177e-07 4.470045e-07 4.9767557e-08 5.0654343e-08 1.8507664e-07 1.5697827e-08
4.1800313e-08 1.3174598e-07 6.1895285e-08 8.8109836e-08 2.4553393e-07 2.6364695e-08 5.8398108e-08 2.0582177e-06
2.3412413e-07 2.5931827e-06 1.4860636e-07 2.7900128e-07 1.7490111e-06 7.447284e-07 5.694157e-08 2.2824888e-06
1.4772891e-06 1.27652e-05 2.1958656e-06 1.9615788e-06 6.938683e-06 3.7435589e-06 2.2244949e-05 2.960801e-06
3.0699869e-06 3.1999036e-06 5.0260308e-08 1.4516043e-07 1.2251614e-07 8.734575e-08 1.0830667e-07 1.4342504e-07
2.5327114e-07 1.0913389e-07 1.3103056e-07 7.755255e-08 3.042642e-06 1.6620099e-06 7.1655754e-06 1.3245291e-06
4.083696e-06 5.3154213e-06 2.5359936e-06 8.472893e-06 2.0650912e-05 1.0857693e-06 5.037108e-06 1.838135e-05
5.9024205e-06 2.879971e-06 1.4386633e-05 7.824032e-06 3.301463e-05 7.783869e-06 1.12696425e-05 6.398659e-06
1.2535086e-06 8.310595e-06 2.3797222e-06 2.2863076e-06 2.842233e-06 1.903753e-06 8.4839385e-06 3.0588528e-06
5.7498064e-06 3.2805435e-06 5.1287312e-08 2.5039483e-07 8.279578e-08 1.3029704e-07 1.11957476e-07 8.8015625e-08
00000000: eed6 2234 9870 1335 a41f 3e34 6d18 b034
00000010: 1f85 2c34 2aa1 5d34 d015 4535 1b33 4534
00000020: 5249 9134 9edc 8a34 721d 9532 254b b032
00000030: de85 3933 ff7a 3432 dcda 8932 6ced 5833
00000040: 5bd0 0433 5582 5e32 7d32 ee32 db3d 1432
00000050: f4cb 0834 ecc8 5034 98ae ba34 1823 5834
00000060: 15e0 3934 cad6 c734 d2ed a534 20c5 be34
00000070: cf21 0935 534b 2134 ebb1 0835 2096 7d35
00000080: 5dc9 e135 0df9 2535 1d94 1535 f403 f835
00000090: 0422 b735 c50a f034 8332 3935 1720 4835
000000a0: e36f dd33 6f93 1e34 fef2 8934 42f1 0b34
000000b0: 350d 1734 d6a5 6c34 6c92 3134 b196 1234
000000c0: b196 9a34 59fa a733 2fa1 8531 4f2a 6032
000000d0: cdda c531 1e33 1632 aac7 d331 f499 9031
000000e0: d457 9332 0f02 0232 9aec 0a32 387f 3e32
000000f0: dcad 0133 6e53 9432 60dc 7f33 70b0 db32
00000100: ce3a 9532 3873 a233 a4c6 9c32 ef46 7932
00000110: 6442 3833 4eed cb32 edee 3435 d51f a935
00000120: e059 8d35 7ca2 8d35 7089 0f35 87d2 4b35
00000130: b4ba b535 0080 6e35 b901 c335 c2da 4f35
00000140: 6b59 b233 693e a733 8833 9834 f9b1 0b34
00000150: 78e7 b633 aa69 8d34 6f03 0f34 6eaf 3634
00000160: 161d 8c34 3b56 a433 d913 9e33 e074 b635
00000170: c522 2534 b815 b935 9320 ff33 fd5d 2534
00000180: 1f67 af35 c284 f034 cb60 5134 becf 6e35
00000190: 8e38 7d34 df53 4b34 ea6f 2234 3de9 6d33
000001a0: 56a5 0234 6588 8234 07fb 9434 e2af 3e33
000001b0: 94c5 9b34 e823 d433 c5a6 b231 013c 3e33
000001c0: ecef 0132 9914 b332 df68 5e32 ff86 1832
000001d0: a562 1633 014e 0e32 458d af31 0202 5232
000001e0: 81eb 4f35 5940 1234 8688 b635 666f 4a33
000001f0: b075 1e35 2bbe 9c35 996e c333 c384 a734
00000200: 7ffc 1f36 dcb6 af33 d4b7 8533 ab80 4835
00000210: b02d c934 67de 0036 d320 5434 af48 6634
00000220: 54ec 7435 ae0d 7e35 6a73 eb34 91c9 3c35
00000230: 5505 6e34 d6db 7934 b18f 9e34 d705 5833
00000240: 9d23 5234 abd9 d334 c0df c234 e671 ae33
00000250: 316d 1e35 f70d 9733 b46b e631 a59c 2c32
00000260: 0abe 8232 b967 ee31 03a9 ed31 7508 a832
00000270: 0c65 9b32 e097 cc31 c14f 3d32 0a56 0f32
00000280: 0798 af32 65fb 2034 e466 ae32 1e2c e633
00000290: 4f8b e532 5603 0733 dd72 6834 4edf 0f33
000002a0: b157 b332 5090 aa33 bcc7 ab34 b3dc da34
000002b0: 1189 3f35 4704 6535 9580 8a34 1927 e534
000002c0: af96 3135 abb8 b835 d636 6d35 d5fb ef34
000002d0: 02c0 5533 0a8f 5933 7bb9 4634 e3d7 8632
000002e0: ee87 3333 0f76 0d34 4beb 8433 e536 bd33
000002f0: edd1 8334 9478 e232 66d1 7a33 e91f 0a36
00000300: 8d63 7b34 8a06 2e36 9b90 1f34 a5c9 9534
00000310: 90bf ea35 59e9 4735 eb8f 7433 dc2c 1936
00000320: 4447 c635 1e2a 5637 af5c 1336 aba3 0336
00000330: d5d2 e836 da39 7b36 aa9a ba37 2db2 4636
00000340: f905 4e36 edbd 5636 cbdd 5733 65dd 1b34
00000350: fb8c 0334 d592 bb33 3996 e833 6000 1a34
00000360: 52f9 8734 fe5c ea33 68b1 0c34 f78a a633
00000370: 3130 4c36 3a12 df35 d36f f036 79c6 b135
00000380: ae06 8936 1f5b b236 0a30 2a36 cc26 0e37
00000390: 7f3b ad37 c0ba 9135 6e04 a936 a631 9a37
000003a0: 680d c636 8645 4136 1e5e 7137 f643 0337
000003b0: 3079 0a38 7697 0237 bf12 3d37 10b4 d636
000003c0: 3a3e a835 bc6d 0b37 51b3 1f36 776e 1936
000003d0: 31bd 3e36 7484 ff35 3d56 0e37 b146 4d36
000003e0: 76ee c036 4f27 5c36 ff46 5c33 016e 8634
000003f0: 76cd b133 c7e7 0b34 466d f033 1a03 bd33

exp_avg f4 [40]
0.0014096616 0.0008043602 0.0007234512 -0.006507113 9.432877e-05 -0.00010376018 -0.0012545905 -0.0015687565
0.0018666271 0.0017181264 -0.00075168593 0.00019780305 -0.0021168906 -0.0048794644 0.0022077993 0.00046918262
-0.0015162108 -0.0015407491 -0.00026584126 -0.0046881814 0.008100745 -0.0003239135 -0.0025330414 -0.016063735
-0.0022757212 -0.0011390193 -0.006328895 -0.010899492 -0.011839455 0.021535033 0.0016122581 0.0011461579
-0.00048886903 -0.0049099326 -0.0002465774 -0.0005791441 -0.0028741325 -0.0012606969 0.0015007888 0.00070831017
00000000: 65c4 b83a b3db 523a fda5 3d3a 9f39 d5bb
00000010: 5fd2 c538 d399 d9b8 1271 a4ba bc9e cdba
00000020: 9da9 f43a c132 e13a ca0c 45ba 5a69 4f39
00000030: 88bb 0abb eae3 9fbb bab0 103b a0fc f539
00000040: 98bb c6ba f6f2 c9ba 9c60 8bb9 519f 99bb
00000050: fdb8 043c efd2 a9b9 6201 26bb 1898 83bc
00000060: 4424 15bb 254b 95ba 9f62 cfbb c893 32bc
00000070: 46fa 41bc 3d6a b03c 6852 d33a ad3a 963a
00000080: 7227 00ba 80e3 a0bb 0f47 81b9 b4d1 17ba
00000090: f15b 3cbb f83d a5ba 1eb6 c43a e4ad 393a

exp_avg_sq f4 [40]
6.1950623e-06 6.6621163e-07 3.8687263e-06 1.8071605e-05 1.8732509e-06 1.0169117e-07 5.32961e-07 1.3587307e-05
5.833559e-06 5.2225005e-06 2.0712207e-06 2.3552164e-07 8.902989e-06 6.909274e-06 4.5111633e-06 1.9730871e-07
7.507348e-07 1.01605365e-05 9.617299e-07 1.0403294e-05 0.00012559425 3.0295107e-06 0.00011359106 0.00021825261
2.7085573e-05 1.975716e-06 1.3170146e-05 0.00033053718 0.00016483091 0.00026899026 7.804617e-06 1.3604716e-06
4.5965994e-06 7.731923e-06 2.7626982e-06 3.234443e-07 1.6706681e-06 1.6391705e-05 5.262708e-06 3.6710846e-06
00000000: 2edf cf36 b7d5 3235 1bd0 8136 7a98 9737
00000010: 696c fb35 5061 da33 cd10 0f35 0af5 6337
00000020: e4bd c336 f03c af36 4dff 0a36 b2e3 7c34
00000030: 0c5e 1537 36d6 e736 995e 9736 cedb 5334
00000040: 1a86 4935 2c77 2a37 ca14 8135 cf89 2e37
00000050: f3b1 0339 994e 4b36 bc37 ee38 bdda 6439
00000060: d335 e337 8b96 0436 59f5 5c37 f34b ad39
00000070: 76d6 2c39 4307 8d39 93f0 0237 7399 b635
00000080: 7d3c 9a36 5bb8 0137 cb66 3936 d9a5 ad34
00000090: b83b e035 eb80 8937 5196 b036 c15c 7636

exp_avg f4 [40]
0.0014096615 0.00080436014 0.00072345114 -0.006507112 9.432875e-05 -0.0001037602 -0.0012545906 -0.0015687569
0.0018666275 0.0017181264 -0.00075168593 0.00019780305 -0.0021168906 -0.004879464 0.002207799 0.00046918265
-0.0015162108 -0.0015407498 -0.00026584123 -0.004688182 0.008100745 -0.00032391347 -0.0025330405 -0.016063739
-0.0022757216 -0.0011390194 -0.006328895 -0.01089949 -0.011839456 0.021535033 0.0016122583 0.0011461577
-0.000488869 -0.0049099326 -0.00024657766 -0.0005791441 -0.0028741325 -0.0012606971 0.001500789 0.0007083101
00000000: 64c4 b83a b2db 523a fca5 3d3a 9d39 d5bb
00000010: 5dd2 c538 d599 d9b8 1371 a4ba bf9e cdba
00000020: a0a9 f43a c132 e13a ca0c 45ba 5a69 4f39
00000030: 88bb 0abb e9e3 9fbb b9b0 103b a1fc f539
00000040: 98bb c6ba fcf2 c9ba 9b60 8bb9 529f 99bb
00000050: fdb8 043c eed2 a9b9 5e01 26bb 1a98 83bc
00000060: 4624 15bb 264b 95ba 9f62 cfbb c693 32bc
00000070: 47fa 41bc 3d6a b03c 6952 d33a ac3a 963a
00000080: 7127 00ba 80e3 a0bb 1847 81b9 b4d1 17ba
00000090: f15b 3cbb fa3d a5ba 1fb6 c43a e3ad 393a

exp_avg_sq f4 [40]
6.1950614e-06 6.662117e-07 3.8687267e-06 1.8071602e-05 1.8732509e-06 1.01691185e-07 5.3296105e-07 1.3587305e-05
5.8335595e-06 5.2225e-06 2.0712205e-06 2.3552164e-07 8.902989e-06 6.9092725e-06 4.511163e-06 1.9730871e-07
7.507347e-07 1.0160536e-05 9.617299e-07 1.0403294e-05 0.00012559425 3.0295105e-06 0.00011359105 0.00021825262
2.708557e-05 1.9757158e-06 1.3170146e-05 0.0003305372 0.0001648309 0.0002689903 7.804617e-06 1.3604716e-06
4.5965994e-06 7.731922e-06 2.7626984e-06 3.234443e-07 1.6706679e-06 1.6391705e-05 5.262707e-06 3.6710849e-06
00000000: 2cdf cf36 b8d5 3235 1cd0 8136 7898 9737
00000010: 696c fb35 5261 da33 ce10 0f35 08f5 6337
00000020: e5bd c336 ef3c af36 4cff 0a36 b2e3 7c34
00000030: 0c5e 1537 33d6 e736 985e 9736 cedb 5334
00000040: 1986 4935 2b77 2a37 ca14 8135 cf89 2e37
00000050: f3b1 0339 984e 4b36 bb37 ee38 beda 6439
00000060: d235 e337 8a96 0436 59f5 5c37 f44b ad39
00000070: 75d6 2c39 4407 8d39 93f0 0237 7399 b635
00000080: 7d3c 9a36 5ab8 0137 cc66 3936 d9a5 ad34
00000090: b63b e035 eb80 8937 4f96 b036 c25c 7636

exp_avg f4 [1, 10]
-0.045801114 0.09080844 0.042258453 -0.062313583 0.011465097 -0.003679709 -0.107552096 -0.026212882
0.03152523 0.028582247
00000000: f399 3bbd c7f9 b93d 3317 2d3d 873c 7fbd
00000010: 1ad8 3b3c 4627 71bb 4644 dcbd 66bc d6bc
00000020: 9920 013d 5125 ea3c

exp_avg_sq f4 [1, 10]
0.0050272974 0.005358777 0.0024499774 0.0023221455 0.0016387047 0.0017519386 0.005624339 0.005114438
0.0027876613 0.002427084
00000000: 07bc a43b ae98 af3b cd8f 203b 232f 183b
00000010: cec9 d63a 4ea1 e53a 604c b83b 0497 a73b
00000020: 32b1 363b b60f 1f3b
