lightning_logs/version_22/checkpoints/epoch=9-step=1960.ckpt (torch, 12515 bytes, 15 tensors)

lstm.weight_ih_l0 f4 [20, 7]
-0.36313412 0.049006306 0.13566183 0.21955392 -0.012498387 0.050694518 0.23344743 -0.018558966
0.46415585 0.1411339 0.2563915 -0.34315026 0.17237143 0.036420967 0.15391368 -0.401274
-0.13223693 -0.39442468 -0.039785657 0.08450781 0.22048591 0.17651331 0.30861795 0.08191911
0.21182391 0.4875564 -0.35600188 0.22134057 0.12935753 -0.005498924 0.13647132 -0.6170366
-0.07855007 0.3783033 0.244836 0.058230937 -0.08977088 0.20883429 0.32064712 0.11975372
-0.09564906 0.30667996 0.13032568 0.3667307 0.12167561 0.14850134 0.42877585 -0.060907096
-0.24966325 -0.44659576 0.3050809 0.009678811 -0.21974887 -0.29755408 0.33696425 0.08952719
0.25798422 -0.06355682 0.014602423 0.26043242 0.28344887 -0.30774415 -0.04784909 0.0052727163
0.16392076 0.34774768 -0.015427172 0.13510764 -0.23745273 -0.121589094 -0.38864896 0.30177468
0.21879776 0.67391634 0.13976143 -0.019481024 0.15528859 0.5628905 -0.17504479 0.3581271
-0.35795233 0.22141384 -0.35008997 -0.014183953 -0.039183736 0.17627719 -0.4802432 0.14800644
-0.32248387 0.4448039 -0.5355585 -0.4609788 0.4482841 0.22375134 0.19735193 -0.014535972
-0.07830985 -0.36280793 0.22277114 -0.15196714 -0.33703363 -0.19319211 -0.0013177259 -0.00016099986
-0.18996134 -0.122132495 -0.15071663 -0.123173684 0.34099892 0.023050683 0.09277337 0.15257475
-0.2624896 0.5697034 0.011161339 -0.2105884 -0.04682766 0.3123498 -0.22204432 -0.23689605
0.006437923 -0.2815768 -0.4999976 -0.125457 0.4177156 -0.11169967 -0.15932962 0.48834443
-0.22782825 -0.081702575 0.13768567 -0.2612232 0.09485955 0.27750537 0.06303261 -0.24751845
-0.44006607 0.42630395 -0.07590308 0.3080873
00000000: b7ec b9be d6ba 483d efea 0a3e bed2 603e
00000010: 09c6 4cbc 0ea5 4f3d d80c 6f3e f908 98bc
00000020: d6a5 ed3e 6885 103e bf45 833e 64b1 afbe
00000030: 2382 303e 272e 153d 8c9b 1d3e c973 cdbe
00000040: 1e69 07be 08f2 c9be 49f6 22bd 6e12 ad3d
00000050: 0fc7 613e e8bf 343e 2c03 9e3e 35c5 a73d
00000060: 5ee8 583e fea0 f93e e145 b6be 1aa7 623e
00000070: 4d76 043e 5130 b4bb 23bf 0b3e 1cf6 1dbf
00000080: dcde a0bd f8b0 c13e 4ab6 7a3e 9083 6e3d
00000090: ccd9 b7bd a8d8 553e dc2b a43e 7041 f53d
000000a0: a8e3 c3bd 2805 9d3e 1874 053e 20c4 bb3e
000000b0: 1031 f93d bc10 183e 8288 db3e b879 79bd
000000c0: b9a7 7fbe 33a8 e4be 9033 9c3e e093 1e3c
000000d0: d905 61be 0259 98be 9486 ac3e 085a b73d
000000e0: 8216 843e 142a 82bd 003f 6f3c 6657 853e
000000f0: 3620 913e a490 9dbe 68fd 43bd c0c6 ac3b
00000100: d8da 273e fc0b b23e 40c2 7cbc a859 0a3e
00000110: cf26 73be b403 f9bd fffc c6be 3682 9a3e
00000120: 850c 603e c885 2c3f 9f1d 0f3e ab96 9fbc
00000130: f903 1f3e 9819 103f f13e 33be 6f5c b73e
00000140: 8745 b7be 4fba 623e fe3e b3be d063 68bc
00000150: 207f 20bd 0282 343e 70e2 f5be 008f 173e
00000160: 9b1c a5be 56bd e33e 5d1a 09bf 6a05 ecbe
00000170: 7e85 e53e 121f 653e a016 4a3e 4928 6ebc
00000180: ea60 a0bd f6c1 b9be 1e1e 643e 469d 1bbe
00000190: ac8f acbe 27d4 45be 8bb7 acba 12d2 28b9
000001a0: 3a85 42be 9a20 fabd 7655 1abe 7c42 fcbd
000001b0: 6997 ae3e c9d4 bc3c f7ff bd3d 8e3c 1c3e
000001c0: 0965 86be 15d8 113f 0cde 363c 7ca4 57be
000001d0: 5cce 3fbd 50ec 9f3e 965f 63be e194 72be
000001e0: 36f5 d23b d62a 90be afff ffbe cd77 00be
000001f0: d2de d53e ccc2 e4bd 4e27 23be 4808 fa3e
00000200: cf4b 69be ae53 a7bd 79fd 0c3e 0cbf 85be
00000210: b945 c23d 2f15 8e3e 3e17 813d 7a75 7dbe
00000220: 5750 e1be 8344 da3e 1373 9bbd 9ebd 9d3e

lstm.weight_hh_l0 f4 [20, 5]
0.34547585 0.43716627 0.22504747 -0.17984462 0.1540674 0.10515803 0.16582066 -0.33511305
0.15617782 0.14727503 -0.3863793 -0.24626589 0.2527815 -0.43652293 -0.15601197 -0.12962651
0.013778329 0.24002343 -0.42608145 0.10608959 -0.12597826 0.20631766 0.03164968 -0.4460149
0.21454495 0.113567114 -0.4004431 0.21748793 -0.3573107 -0.08706519 0.41434348 0.08297104
0.2807371 -0.06907877 -0.06397298 -0.32280558 0.17682928 0.34355772 0.18343478 0.08687812
-0.40968928 -0.2692911 -0.1829646 -0.1065028 0.3688944 -0.18767077 -0.26453924 -0.15097824
0.14711803 0.22068608 0.23636407 -0.3111279 0.24360192 0.044648826 -0.3868394 -0.4274747
-0.044287473 -0.24495068 0.1497351 -0.4310011 -0.31805995 0.12907416 -0.44522473 0.3464433
-0.27418107 -0.035829663 -0.20476137 -0.3742853 -0.41643918 -0.36485112 -0.42863983 -0.3174976
0.07601112 -0.36493605 0.06386769 -0.40846616 0.39301956 0.28544718 -0.27435008 0.057168484
0.3996662 -0.03396243 -0.4354715 0.033758223 0.4092009 -0.19855265 0.01799792 0.2671255
-0.24492557 0.28976 -0.15039939 -0.282979 -0.071927935 -0.1748431 0.0483703 -0.020782828
0.36250252 -0.36580193 -0.3706264 0.40058327
00000000: 36e2 b03e 42d4 df3e d872 663e 3029 38be
00000010: d8c3 1d3e 185d d73d e4cc 293e f093 abbe
00000020: 14ed 1f3e 44cf 163e 82d3 c5be 202d 7cbe
00000030: 946c 813e ef7f dfbe 9ac1 1fbe d0bc 04be
00000040: 80be 613c b4c8 753e 5927 dabe 8045 d93d
00000050: 7200 01be f044 533e 18a3 013d 115c e4be
00000060: acb1 5b3e e095 e83d e106 cdbe 28b5 5e3e
00000070: 6ef1 b6be 3c4f b2bd d424 d43e b8ec a93d
00000080: c6bc 8f3e 2c79 8dbd 4404 83bd c646 a5be
00000090: bc12 353e cce6 af3e 54d6 3b3e 28ed b13d
000000a0: cbc2 d1be 86e0 89be 125b 3bbe 241e dabd
000000b0: badf bc3e c42c 40be b071 87be 0a9a 1abe
000000c0: 1ca6 163e 88fb 613e 6c09 723e 284c 9fbe
000000d0: c872 793e b0e1 363d d00f c6be f7dd dabe
000000e0: c866 35bd 5ad4 7abe 2854 193e 2dac dcbe
000000f0: c1d8 a2be 042c 043e 7ff4 e3be 0461 b13e
00000100: 7661 8cbe 20c2 12bd f7ac 51be 53a2 bfbe
00000110: 8437 d5be c4cd babe ae76 dbbe 0c8f a2be
00000120: b8ab 9b3d e6d8 babe 10cd 823d 7a22 d1be
00000130: dc39 c93e 2226 923e 9d77 8cbe 8029 6a3d
00000140: 0ca1 cc3e 301c 0bbd 1ff6 debe 1046 0a3d
00000150: c882 d13e 6351 4bbe 6070 933c acc4 883e
00000160: c5cd 7abe 6c5b 943e 4c02 1abe a0e2 90be
00000170: f44e 93bd 120a 33be f01f 463d c040 aabc
00000180: ee99 b93e 644a bbbe bec2 bdbe 4019 cd3e

lstm.bias_ih_l0 f4 [20]
0.2582073 0.42571288 -0.60717505 0.5371543 -0.052986585 0.22860134 -0.1093196 0.44191158
0.28458154 0.36095768 0.3915803 0.33994216 -0.09285207 -0.4948042 0.35016608 0.71980834
0.512022 -0.05557624 0.2571553 0.016998522
00000000: bf33 843e 0af7 d93e d36f 1bbf f282 093f
00000010: 7608 59bd 7816 6a3e f4e2 dfbd 3c42 e23e
00000020: acb4 913e 72cf b83e 377d c83e e60c ae3e
00000030: 3a29 bebd fa56 fdbe f848 b33e 5c45 383f
00000040: e013 033f e9a3 63bd dca9 833e 7c40 8b3c

lstm.bias_hh_l0 f4 [20]
0.22527136 0.1839103 -0.39197958 -0.2017912 -0.021015648 -0.32000008 0.40359116 0.08213991
-0.06571069 -0.38296056 -0.12825118 -0.079877876 -0.1717061 -0.05859395 0.63900876 0.16731323
-0.08604714 -0.41070557 0.10259283 -0.14785379
00000000: 89ad 663e fb52 3c3e 8cb1 c8be 5aa2 4ebe
00000010: 0229 acbc 0dd7 a3be 80a3 ce3e f838 a83d
00000020: 5493 86bd 6813 c4be 4754 03be 0397 a3bd
00000030: b9d3 2fbe 3600 70bd 1496 233f 2954 2b3e
00000040: 7c39 b0bd 0048 d2be 311c d23d fc66 17be

fc.weight f4 [1, 5]
0.730933 -0.29303277 -0.3400382 0.47993225 -0.5826086
00000000: 6d1e 3b3f 6408 96be 7d19 aebe aeb9 f53e
00000010: d625 15bf

exp_avg f4 [20, 7]
-0.0059767445 -0.0073588477 -0.00022636678 -0.0030916242 -0.021883564 -0.0021051245 -0.0020177488 0.0007193568
5.6897738e-05 0.0010312086 -0.00017334684 0.0010683505 0.000492913 4.0692396e-07 -0.0032771183 -0.0029971674
-0.0017899004 -0.00097096665 -0.012595378 -0.004529267 -0.0012903064 0.00032269716 -0.00054929557 0.0012372276
-0.0005997747 0.0007107438 -9.484102e-05 3.5805333e-05 -7.758963e-05 -0.0015517069 -0.0007662373 -0.0011785402
0.0001406158 -4.9297123e-05 0.0021489984 0.0 0.0 0.0 0.0 0.0
0.0 0.0 0.0 0.0 0.0 0.0 0.0 0.0
0.0 0.0 0.0 0.0 0.0 0.0 0.0 0.0
0.0 0.0 0.0 0.0 0.0 0.0 0.0 0.0
0.0 0.0 0.0 0.0 0.0 0.0 -0.029162783 -0.02614945
-0.009736158 -0.004196111 -0.010201307 -0.0026460676 -0.012867776 0.0031629866 0.0009008209 -0.001392872
-0.0028624826 -0.0027613495 -0.0022131023 -0.0003049325 0.00032850698 -0.0018889578 -0.0028729085 -0.0039650314
-0.0039474573 -0.0026888414 -4.8641617e-05 0.0019244669 0.002476647 0.012403639 0.005975583 0.033554524
-0.0048345844 -0.0009349471 -0.00055474543 -0.005606674 -0.0019613367 -0.0061423983 -0.04786982 -0.0365396
-0.010329287 -0.0029172834 -0.0038368155 0.0015085664 -0.0014690119 -0.01822704 0.003985494 0.00034936005
-0.00028173582 -0.0010464548 -6.0543334e-05 -0.0007107311 0.0030884624 0.00087310135 -2.5066218e-05 -0.0014891509
-0.0011024935 -0.0014365161 -0.00032006364 -0.0010731242 -0.00012473248 0.0011829827 0.0006924075 -0.0010420732
0.0004468521 -0.0011722384 -0.0038597297 -0.0041583274 -0.0029856942 -0.0007089197 -0.0032907804 -0.0018734597
-0.0033440278 0.00084990065 0.00023961482 -0.00012251585
00000000: 91d8 c3bb 7d22 f1bb df5c 6db9 d99c 4abb
00000010: 2945 b3bc 21f6 09bb 353c 04bb 3893 3c3a
00000020: 7ba5 6e38 9e29 873a 70c4 35b9 e507 8c3a
00000030: d536 013a 3477 da34 ecc4 56bb 206c 44bb
00000040: 179b eaba 7888 7eba d85c 4ebc 3f6a 94bb
00000050: 801f a9ba ae2f a939 9afe 0fba 782a a23a
00000060: 333a 1dba 3651 3a3a 63e5 c6b8 af2d 1638
00000070: 9eb7 a2b8 a562 cbba 51dd 48ba 3f79 9aba
00000080: 4472 1339 62c4 4eb8 36d6 0c3b 0000 0000
00000090: 0000 0000 0000 0000 0000 0000 0000 0000
000000a0: 0000 0000 0000 0000 0000 0000 0000 0000
000000b0: 0000 0000 0000 0000 0000 0000 0000 0000
000000c0: 0000 0000 0000 0000 0000 0000 0000 0000
000000d0: 0000 0000 0000 0000 0000 0000 0000 0000
000000e0: 0000 0000 0000 0000 0000 0000 0000 0000
000000f0: 0000 0000 0000 0000 0000 0000 0000 0000
00000100: 0000 0000 0000 0000 0000 0000 0000 0000
00000110: 0000 0000 0000 0000 cae6 eebc 5f37 d6bc
00000120: 6884 1fbc 887f 89bb 6223 27bc a669 2dbb
00000130: 5dd3 52bc 1c4a 4f3b 1125 6c3a 0791 b6ba
00000140: 7d98 3bbb c2f7 34bb b209 11bb 59df 9fb9
00000150: 763b ac39 e896 f7ba 6847 3cbb 18ed 81bb
00000160: ac59 81bb 4637 30bb 8a04 4cb8 653e fc3a
00000170: 3e4f 223b a238 4b3c d3ce c33b 7870 093d
00000180: 6f6b 9ebb 3d17 75ba 566c 11ba 31b8 b7bb
00000190: c589 00bb 2c46 c9bb 2513 44bd 8caa 15bd
000001a0: 2b3c 29bc e52f 3fbb 1573 7bbb 17bb c53a
000001b0: dc8b c0ba e050 95bc bf98 823b 502a b739
000001c0: f1b5 93b9 3229 89ba e9ef 7db8 5b50 3aba
000001d0: cd67 4a3b d7e0 643a 4b45 d2b7 9d2f c3ba
000001e0: 8b81 90ba 7b49 bcba 37ce a7b9 13a8 8cba
000001f0: 9fca 02b9 500e 9b3a ae82 353a 2d96 88ba
00000200: 7947 ea39 cba5 99ba 85f3 7cbb 9442 88bb
00000210: a3ab 43bb ccd6 39ba 22aa 57bb e08e f5ba
00000220: 7a27 5bbb decb 5e3a 1d41 7b39 9977 00b9

exp_avg_sq f4 [20, 7]
0.00080549245 0.00084852264 0.0026958373 0.0026455394 0.07140957 0.020376028 0.0014048212 0.00016662711
3.8244594e-05 0.00012293515 3.2369568e-05 0.00048918405 0.0006756093 0.00017535905 0.0001328645 0.00022683441
0.00029471936 0.00017093908 0.011080911 0.003930412 0.00017875098 0.00018443105 6.326393e-05 0.000173429
0.00014424392 0.0006742998 0.0010889359 0.00012990907 0.00066259 0.0010746724 0.0024892848 0.0020520943
0.0033268395 0.0011872662 0.0016914707 0.0 0.0 0.0 0.0 0.0
0.0 0.0 0.0 0.0 0.0 0.0 0.0 0.0
0.0 0.0 0.0 0.0 0.0 0.0 0.0 0.0
0.0 0.0 0.0 0.0 0.0 0.0 0.0 0.0
0.0 0.0 0.0 0.0 0.0 0.0 0.016647194 0.0075487047
0.009583892 0.0011027253 0.010012174 0.024857624 0.006643413 0.0002583966 0.0010276593 0.00026663925
0.00053778343 0.0006126912 0.0005090833 0.0006246909 0.0006657613 0.0008739375 0.0003602622 0.0003273441
0.0075138696 0.0070598857 0.0004345467 0.00628667 0.016319662 0.0060509867 0.0095571615 0.06495299
0.009584519 0.0070490525 0.014383507 0.0025920318 0.008859547 0.0014950909 0.11938584 0.07288028
0.0046282546 0.003089653 0.00664216 0.0065666647 0.0075417925 0.0074940473 0.0040222458 0.0062828204
0.00045753433 0.00016018446 0.00037169075 9.752516e-05 0.00054992974 0.00010922359 0.000242869 3.4076264e-05
1.8203842e-05 3.8375114e-05 1.3827257e-05 0.0011954512 9.5890005e-05 6.283061e-05 0.0012493018 0.0004634215
0.0007236279 0.0013832488 0.02035266 0.010418106 0.00047193893 0.0015866178 0.0010736478 0.0019308794
0.0011177362 0.00354323 0.006099274 0.001551274
00000000: af27 533a 646f 5e3a a5ac 303b c960 2d3b
00000010: 2e3f 923d a1eb a63c fa21 b83a a0b8 2e39
00000020: d268 2038 27e8 0039 8fc4 0738 963c 003a
00000030: 5f1b 313a 96e0 3739 8b51 0b39 66da 6d39
00000040: 9084 9a39 1c3e 3339 b68c 353c afca 803b
00000050: 1a6f 3b39 d563 4139 90ac 8438 7eda 3539
00000060: 2f40 1739 7ec3 303a a0ba 8e3a 3338 0839
00000070: aab1 2d3a 06dc 8c3a 4523 233b 6e7c 063b
00000080: 1b07 5a3b 0b9e 9b3a 57b4 dd3a 0000 0000
00000090: 0000 0000 0000 0000 0000 0000 0000 0000
000000a0: 0000 0000 0000 0000 0000 0000 0000 0000
000000b0: 0000 0000 0000 0000 0000 0000 0000 0000
000000c0: 0000 0000 0000 0000 0000 0000 0000 0000
000000d0: 0000 0000 0000 0000 0000 0000 0000 0000
000000e0: 0000 0000 0000 0000 0000 0000 0000 0000
000000f0: 0000 0000 0000 0000 0000 0000 0000 0000
00000100: 0000 0000 0000 0000 0000 0000 0000 0000
00000110: 0000 0000 0000 0000 b25f 883c 205b f73b
00000120: c205 1d3c 5289 903a 1a0a 243c 37a2 cb3c
00000130: fdb0 d93b 6879 8739 86b2 863a b7cb 8b39
00000140: 09fa 0c3a 039d 203a 0074 053a 4cc2 233a
00000150: 7c86 2e3a f418 653a 93e1 bc39 629f ab39
00000160: e836 f63b 9d56 e73b dfd3 e339 6900 ce3b
00000170: d0b0 853c 5b47 c63b a495 1c3c 1306 853d
00000180: 6308 1d3c bdfb e63b cda8 6b3c 14df 293b
00000190: a227 113c edf6 c33a 9080 f43d 4242 953d
000001a0: 9da8 973b c77b 4a3b 7aa6 d93b 2d2d d73b
000001b0: 2421 f73b a090 f53b 0bcd 833b 1ee0 cd3b
000001c0: 38e1 ef39 30f7 2739 7ddf c239 6c86 cc38
000001d0: 2929 103a f80e e538 a7aa 7e39 1ced 0e38
000001e0: 74b4 9837 f7f4 2038 9efb 6737 b0b0 9c3a
000001f0: 8e18 c938 edc3 8338 9dbf a33a 61f7 f239
00000200: d9b1 3d3a 214e b53a 9fba a63c b4b0 2a3c
00000210: 926e f739 0ff6 cf3a a4b9 8c3a 9015 fd3a
00000220: 0181 923a 8935 683b 6bdc c73b 1e54 cb3a

exp_avg f4 [20, 5]
0.0 0.0 0.0 0.0 0.0 0.0 0.0 0.0
0.0 0.0 0.0 0.0 0.0 0.0 0.0 0.0
0.0 0.0 0.0 0.0 0.0 0.0 0.0 0.0
0.0 0.0 0.0 0.0 0.0 0.0 0.0 0.0
0.0 0.0 0.0 0.0 0.0 0.0 0.0 0.0
0.0 0.0 0.0 0.0 0.0 0.0 0.0 0.0
0.0 0.0 0.0 0.0 0.0 0.0 0.0 0.0
0.0 0.0 0.0 0.0 0.0 0.0 0.0 0.0
0.0 0.0 0.0 0.0 0.0 0.0 0.0 0.0
0.0 0.0 0.0 0.0 0.0 0.0 0.0 0.0
0.0 0.0 0.0 0.0 0.0 0.0 0.0 0.0
0.0 0.0 0.0 0.0 0.0 0.0 0.0 0.0
0.0 0.0 0.0 0.0
00000000: 0000 0000 0000 0000 0000 0000 0000 0000
00000010: 0000 0000 0000 0000 0000 0000 0000 0000
00000020: 0000 0000 0000 0000 0000 0000 0000 0000
00000030: 0000 0000 0000 0000 0000 0000 0000 0000
00000040: 0000 0000 0000 0000 0000 0000 0000 0000
00000050: 0000 0000 0000 0000 0000 0000 0000 0000
00000060: 0000 0000 0000 0000 0000 0000 0000 0000
00000070: 0000 0000 0000 0000 0000 0000 0000 0000
00000080: 0000 0000 0000 0000 0000 0000 0000 0000
00000090: 0000 0000 0000 0000 0000 0000 0000 0000
000000a0: 0000 0000 0000 0000 0000 0000 0000 0000
000000b0: 0000 0000 0000 0000 0000 0000 0000 0000
000000c0: 0000 0000 0000 0000 0000 0000 0000 0000
000000d0: 0000 0000 0000 0000 0000 0000 0000 0000
000000e0: 0000 0000 0000 0000 0000 0000 0000 0000
000000f0: 0000 0000 0000 0000 0000 0000 0000 0000
00000100: 0000 0000 0000 0000 0000 0000 0000 0000
00000110: 0000 0000 0000 0000 0000 0000 0000 0000
00000120: 0000 0000 0000 0000 0000 0000 0000 0000
00000130: 0000 0000 0000 0000 0000 0000 0000 0000
00000140: 0000 0000 0000 0000 0000 0000 0000 0000
00000150: 0000 0000 0000 0000 0000 0000 0000 0000
00000160: 0000 0000 0000 0000 0000 0000 0000 0000
00000170: 0000 0000 0000 0000 0000 0000 0000 0000
00000180: 0000 0000 0000 0000 0000 0000 0000 0000

exp_avg_sq f4 [20, 5]
0.0 0.0 0.0 0.0 0.0 0.0 0.0 0.0
0.0 0.0 0.0 0.0 0.0 0.0 0.0 0.0
0.0 0.0 0.0 0.0 0.0 0.0 0.0 0.0
0.0 0.0 0.0 0.0 0.0 0.0 0.0 0.0
0.0 0.0 0.0 0.0 0.0 0.0 0.0 0.0
0.0 0.0 0.0 0.0 0.0 0.0 0.0 0.0
0.0 0.0 0.0 0.0 0.0 0.0 0.0 0.0
0.0 0.0 0.0 0.0 0.0 0.0 0.0 0.0
0.0 0.0 0.0 0.0 0.0 0.0 0.0 0.0
0.0 0.0 0.0 0.0 0.0 0.0 0.0 0.0
0.0 0.0 0.0 0.0 0.0 0.0 0.0 0.0
0.0 0.0 0.0 0.0 0.0 0.0 0.0 0.0
0.0 0.0 0.0 0.0
00000000: 0000 0000 0000 0000 0000 0000 0000 0000
00000010: 0000 0000 0000 0000 0000 0000 0000 0000
00000020: 0000 0000 0000 0000 0000 0000 0000 0000
00000030: 0000 0000 0000 0000 0000 0000 0000 0000
00000040: 0000 0000 0000 0000 0000 0000 0000 0000
00000050: 0000 0000 0000 0000 0000 0000 0000 0000
00000060: 0000 0000 0000 0000 0000 0000 0000 0000
00000070: 0000 0000 0000 0000 0000 0000 0000 0000
00000080: 0000 0000 0000 0000 0000 0000 0000 0000
00000090: 0000 0000 0000 0000 0000 0000 0000 0000
000000a0: 0000 0000 0000 0000 0000 0000 0000 0000
000000b0: 0000 0000 0000 0000 0000 0000 0000 0000
000000c0: 0000 0000 0000 0000 0000 0000 0000 0000
000000d0: 0000 0000 0000 0000 0000 0000 0000 0000
000000e0: 0000 0000 0000 0000 0000 0000 0000 0000
000000f0: 0000 0000 0000 0000 0000 0000 0000 0000
00000100: 0000 0000 0000 0000 0000 0000 0000 0000
00000110: 0000 0000 0000 0000 0000 0000 0000 0000
00000120: 0000 0000 0000 0000 0000 0000 0000 0000
00000130: 0000 0000 0000 0000 0000 0000 0000 0000
00000140: 0000 0000 0000 0000 0000 0000 0000 0000
00000150: 0000 0000 0000 0000 0000 0000 0000 0000
00000160: 0000 0000 0000 0000 0000 0000 0000 0000
00000170: 0000 0000 0000 0000 0000 0000 0000 0000
00000180: 0000 0000 0000 0000 0000 0000 0000 0000

exp_avg f4 [20]
0.0035323245 0.00027930376 0.0008926732 -0.0005078706 0.00016649236 0.0 0.0 0.0
0.0 0.0 0.021526081 -0.0074131344 -0.0014981892 0.009164735 -0.0044244817 0.004050457
-0.00013205736 0.00038309183 -0.0002923955 0.0006029735
00000000: 927e 673b 846f 9239 4902 6a3a 9e22 05ba
00000010: 7494 2e39 0000 0000 0000 0000 0000 0000
00000020: 0000 0000 0000 0000 7757 b03c e1e9 f2bb
00000030: e35e c4ba af27 163c 3efb 90bb b2b9 843b
00000040: e178 0ab9 b7d9 c839 a94c 99b9 de10 1e3a

exp_avg_sq f4 [20]
0.00045385072 1.404246e-05 4.4849505e-05 0.000107528445 0.0003568785 0.0 0.0 0.0
0.0 0.0 0.009346047 0.00074379635 0.0003110053 0.0030628697 0.0010887575 0.00061414007
2.2945294e-05 8.114804e-06 0.00013253863 0.00040730665
00000000: d0f2 ed39 e897 6b37 ca1c 3c38 e580 e138
00000010: 6c1b bb39 0000 0000 0000 0000 0000 0000
00000020: 0000 0000 0000 0000 2a20 193c 54fb 423a
00000030: 6d0e a339 6dba 483b a4b4 8e3a 3efe 203a
00000040: a57a c037 d124 0837 11fa 0a39 c68b d539

exp_avg f4 [20]
0.0035323245 0.00027930376 0.0008926732 -0.0005078706 0.00016649236 0.0 0.0 0.0
0.0 0.0 0.021526081 -0.0074131344 -0.0014981892 0.009164735 -0.0044244817 0.004050457
-0.00013205736 0.00038309183 -0.0002923955 0.0006029735
00000000: 927e 673b 846f 9239 4902 6a3a 9e22 05ba
00000010: 7494 2e39 0000 0000 0000 0000 0000 0000
00000020: 0000 0000 0000 0000 7757 b03c e1e9 f2bb
00000030: e35e c4ba af27 163c 3efb 90bb b2b9 843b
00000040: e178 0ab9 b7d9 c839 a94c 99b9 de10 1e3a

exp_avg_sq f4 [20]
0.00045385072 1.404246e-05 4.4849505e-05 0.000107528445 0.0003568785 0.0 0.0 0.0
0.0 0.0 0.009346047 0.00074379635 0.0003110053 0.0030628697 0.0010887575 0.00061414007
2.2945294e-05 8.114804e-06 0.00013253863 0.00040730665
00000000: d0f2 ed39 e897 6b37 ca1c 3c38 e580 e138
00000010: 6c1b bb39 0000 0000 0000 0000 0000 0000
00000020: 0000 0000 0000 0000 2a20 193c 54fb 423a
00000030: 6d0e a339 6dba 483b a4b4 8e3a 3efe 203a
00000040: a57a c037 d124 0837 11fa 0a39 c68b d539

exp_avg f4 [1, 5]
0.022491656 0.001985055 -0.004853912 -0.0027101196 -0.0026523408
00000000: 6c40 b83c b217 023b 910d 9fbb 439c 31bb
00000010: e5d2 2dbb

exp_avg_sq f4 [1, 5]
0.044951726 0.010508157 0.012039484 0.011695121 0.02705918
00000000: 4d1f 383d 682a 2c3c 4241 453c e59c 3f3c
00000010: 37ab dd3c
