lightning_logs/version_23/checkpoints/epoch=0-step=196.ckpt (torch, 12451 bytes, 15 tensors)

lstm.weight_ih_l0 f4 [20, 7]
000000 61 7f 4a 3e 77 62 ac 3e 27 d3 b2 3d 8f f0 98 3e
       0.19775154 0.33668873 0.0873168 0.29871032
000010 c5 d3 de 3c 02 07 e1 be 1e ee 6c 3d b6 82 8e be
       0.027200589 -0.4395066 0.057844274 -0.278341
000020 6c 00 13 be da 26 0d be e9 b0 45 3e c8 ea 1d 3d
       -0.1435563 -0.13784352 0.19305767 0.038553983
000030 76 9e 22 3e e8 07 1f 3e 0e 1b b6 be f9 c9 a5 be
       0.1588076 0.1553036 -0.35567516 -0.32380655
000040 50 96 79 3c 52 41 43 bd a2 72 d4 be e8 77 a4 3e
       0.015233591 -0.047669716 -0.41493708 0.3212273
000050 62 e0 50 be 5d e1 ce be 50 1c 75 be af a8 55 be
       -0.20398095 -0.40406314 -0.23936582 -0.20865129
000060 2d 95 8d 3e 2d 4e 7e bd 92 5a ae 3c 4d d7 00 3e
       0.27652875 -0.062086273 0.021283422 0.1258213
000070 26 86 c8 3d a3 e5 79 be 90 bc 1c 3e e3 2f 83 be
       0.09791212 -0.24404006 0.15306306 -0.25622472
000080 36 f7 96 be be 54 0c bd 8b 13 fa be a0 35 3a 3d
       -0.29485482 -0.034260504 -0.48843035 0.045461297
000090 e0 b9 67 3e 08 08 14 3d f8 cf 95 3e 90 14 4a 3d
       0.226295 0.03614047 0.2926023 0.049336016
0000a0 94 5a 22 3e ec 5e d6 be 40 b7 54 bd 90 2a 84 3d
       0.15854865 -0.41869295 -0.051932573 0.06453431
0000b0 74 82 8f 3e 50 cd c6 be 08 8d 25 3d f4 e7 fa bd
       0.28029215 -0.38828516 0.0404177 -0.12251273
0000c0 9a ca 26 be 60 46 ba 3c 20 d6 bc 3d c6 bb 9a 3e
       -0.16288224 0.022738636 0.092205286 0.30221385
0000d0 88 db 33 3e f0 90 dd bd e6 fe d3 be 52 37 a1 3e
       0.17564213 -0.1081866 -0.4140541 0.3148752
0000e0 70 e1 50 bd 00 3a 1d 3d a6 f6 37 be 8e 0d 82 be
       -0.050996244 0.03838539 -0.17965183 -0.25400966
0000f0 18 d3 b5 3e 6c 1b d7 bd 83 72 be be a9 2d e2 be
       0.35512614 -0.10503277 -0.3719674 -0.4417546
000100 42 ce 87 3e 10 fe 0b be 8c 9b e5 bd ea 84 90 3e
       0.2652455 -0.13671136 -0.11211309 0.28226405
000110 40 a5 dc 3e 30 fa 7d 3e 6e 91 c8 be 82 23 7b be
       0.43094826 0.2480247 -0.39173454 -0.24525264
000120 0a 0a 51 be 87 bb 6f 3e c4 55 f1 3d a2 cf 4c 3e
       -0.20413986 0.2341138 0.117839366 0.2000108
000130 ee b0 80 3e 8a 6f 01 be 77 49 22 3e 9a b8 d0 3e
       0.25134987 -0.12640205 0.15848337 0.4076584
000140 ad 28 8c 3d 8a fc 70 3e 37 9c 69 be c7 d3 96 3d
       0.06843696 0.23533836 -0.22813497 0.07364612
000150 e6 28 8d bd e6 ae c7 3e 23 db 43 3e 0f c3 50 3e
       -0.068925664 0.39000624 0.19126563 0.20386909
000160 bc 14 52 be 58 6e 79 3e 4b de 8e be 2c d9 bc 3e
       -0.20515722 0.24358499 -0.2790397 0.3688444
000170 33 e6 b4 be 70 ab 2c 3e 26 b1 20 be e4 23 95 be
       -0.35331878 0.16862273 -0.15692577 -0.29128945
000180 7b d9 aa be c9 2d 89 3e 75 db e7 3e 41 a4 63 be
       -0.3336905 0.26792744 0.4528462 -0.22230627
000190 49 e2 4d bd 0c 1e 7d be 24 bc 3c be 3b 7c e0 3d
       -0.05026463 -0.24718493 -0.18431145 0.10961195
0001a0 0a 20 a7 be 7e bd b0 3e 1c 3e 0b 3e ce a6 55 be
       -0.3264163 0.3451957 0.13597912 -0.20864412
0001b0 00 83 4d be ee ce cb 3e 03 79 0c 3e aa c9 da 3e
       -0.20069504 0.39806312 0.13718037 0.42731982
0001c0 c3 44 b2 3e a0 ca 8d be 78 38 81 3e b5 fd df be
       0.34818086 -0.27693653 0.25238395 -0.4374825
0001d0 76 77 93 3e 7c 88 31 3e 14 dc 9d 3e 64 2b b0 3e
       0.2880208 0.17337221 0.3083197 0.34408104
0001e0 fa ef 8e be 76 95 a8 3d 27 41 ac be 25 a2 8a 3e
       -0.27917463 0.082316324 -0.33643457 0.2707683
0001f0 d8 7f db be 1a 15 a2 3c 6a 45 f4 3c ae 96 9c 3e
       -0.42870975 0.019785453 0.029818255 0.3058371
000200 49 8d b2 be 60 37 48 3e e7 24 1d 3e 55 3b 0a be
       -0.34873417 0.19552374 0.15346108 -0.13499196
000210 8a 6e b9 3e d5 36 9a 3e c6 8c eb bd 12 b2 88 be
       0.36217147 0.3011996 -0.1150146 -0.26698357
000220 c8 b3 e4 be a9 fc 17 bd 6d cd 6e 3d a1 8f 49 3c
       -0.44668412 -0.03710619 0.058301378 0.01230231

lstm.weight_hh_l0 f4 [20, 5]
000000 b0 60 96 bc 7c 16 92 3e a6 88 c2 3e 00 fa 82 3d
       -0.018356651 0.2853278 0.3799488 0.0639534
000010 a4 e9 34 3e 1c 51 10 3e 50 ff 25 bd f0 fc ca bd
       0.17667252 0.14093441 -0.040526688 -0.09911525
000020 21 59 a8 be 42 0d 99 3e 58 8c 46 3d 78 1b 66 bd
       -0.328805 0.29892927 0.048473686 -0.05617854
000030 4a 62 d7 3e 5c ed 68 3e 3e 8d b0 be 38 e6 38 3d
       0.42067176 0.22746795 -0.3448276 0.04514143
000040 2a 6f a8 3e c9 35 a1 be e8 93 91 3d e0 f0 79 be
       0.3289731 -0.31486347 0.07108289 -0.24408293
000050 24 46 d4 be 60 48 80 bc 68 34 a9 bd 50 e3 19 3d
       -0.41459763 -0.015659511 -0.08261949 0.037570298
000060 80 95 3d 3e 10 3d 86 3d 00 53 2c bd 98 1f cb bd
       0.18514061 0.065546155 -0.042071342 -0.099181354
000070 a4 28 a0 3e d0 bd b7 bc c0 6f a7 3b 82 3c 8a 3e
       0.31281006 -0.022429377 0.005109757 0.2699929
000080 80 02 c5 bb 50 3a 9c bd fb ef e3 be a0 ab b4 bc
       -0.006012261 -0.0762831 -0.44519028 -0.022054493
000090 50 a6 ba be 5c e1 b5 bd f8 50 33 3e a4 da cf be
       -0.3645501 -0.088808745 0.17511356 -0.40596497
0000a0 58 77 c1 3e 8c 7f db bd 1a 67 bd 3e 90 88 ad 3d
       0.37786365 -0.10717687 0.36992723 0.08473313
0000b0 98 2d bf 3d b2 a2 81 3e 70 a3 0f be 14 a1 8c bd
       0.09334868 0.2531944 -0.1402719 -0.06866661
0000c0 a8 77 82 3d 97 5f d8 be 48 6e 16 bd 40 cd 56 3e
       0.06370479 -0.4226043 -0.036726266 0.20976734
0000d0 68 cb bb 3e 3a b6 b6 3e 40 e1 4b be 1c db aa 3e
       0.36678624 0.35685903 -0.19910145 0.33370292
0000e0 dc 73 6b 3e 68 8a e4 3d 88 1e c8 bd f4 9c 60 3e
       0.22993416 0.111592114 -0.097714484 0.21934873
0000f0 98 7e d3 3d 96 87 54 be e8 a6 b3 3e 80 35 43 3b
       0.1032688 -0.20754847 0.35088277 0.0029786527
000100 9a f7 89 3e 24 de 59 3e 6b a9 5b be ea d0 b4 be
       0.26946718 0.21276146 -0.21451347 -0.3531564
000110 9e 87 d5 3e 90 0d 32 bd f9 e2 9f be 40 ff a4 3d
       0.4170503 -0.043469965 -0.31227854 0.080564976
000120 ee fb 9d 3e f3 f5 79 be c0 9b ad bd e2 d1 74 be
       0.3085627 -0.24410228 -0.084769726 -0.23908189
000130 4c 50 e1 bd 34 f3 0f 3e c8 c0 df 3d 26 cb e0 3e
       -0.110016435 0.14057618 0.10925442 0.4390499
000140 2c 93 c5 be 2f bc 76 be 00 20 dc 3b c6 3a dd be
       -0.38588846 -0.24095224 0.006717682 -0.43208903
000150 58 56 c9 3d a8 a4 1f bd 44 6f c8 3e 00 16 1a 3c
       0.09830922 -0.038975388 0.3914739 0.009404659
000160 f8 40 8c 3d 68 fb b9 3e 67 50 c0 be f8 27 de 3e
       0.06848329 0.3632462 -0.37561342 0.4338987
000170 5c d5 90 bd d2 4d ce be 44 12 70 3e 45 49 53 be
       -0.07071945 -0.40293747 0.23444468 -0.20633419
000180 18 16 8f 3d e4 03 81 be 42 9f bf be 05 52 e1 be
       0.06986636 -0.2519828 -0.37426192 -0.44007888

lstm.bias_ih_l0 f4 [20]
000000 4c 52 62 3e b9 e6 c0 be 39 74 44 be d4 72 c7 3e
       0.22101706 -0.37676027 -0.1918496 0.38954794
000010 53 7a 2c be e2 81 d9 3e 80 f2 de 3c e0 c3 7a 3d
       -0.16843538 0.42481905 0.027215242 0.061221957
000020 64 49 a6 bd 94 cb 96 3e 81 8e c2 be e5 73 8f be
       -0.08119467 0.29452193 -0.37999347 -0.28018108
000030 45 51 fb bd 94 2b 72 be 80 46 e4 3e 1d d2 66 3e
       -0.1227136 -0.23649436 0.44585037 0.2254109
000040 d9 51 51 3e 60 ad 70 3e 4a 7b c7 3e 4d 7e bf bd
       0.20441379 0.23503637 0.3896125 -0.09350262

lstm.bias_hh_l0 f4 [20]
000000 ce 08 83 be 67 20 af be 55 6e 5c 3e 86 d3 5d 3e
       -0.25592655 -0.3420441 0.21526463 0.21662721
000010 cb 7d 12 3f 28 bd ba be 6f fa 5a be 46 e9 ba 3e
       0.57223195 -0.3647244 -0.21384595 0.36506099
000020 40 66 fc bb 40 68 e5 bd bf bc a1 3e c9 89 99 3e
       -0.007702619 -0.11201525 0.31589314 0.29987934
000030 67 a7 1c 3d 49 13 10 be 65 c7 47 be d0 27 c1 3e
       0.038245585 -0.14069857 -0.19509657 0.37725687
000040 37 1a 31 bc 88 57 5d 3e fa 42 06 3e 0e 98 02 3f
       -0.010809473 0.21615422 0.13111487 0.5101327

fc.weight f4 [1, 5]
000000 db c2 d7 3c 19 c7 0c 3e 58 8c e2 3e ba 2d 51 3e
       0.026338032 0.13747825 0.442477 0.204276
000010 84 84 b6 be
       -0.35647976

exp_avg f4 [20, 7]
000000 0f 78 04 b9 68 ec 50 b9 84 0e 80 b8 5d b1 dd b8
       -0.00012633226 -0.00019924494 -6.1062194e-05 -0.00010571138
000010 e1 c3 71 37 11 b7 d1 37 8c 8e d8 38 1f c4 9b 38
       1.4410326e-05 2.4999988e-05 0.00010326234 7.427506e-05
000020 ce ea 92 b9 55 5d d2 3a ff 66 5e 3a 64 2d af 3b
       -0.00028022233 0.0016049544 0.00084839755 0.005345987
000030 26 0c 5d bb c2 c2 5d 3a ea 75 81 3a 6c 6b 43 3a
       -0.0033729165 0.0008459502 0.000987706 0.0007454667
000040 ef 99 6f 3b aa 0c 26 3b 25 da d9 ba 7a 4a 55 ba
       0.0036560257 0.0025337138 -0.0016620798 -0.0008136403
000050 e8 4c 64 3a 43 04 10 3a a8 67 19 3b 3a 42 0c 3b
       0.00087089697 0.0005493799 0.0023407731 0.0021401779
000060 7a d8 4d 3b bf e2 37 bb 94 5b 6c bb 1d 47 52 3b
       0.0031409548 -0.0028058735 -0.0036065327 0.0032085844
000070 41 24 14 ba 1d cf 00 39 5e 29 8e 3b 47 f5 4d 3b
       -0.0005651154 0.00012284187 0.0043384274 0.0031426714
000080 ca 35 6f bb a5 43 e5 bb 5e 72 53 3b 00 00 00 00
       -0.0036500567 -0.0069965892 0.0032264213 0.0
000090 00 00 00 00 00 00 00 00 00 00 00 00 00 00 00 00
       0.0 0.0 0.0 0.0
0000a0 00 00 00 00 00 00 00 00 00 00 00 00 00 00 00 00
       0.0 0.0 0.0 0.0
0000b0 00 00 00 00 00 00 00 00 00 00 00 00 00 00 00 00
       0.0 0.0 0.0 0.0
0000c0 00 00 00 00 00 00 00 00 00 00 00 00 00 00 00 00
       0.0 0.0 0.0 0.0
0000d0 00 00 00 00 00 00 00 00 00 00 00 00 00 00 00 00
       0.0 0.0 0.0 0.0
0000e0 00 00 00 00 00 00 00 00 00 00 00 00 00 00 00 00
       0.0 0.0 0.0 0.0
0000f0 00 00 00 00 00 00 00 00 00 00 00 00 00 00 00 00
       0.0 0.0 0.0 0.0
000100 00 00 00 00 00 00 00 00 00 00 00 00 00 00 00 00
       0.0 0.0 0.0 0.0
000110 00 00 00 00 00 00 00 00 78 9b ae b6 27 55 64 ba
       0.0 0.0 -5.203703e-06 -0.00087101985
000120 f1 e8 47 b9 b0 1a 6e ba 13 30 e0 38 8e 4d 9c 38
       -0.00019064896 -0.0009082956 0.00010690107 7.453105e-05
000130 c5 2a 47 ba ab ae 71 ba 1d a0 36 bb 54 77 ad ba
       -0.0007597621 -0.0009219448 -0.002786643 -0.0013234415
000140 76 76 2c bb 4b 8c 2d bb 07 e0 3e bb 65 a9 bc ba
       -0.0026315725 -0.0026481326 -0.002912523 -0.0014393745
000150 59 c1 d6 bb f1 e7 8e bc 9f f8 29 bc b8 5c 84 bc
       -0.0065538106 -0.017444583 -0.010374217 -0.016157493
000160 56 9e 8c bc e3 c4 1a bc 9d 57 9e bc 66 76 b4 38
       -0.017165344 -0.0094463555 -0.019328887 8.605122e-05
000170 d8 65 51 bb 03 43 4e 3a 06 25 1f bb 57 2c 6e b8
       -0.0031951573 0.0007868262 -0.0024283542 -5.6784917e-05
000180 68 b4 3a ba 24 aa 5a bb b1 05 82 3b 66 9b 0f 3c
       -0.00071222195 -0.0033365572 0.0039679636 0.008765077
000190 1b 02 59 3b 56 67 e1 3b 1d 7b 74 3b 57 22 86 3b
       0.0033112827 0.0068787737 0.0037304827 0.004093449
0001a0 40 7e 07 3c 40 56 f3 b8 4c 5f f8 b8 20 85 9c b8
       0.008269846 -0.00011603208 -0.00011843312 -7.463456e-05
0001b0 f6 1c 02 b8 77 61 2d 39 d8 db 25 39 0f ce 36 b8
       -3.1021387e-05 0.00016534874 0.00015817524 -4.358409e-05
0001c0 15 8c 8f b9 7b cb 0e ba 5a 81 98 39 c0 60 03 b7
       -0.00027379455 -0.0005447191 0.00029088074 -7.830735e-06
0001d0 09 90 d4 b9 b5 74 0a ba 38 2f ff b8 da 6e de 3a
       -0.00040543106 -0.0005281673 -0.00012168143 0.0016970292
0001e0 f7 36 13 3a bb 1c 03 3b a4 e1 44 39 6d c4 4c bc
       0.00056157954 0.0020006138 0.00018776074 -0.012498003
0001f0 64 74 f9 bb 29 f2 49 3a 04 42 e7 39 be 49 b9 3a
       -0.007612752 0.0007703626 0.0004410894 0.0014136357
000200 40 d8 bb 3a 40 f2 04 3b 4c cf 9d bb 99 3c 74 bb
       0.0014331415 0.0020285994 -0.0048159715 -0.0037267564
000210 52 9d 38 3b 3a 43 9e b9 a5 fb ae b9 75 2d ad 3a
       0.0028169942 -0.00030186196 -0.00033375356 0.00132124
000220 e9 42 4c 3a 9e af d4 3b 6f 45 62 3b 99 3f ef 3a
       0.0007791953 0.0064906618 0.003452625 0.0018253207

exp_avg_sq f4 [20, 7]
000000 2b 06 82 34 fb a3 a8 33 2c 85 30 34 d2 41 87 33
       2.4218875e-07 7.8529375e-08 1.6439725e-07 6.2984e-08
000010 06 01 16 35 56 90 9c 34 b5 27 10 34 59 b0 92 37
       5.5880844e-07 2.9162283e-07 1.342549e-07 1.7486675e-05
000020 86 56 8c 37 4c 8f ce 37 ff ee 94 37 ef b4 75 3a
       1.6729591e-05 2.4623841e-05 1.7754266e-05 0.00093729695
000030 36 ea 13 39 d4 ff 9f 37 84 9b 3b 38 32 10 e4 37
       0.00014106263 1.9073406e-05 4.472911e-05 2.718726e-05
000040 64 46 01 38 27 e5 b4 38 47 98 22 3a 3a 4d 76 3a
       3.0821553e-05 8.625752e-05 0.00062025007 0.0009395663
000050 c2 7d bf 37 a5 32 87 38 6b 53 57 3a b3 4f f4 38
       2.2827535e-05 6.446735e-05 0.00082140294 0.00011649672
000060 1d da f8 39 20 41 6e 3a 11 b8 36 3b ab 97 b5 39
       0.00047464753 0.0009088684 0.0027880708 0.00034636012
000070 8d 5a ab 37 cd fb 66 37 e4 3b 0b 38 51 32 fc 37
       2.0426955e-05 1.3767695e-05 3.319596e-05 3.0064171e-05
000080 80 59 18 38 87 00 dd 38 ad ae 1a 38 00 00 00 00
       3.6322977e-05 0.000105381994 3.687914e-05 0.0
000090 00 00 00 00 00 00 00 00 00 00 00 00 00 00 00 00
       0.0 0.0 0.0 0.0
0000a0 00 00 00 00 00 00 00 00 00 00 00 00 00 00 00 00
       0.0 0.0 0.0 0.0
0000b0 00 00 00 00 00 00 00 00 00 00 00 00 00 00 00 00
       0.0 0.0 0.0 0.0
0000c0 00 00 00 00 00 00 00 00 00 00 00 00 00 00 00 00
       0.0 0.0 0.0 0.0
0000d0 00 00 00 00 00 00 00 00 00 00 00 00 00 00 00 00
       0.0 0.0 0.0 0.0
0000e0 00 00 00 00 00 00 00 00 00 00 00 00 00 00 00 00
       0.0 0.0 0.0 0.0
0000f0 00 00 00 00 00 00 00 00 00 00 00 00 00 00 00 00
       0.0 0.0 0.0 0.0
000100 00 00 00 00 00 00 00 00 00 00 00 00 00 00 00 00
       0.0 0.0 0.0 0.0
000110 00 00 00 00 00 00 00 00 6e 2c b8 34 b7 26 69 36
       0.0 0.0 3.4304998e-07 3.474224e-06
000120 8d 37 ec 34 9c 31 01 36 9e 23 36 35 2d fd ff 34
       4.3998844e-07 1.9251374e-06 6.7852113e-07 4.768166e-07
000130 5d cb 02 36 42 1d cc 36 a9 b4 41 37 74 ef 13 37
       1.9489883e-06 6.08308e-06 1.154576e-05 8.817635e-06
000140 22 77 98 37 96 fb 24 39 a2 fd 2f 39 ef bf 2e 37
       1.8175288e-05 0.00015733982 0.00016783786 1.0415896e-05
000150 d9 83 f6 39 e4 86 de 39 8d b2 d8 39 82 2f 50 3a
       0.0004701901 0.0004244364 0.0004133176 0.00079416495
000160 99 65 7d 3b 70 0d 10 3b 54 4b 04 3a 49 79 23 39
       0.0038665293 0.0021980666 0.0005046625 0.00015590074
000170 78 8a 11 39 c6 c9 d9 38 bb 4c d8 38 5d ec 25 38
       0.00013879861 0.000103849496 0.00010313975 3.9559196e-05
000180 81 9f 97 39 5b 82 8f 38 9e 56 41 39 c7 82 18 39
       0.00028919804 6.843052e-05 0.00018438182 0.00014544568
000190 32 ad d5 38 a2 f2 60 39 67 9c e6 39 c1 e4 96 3a
       0.000101888916 0.00021452692 0.00043985547 0.0011512266
0001a0 b7 8a f7 38 90 fb 56 34 7a 29 1b 33 04 7a 93 33
       0.000118037155 2.0021821e-07 3.6126472e-08 6.8674154e-08
0001b0 b3 39 0e 33 59 c0 c2 33 b3 68 db 33 2b d0 83 32
       3.311443e-08 9.068817e-08 1.0217027e-07 1.5345071e-08
0001c0 eb dc a7 36 15 d6 20 37 b3 d1 30 37 25 79 26 37
       5.002706e-06 9.586588e-06 1.0539242e-05 9.922577e-06
0001d0 49 b6 e9 36 34 80 fc 36 48 56 17 37 f4 a7 d1 39
       6.965162e-06 7.52511e-06 9.02039e-06 0.0003998872
0001e0 8e 24 0f 3a 7b 3d a1 39 de 6f 7e 39 62 1f 94 3a
       0.0005460464 0.0003075412 0.00024265001 0.0011300857
0001f0 5c 62 c4 39 35 35 b8 39 03 fe 7d 38 63 16 b1 37
       0.00037457317 0.00035134857 6.0556467e-05 2.1110469e-05
000200 78 c4 47 38 99 dd f4 37 f9 14 25 3a 3e 8a 01 3a
       4.7628273e-05 2.9190256e-05 0.00062973757 0.0004941559
000210 b5 43 20 38 27 ab 26 38 5e f6 8d 38 13 ea df 37
       3.821003e-05 3.9736882e-05 6.7692934e-05 2.669267e-05
000220 03 5d ed 37 27 a8 d9 3b 39 b7 16 3b 78 37 d7 38
       2.8295914e-05 0.00664236 0.0022997393 0.00010262331

exp_avg f4 [20, 5]
000000 00 00 00 00 00 00 00 00 00 00 00 00 00 00 00 00
       0.0 0.0 0.0 0.0
000010 00 00 00 00 00 00 00 00 00 00 00 00 00 00 00 00
       0.0 0.0 0.0 0.0
000020 00 00 00 00 00 00 00 00 00 00 00 00 00 00 00 00
       0.0 0.0 0.0 0.0
000030 00 00 00 00 00 00 00 00 00 00 00 00 00 00 00 00
       0.0 0.0 0.0 0.0
000040 00 00 00 00 00 00 00 00 00 00 00 00 00 00 00 00
       0.0 0.0 0.0 0.0
000050 00 00 00 00 00 00 00 00 00 00 00 00 00 00 00 00
       0.0 0.0 0.0 0.0
000060 00 00 00 00 00 00 00 00 00 00 00 00 00 00 00 00
       0.0 0.0 0.0 0.0
000070 00 00 00 00 00 00 00 00 00 00 00 00 00 00 00 00
       0.0 0.0 0.0 0.0
000080 00 00 00 00 00 00 00 00 00 00 00 00 00 00 00 00
       0.0 0.0 0.0 0.0
000090 00 00 00 00 00 00 00 00 00 00 00 00 00 00 00 00
       0.0 0.0 0.0 0.0
0000a0 00 00 00 00 00 00 00 00 00 00 00 00 00 00 00 00
       0.0 0.0 0.0 0.0
0000b0 00 00 00 00 00 00 00 00 00 00 00 00 00 00 00 00
       0.0 0.0 0.0 0.0
0000c0 00 00 00 00 00 00 00 00 00 00 00 00 00 00 00 00
       0.0 0.0 0.0 0.0
0000d0 00 00 00 00 00 00 00 00 00 00 00 00 00 00 00 00
       0.0 0.0 0.0 0.0
0000e0 00 00 00 00 00 00 00 00 00 00 00 00 00 00 00 00
       0.0 0.0 0.0 0.0
0000f0 00 00 00 00 00 00 00 00 00 00 00 00 00 00 00 00
       0.0 0.0 0.0 0.0
000100 00 00 00 00 00 00 00 00 00 00 00 00 00 00 00 00
       0.0 0.0 0.0 0.0
000110 00 00 00 00 00 00 00 00 00 00 00 00 00 00 00 00
       0.0 0.0 0.0 0.0
000120 00 00 00 00 00 00 00 00 00 00 00 00 00 00 00 00
       0.0 0.0 0.0 0.0
000130 00 00 00 00 00 00 00 00 00 00 00 00 00 00 00 00
       0.0 0.0 0.0 0.0
000140 00 00 00 00 00 00 00 00 00 00 00 00 00 00 00 00
       0.0 0.0 0.0 0.0
000150 00 00 00 00 00 00 00 00 00 00 00 00 00 00 00 00
       0.0 0.0 0.0 0.0
000160 00 00 00 00 00 00 00 00 00 00 00 00 00 00 00 00
       0.0 0.0 0.0 0.0
000170 00 00 00 00 00 00 00 00 00 00 00 00 00 00 00 00
       0.0 0.0 0.0 0.0
000180 00 00 00 00 00 00 00 00 00 00 00 00 00 00 00 00
       0.0 0.0 0.0 0.0

exp_avg_sq f4 [20, 5]
000000 00 00 00 00 00 00 00 00 00 00 00 00 00 00 00 00
       0.0 0.0 0.0 0.0
000010 00 00 00 00 00 00 00 00 00 00 00 00 00 00 00 00
       0.0 0.0 0.0 0.0
000020 00 00 00 00 00 00 00 00 00 00 00 00 00 00 00 00
       0.0 0.0 0.0 0.0
000030 00 00 00 00 00 00 00 00 00 00 00 00 00 00 00 00
       0.0 0.0 0.0 0.0
000040 00 00 00 00 00 00 00 00 00 00 00 00 00 00 00 00
       0.0 0.0 0.0 0.0
000050 00 00 00 00 00 00 00 00 00 00 00 00 00 00 00 00
       0.0 0.0 0.0 0.0
000060 00 00 00 00 00 00 00 00 00 00 00 00 00 00 00 00
       0.0 0.0 0.0 0.0
000070 00 00 00 00 00 00 00 00 00 00 00 00 00 00 00 00
       0.0 0.0 0.0 0.0
000080 00 00 00 00 00 00 00 00 00 00 00 00 00 00 00 00
       0.0 0.0 0.0 0.0
000090 00 00 00 00 00 00 00 00 00 00 00 00 00 00 00 00
       0.0 0.0 0.0 0.0
0000a0 00 00 00 00 00 00 00 00 00 00 00 00 00 00 00 00
       0.0 0.0 0.0 0.0
0000b0 00 00 00 00 00 00 00 00 00 00 00 00 00 00 00 00
       0.0 0.0 0.0 0.0
0000c0 00 00 00 00 00 00 00 00 00 00 00 00 00 00 00 00
       0.0 0.0 0.0 0.0
0000d0 00 00 00 00 00 00 00 00 00 00 00 00 00 00 00 00
       0.0 0.0 0.0 0.0
0000e0 00 00 00 00 00 00 00 00 00 00 00 00 00 00 00 00
       0.0 0.0 0.0 0.0
0000f0 00 00 00 00 00 00 00 00 00 00 00 00 00 00 00 00
       0.0 0.0 0.0 0.0
000100 00 00 00 00 00 00 00 00 00 00 00 00 00 00 00 00
       0.0 0.0 0.0 0.0
000110 00 00 00 00 00 00 00 00 00 00 00 00 00 00 00 00
       0.0 0.0 0.0 0.0
000120 00 00 00 00 00 00 00 00 00 00 00 00 00 00 00 00
       0.0 0.0 0.0 0.0
000130 00 00 00 00 00 00 00 00 00 00 00 00 00 00 00 00
       0.0 0.0 0.0 0.0
000140 00 00 00 00 00 00 00 00 00 00 00 00 00 00 00 00
       0.0 0.0 0.0 0.0
000150 00 00 00 00 00 00 00 00 00 00 00 00 00 00 00 00
       0.0 0.0 0.0 0.0
000160 00 00 00 00 00 00 00 00 00 00 00 00 00 00 00 00
       0.0 0.0 0.0 0.0
000170 00 00 00 00 00 00 00 00 00 00 00 00 00 00 00 00
       0.0 0.0 0.0 0.0
000180 00 00 00 00 00 00 00 00 00 00 00 00 00 00 00 00
       0.0 0.0 0.0 0.0

exp_avg f4 [20]
000000 6b 1d 55 b8 56 83 45 ba 49 3f 65 bb 2f f9 84 ba
       -5.0810555e-05 -0.0007534524 -0.0034980348 -0.0010145063
000010 e4 a7 b5 bb 00 00 00 00 00 00 00 00 00 00 00 00
       -0.0055436958 0.0 0.0 0.0
000020 00 00 00 00 00 00 00 00 d5 ba 91 3a 5f 43 a2 3b
       0.0 0.0 0.0011118302 0.004951879
000030 58 bb 1b 3d c8 cd 43 3c 39 1f db bc 31 31 e6 b8
       0.03802046 0.011950918 -0.026748287 -0.00010976417
000040 82 d0 cb b9 4b e9 35 bb 31 74 e8 ba 0b e3 b9 bb
       -0.00038874528 -0.0027757462 -0.0017734823 -0.0056728176

exp_avg_sq f4 [20]
000000 f1 a5 bc 32 47 06 1c 36 c0 85 84 37 8e 1f 8f 37
       2.1961542e-08 2.3249465e-06 1.5797908e-05 1.7061622e-05
000010 f4 79 7e 37 00 00 00 00 00 00 00 00 00 00 00 00
       1.5167974e-05 0.0 0.0 0.0
000020 00 00 00 00 00 00 00 00 10 6f 8f 35 77 a1 bd 37
       0.0 0.0 1.0686654e-06 2.2605744e-05
000030 5a b2 90 3a 48 da 77 39 0d 17 06 3a 69 9b 80 32
       0.0011039481 0.00023637072 0.0005115129 1.4971834e-08
000040 41 61 2d 35 43 a7 15 37 1f 77 56 37 7a 08 9c 37
       6.4589045e-07 8.920036e-06 1.2783129e-05 1.8600596e-05

exp_avg f4 [20]
000000 6b 1d 55 b8 56 83 45 ba 49 3f 65 bb 2f f9 84 ba
       -5.0810555e-05 -0.0007534524 -0.0034980348 -0.0010145063
000010 e4 a7 b5 bb 00 00 00 00 00 00 00 00 00 00 00 00
       -0.0055436958 0.0 0.0 0.0
000020 00 00 00 00 00 00 00 00 d5 ba 91 3a 5f 43 a2 3b
       0.0 0.0 0.0011118302 0.004951879
000030 58 bb 1b 3d c8 cd 43 3c 39 1f db bc 31 31 e6 b8
       0.03802046 0.011950918 -0.026748287 -0.00010976417
000040 82 d0 cb b9 4b e9 35 bb 31 74 e8 ba 0b e3 b9 bb
       -0.00038874528 -0.0027757462 -0.0017734823 -0.0056728176

exp_avg_sq f4 [20]
000000 f1 a5 bc 32 47 06 1c 36 c0 85 84 37 8e 1f 8f 37
       2.1961542e-08 2.3249465e-06 1.5797908e-05 1.7061622e-05
000010 f4 79 7e 37 00 00 00 00 00 00 00 00 00 00 00 00
       1.5167974e-05 0.0 0.0 0.0
000020 00 00 00 00 00 00 00 00 10 6f 8f 35 77 a1 bd 37
       0.0 0.0 1.0686654e-06 2.2605744e-05
000030 5a b2 90 3a 48 da 77 39 0d 17 06 3a 69 9b 80 32
       0.0011039481 0.00023637072 0.0005115129 1.4971834e-08
000040 41 61 2d 35 43 a7 15 37 1f 77 56 37 7a 08 9c 37
       6.4589045e-07 8.920036e-06 1.2783129e-05 1.8600596e-05

exp_avg f4 [1, 5]
000000 7e 3c 58 bc 27 80 09 bc 4e f4 66 bc be ad 07 bc
       -0.013198016 -0.00839237 -0.014096333 -0.008281169
000010 e7 e6 4d 3d
       0.050269034

exp_avg_sq f4 [1, 5]
000000 6e 96 86 3b 34 50 30 3b 7d 45 29 3b f9 8e a1 3b
       0.004107288 0.0026903274 0.0025828772 0.0049303737
000010 5d 09 88 3b
       0.004151507
