lightning_logs/version_9/checkpoints/epoch=6-step=10934.ckpt (torch, 8309 bytes, 9 tensors)

lstm.weight_ih_l0 f4 [8, 7]
0	0x3f80c33a	1.0059578
1	0x3f0b594c	0.5443313
2	0xbf97a9fa	-1.1848748
3	0xbfabfbd1	-1.3436223
4	0xbe97b924	-0.2963344
5	0xbed2b7dc	-0.411559
6	0x3e1dbe38	0.15404594
7	0xbf919501	-1.1373597
8	0x3f5ddd4f	0.86665815
9	0xbf6bec6b	-0.9215762
10	0x3cd2bbba	0.02572428
11	0x3e922227	0.2854168
12	0xbe1ea694	-0.15493232
13	0x3e0d5fc8	0.13806069
14	0x3ee6d8c6	0.4508726
15	0x3d2f3f30	0.04278487
16	0x3f029a15	0.5101636
17	0x3e325948	0.1741687
18	0xbeef71b4	-0.46766436
19	0x3e059a4c	0.13047141
20	0xbf1bb63c	-0.6082494
21	0xbcc65ac0	-0.024213195
22	0x3d642160	0.05569589
23	0xbf2ae583	-0.6675646
24	0xbf250c4e	-0.644719
25	0xbf3270ec	-0.69703555
26	0xbe7bc71a	-0.2458767
27	0x3ea6a49a	0.32547456
28	0x3f84602d	1.034185
29	0x3ee8bfcd	0.45458832
30	0x3e848dd9	0.2588947
31	0xbe81317b	-0.25233063
32	0xbe5ea5cd	-0.21742935
33	0x3e13aad2	0.14420632
34	0xbf7ccb85	-0.98748046
35	0x3d70f557	0.058827724
36	0xbe46d544	-0.19417292
37	0xbdab745a	-0.08371802
38	0xbf5adbbf	-0.85491556
39	0xbbceac96	-0.006307195
40	0xb9b6676c	-0.000347908
41	0x3e76bafc	0.24094766
42	0x3f6fd254	0.9368031
43	0x3e7fcaf3	0.24979763
44	0xbf8e92e9	-1.1138583
45	0xbfb0ee62	-1.3822749
46	0x3d2c661c	0.042089567
47	0xbd25fa3b	-0.04052184
48	0x3cc0f9f4	0.023556687
49	0xbf71cbc4	-0.94451547
50	0x3f5c29d3	0.8600132
51	0xbf264b8c	-0.64959025
52	0x3cd365d4	0.025805391
53	0xbded2973	-0.115801714
54	0x3e584dd7	0.21123444
55	0x3eeb2aa7	0.4593098

lstm.weight_hh_l0 f4 [8, 2]
0	0x3f2224b5	0.6333726
1	0x3e8ee4e0	0.27908993
2	0xbe70a4cc	-0.23500365
3	0xbe5ceeb0	-0.21575427
4	0x3eeaaa7e	0.458332
5	0xbf1cb150	-0.6120806
6	0xbed0edb9	-0.40806368
7	0x3d9d9040	0.07693529
8	0xbe644b04	-0.22294241
9	0x3c699f00	0.0142591
10	0xbeff9ab0	-0.49922705
11	0x3ec2f6f6	0.3807904
12	0x3e4f24b8	0.20228851
13	0x3ed5b55e	0.41739935
14	0xbd90d340	-0.07071543
15	0x3e615068	0.22003329

fc.weight f4 [1, 2]
0	0xbf347b83	-0.70500964
1	0xbf8d34ac	-1.1031699

exp_avg f4 [8, 7]
0	0xb942c0a2	-0.00018573043
1	0xba1fbf30	-0.0006093858
2	0xba471564	-0.0007594435
3	0xba545b33	-0.0008100748
4	0x3b2fd07c	0.0026827147
5	0x3b0c0fda	0.0021371753
6	0xba4ccd94	-0.0007812616
7	0x3a65dc1f	0.00087684573
8	0x3ad5d1c0	0.0016313121
9	0x39859b2f	0.00025483358
10	0x3a49ecbe	0.0007702819
11	0x3c03c26b	0.008041958
12	0x3bf76f12	0.0075510824
13	0x36cc5033	6.08901e-06
14	0x00000000	0.0
15	0x00000000	0.0
16	0x00000000	0.0
17	0x00000000	0.0
18	0x00000000	0.0
19	0x00000000	0.0
20	0x00000000	0.0
21	0x00000000	0.0
22	0x00000000	0.0
23	0x00000000	0.0
24	0x00000000	0.0
25	0x00000000	0.0
26	0x00000000	0.0
27	0x00000000	0.0
28	0x3b2e083d	0.0026555203
29	0x3a927bce	0.0011175813
30	0x3adbb317	0.0016761747
31	0x3b16a839	0.0022988452
32	0x3b67d50f	0.0035374796
33	0xbc414e6c	-0.011798482
34	0xbb3972a9	-0.0028297103
35	0x3b84afb7	0.004049267
36	0x3c321c51	0.010871009
37	0x3ac85d40	0.001528658
38	0x3b1f68d8	0.0024323966
39	0x3c27f11f	0.010250359
40	0x3d33a0a8	0.043854386
41	0x3b8efc97	0.004363607
42	0x3a5b1f98	0.0008358895
43	0xbadddb68	-0.001692635
44	0x3a361896	0.00069464126
45	0x39b36fbf	0.00034224798
46	0xbc9b06e6	-0.018924188
47	0xba64793d	-0.00087155757
48	0x3949c1c2	0.00019241034
49	0x3b46ae6e	0.003031637
50	0x3b4361a5	0.002981284
51	0x3ae77b4a	0.0017660644
52	0x3ae1f660	0.0017239563
53	0x3c1d18f5	0.00958847
54	0x3c74099d	0.01489487
55	0x3ab70eab	0.0013966163

exp_avg_sq f4 [8, 7]
0	0x3a1d8ffd	0.00060105306
1	0x39d4bfa2	0.0004057857
2	0x3a14baa0	0.0005673561
3	0x39a9d367	0.000323917
4	0x3c1420df	0.00904104
5	0x3c1435bb	0.0090460135
6	0x39d15bda	0.0003993202
7	0x3b8f7c30	0.004378818
8	0x3c06d23b	0.008228834
9	0x3be66644	0.007031234
10	0x3c0e2ed1	0.008678154
11	0x3d3bb184	0.04582359
12	0x3cd3d149	0.02585663
13	0x3c3b1b6f	0.011420115
14	0x00000000	0.0
15	0x00000000	0.0
16	0x00000000	0.0
17	0x00000000	0.0
18	0x00000000	0.0
19	0x00000000	0.0
20	0x00000000	0.0
21	0x00000000	0.0
22	0x00000000	0.0
23	0x00000000	0.0
24	0x00000000	0.0
25	0x00000000	0.0
26	0x00000000	0.0
27	0x00000000	0.0
28	0x3c21f3bd	0.009884772
29	0x3c8d3b47	0.01724018
30	0x3cee78d1	0.029110344
31	0x3cb89382	0.022531275
32	0x3e28c0b1	0.16479756
33	0x3d935aac	0.07195029
34	0x3c8e48be	0.01736867
35	0x3c46bd3d	0.012130079
36	0x3cb78527	0.02240236
37	0x3c7a0537	0.015260032
38	0x3ba9691a	0.00517
39	0x3e9eebfb	0.31039414
40	0x3e5730f1	0.21014763
41	0x3c52ee60	0.012874216
42	0x3a7d98f6	0.0009673977
43	0x3a7f9ca6	0.00097508205
44	0x3a20a19d	0.0006127598
45	0x39e31cc1	0.00043318237
46	0x3c3b5b6d	0.011435372
47	0x3bb3db00	0.0054887533
48	0x3ab6ddaa	0.0013951559
49	0x3b65c9a2	0.003506281
50	0x3bb529c5	0.005528661
51	0x3be437eb	0.0069646738
52	0x3c0909f8	0.008364193
53	0x3d393d95	0.045224745
54	0x3cbe0a5c	0.0231983
55	0x3bb00d8d	0.005372709

exp_avg f4 [8, 2]
0	0x00000000	0.0
1	0x00000000	0.0
2	0x00000000	0.0
3	0x00000000	0.0
4	0x00000000	0.0
5	0x00000000	0.0
6	0x00000000	0.0
7	0x00000000	0.0
8	0x00000000	0.0
9	0x00000000	0.0
10	0x00000000	0.0
11	0x00000000	0.0
12	0x00000000	0.0
13	0x00000000	0.0
14	0x00000000	0.0
15	0x00000000	0.0

exp_avg_sq f4 [8, 2]
0	0x00000000	0.0
1	0x00000000	0.0
2	0x00000000	0.0
3	0x00000000	0.0
4	0x00000000	0.0
5	0x00000000	0.0
6	0x00000000	0.0
7	0x00000000	0.0
8	0x00000000	0.0
9	0x00000000	0.0
10	0x00000000	0.0
11	0x00000000	0.0
12	0x00000000	0.0
13	0x00000000	0.0
14	0x00000000	0.0
15	0x00000000	0.0

exp_avg f4 [1, 2]
0	0xbc0740c3	-0.0082551865
1	0xb9581d80	-0.00020610355

exp_avg_sq f4 [1, 2]
0	0x3c986414	0.018602408
1	0x3cab9f2c	0.020949923
