checkpoints/best_checkpoint.ckpt (torch, 39648 bytes, 15 tensors)

model.lstm.weight_ih_l0 f4 [80, 9]
0.18464643 0.18901098 0.10788635 -0.035467755 0.38103038 -0.015548582 0.14321698 0.13731842
0.11806725 -0.4957087 -0.038850795 -0.05648049 -0.08922817 0.20046484 0.041674625 0.019751664
-0.23282254 -0.091574065 -0.024055462 -0.17742881 0.1336595 -0.22844723 0.15803666 0.3098918
-0.07277563 0.06872932 0.058711186 -0.43288383 -0.061566163 -0.32793 -0.09145859 0.16792852
-0.009152838 0.014129475 -0.25130165 -0.11638409 0.03169574 0.072372235 -0.048556052 0.019184757
-0.1369557 -0.25847545 -0.18404657 -0.20815334 0.102713205 -0.040543977 -0.39796558 -0.0795166
-0.5033846 -0.06441376 -0.11731052 -0.2149864 -0.1888051 0.14738047 -0.19964743 -0.10185287
0.100366734 -0.24847174 -0.16440973 -0.18861292 -0.045743935 -0.0983616 0.028752193 0.04302606
-0.0032955124 0.040997777 0.021927163 -0.084843114 0.17010914 0.12396223 -0.21961024 0.13249183
-0.12673107 0.059597798 -0.22254923 -0.23246787 0.15652624 0.114909 -0.09719421 -0.22923446
-0.015047437 -0.13555346 -0.0011256236 -0.12034922 -0.034900602 -0.02137586 0.041006792 -0.18428697
0.0943659 -0.23285455 -0.30899802 0.07728707 -0.18634473 -0.03467542 -0.21273065 0.040075403
0.21824823 -0.13534343 -0.07384466 -0.33755216 -0.14739054 -0.36669233 -0.04460761 0.31336424
-0.032038555 -0.17569338 -0.109245166 -0.2551508 0.1038196 -0.018516554 -0.10529829 0.014317847
-0.10125376 -0.23794764 0.14940274 0.009527248 0.1863676 -0.10391501 0.16642787 -0.3684175
-0.005431339 0.026261203 0.38469806 -0.2650935 -0.3089168 0.14587153 0.15287901 -0.022252573
0.12210874 0.038552877 -0.07362794 -0.32427776 0.036898483 -0.05037116 0.08058895 0.022053633
-0.2735394 -0.12287165 0.023522733 -0.26878646 -0.20265894 0.10373774 -0.05145697 0.21836728
-0.2245927 -0.2543552 0.038039707 -0.34588608 0.09412516 0.20049666 0.080411345 0.1302675
-0.08989983 -0.13458858 -0.32463914 0.0051757037 -0.38545224 -0.055339687 0.12133398 -0.19359513
-0.23001598 -0.09666776 -0.14689688 0.2280938 0.10437606 0.15138648 0.012084583 -0.29194114
0.013481529 -0.012541133 -0.18365854 -0.08512176 0.20225656 -0.23876242 0.083077766 -0.17229725
-0.036721315 -0.023049088 -0.13872677 -0.17412612 -0.19750923 -0.1783452 0.07014898 -0.35124958
-0.26008964 -0.020781219 0.16142622 0.065984495 0.0976014 -0.09625482 0.10346946 -0.10691427
-0.28505147 0.27219492 0.27727157 -0.20465131 0.18210176 0.093937 -0.26005495 -0.25159696
-0.1993526 0.06035833 -0.22907758 -0.103431635 -0.15545264 -0.051221404 0.18484531 0.22068286
0.36341235 -0.2487559 -0.13833177 -0.10516833 -0.20266107 0.08376265 -0.19774531 0.062438957
0.3050135 -0.0008295539 0.09611101 -0.07364611 -0.13356157 0.2010187 0.29042232 -0.20272414
-0.106677264 -0.4472655 -0.29316652 -0.01319483 -0.022854634 -0.28308117 -0.2664659 0.07534926
-0.12961413 0.40721166 0.16187382 0.18766046 -0.29779807 -0.26267618 0.2092019 0.11168518
-0.14468767 -0.03253192 -0.04730778 -0.11603555 -0.26656634 -0.36877203 -0.12119162 0.037075106
0.050080776 -0.04939909 -0.04520158 -0.025713572 -0.27061206 0.018232457 -0.24152663 0.1095288
00000000: f413 3d3e 188c 413e 85f3 dc3d a346 11bd
00000010: 6a16 c33e 7bbf 7ebc 79a7 123e 339d 0c3e
00000020: 3ecd f13d 88cd fdbe 0322 1fbd 1658 67bd
00000030: 42bd b6bd a846 4d3e 03b3 2a3d 3ece a13c
00000040: 0869 6ebe 2f8b bbbd f60f c5bc e6af 35be
00000050: 09de 083e 12ee 69be 5dd4 213e 23aa 9e3e
00000060: 640b 95bd f5c1 8c3d 247b 703d f3a2 ddbe
00000070: cd2c 7cbd 71e6 a7be a44e bbbd 74f5 2b3e
00000080: c9f5 15bc 507f 673c 9caa 80be c85a eebd
00000090: 64d3 013d e537 943d b6e2 46bd 5a29 9d3c
000000a0: 1d3e 0cbe e556 84be b476 3cbe 2626 55be
000000b0: 4d5b d23d 7111 26bd 25c2 cbbe 99d9 a2bd
000000c0: d0dd 00bf 5deb 83bd 7f40 f0bd 6525 5cbe
000000d0: 2056 41be e8ea 163e 6070 4cbe 3d98 d0bd
000000e0: 138d cd3d 606f 7ebe 065b 28be bf23 41be
000000f0: fe5d 3bbd ce71 c9bd b889 eb3c 183c 303d
00000100: 86f9 57bb 49ed 273d 98a0 b33c 3ac2 adbd
00000110: 1731 2e3e e9df fd3d 82e1 60be f0ab 073e
00000120: cac5 01be d21c 743d f2e3 63be 0f0c 6ebe
00000130: 6a48 203e 6955 eb3d c20d c7bd 70bc 6abe
00000140: 8689 76bc 87ce 0abe a989 93ba a779 f6bd
00000150: eff3 0ebd 6d1c afbc bdf6 273d b9b5 3cbe
00000160: e942 c13d 6c71 6ebe fd34 9ebe af48 9e3d
00000170: 27d1 3ebe d007 0ebd 10d6 59be 1b26 243d
00000180: 777c 5f3e 7897 0abe de3b 97bd a3d3 acbe
00000190: 8ced 16be 19bf bbbe 78b6 36bd 4771 a03e
000001a0: dc3a 03bd f7e8 33be eebb dfbd 20a3 82be
000001b0: 5f9f d43d 07b0 97bc a1a6 d7bd 6795 6a3c
000001c0: 225e cfbd 8ca8 73be 08fd 183e 2d18 1c3c
000001d0: 26d7 3e3e 65d1 d4bd 116c 2a3e 38a1 bcbe
000001e0: 60f9 b1bb bc21 d73c 25f7 c43e 56ba 87be
000001f0: 582a 9ebe 595f 153e 518c 1c3e 074b b6bc
00000200: 2614 fa3d 9fe9 1d3d 3fca 96bd bc07 a6be
00000210: dd22 173d fd51 4ebd d20b a53d d2a9 b43c
00000220: 5b0d 8cbe 22a4 fbbd bfb2 c03c 619e 89be
00000230: d385 4fbe 7474 d43d 8bc4 52bd ac9b 5f3e
00000240: a1fb 65be d83a 82be 86cf 1b3d fb17 b1be
00000250: b1c4 c03d ff4e 4d3e b4ae a43d d864 053e
00000260: 671d b8bd 97d1 09be 1a37 a6be f398 a93b
00000270: ff59 c5be deab 62bd f37d f83d cd3d 46be
00000280: 4f89 6bbe bff9 c5bd 236c 16be 6c91 693e
00000290: 1ec3 d53d 0f05 1b3e 6afe 453c 4f79 95be
000002a0: a2e1 5c3c 5379 4dbc fc10 3cbe 5154 aebd
000002b0: 581c 4f3e 237e 74be ad24 aa3d b16e 30be
000002c0: 1769 16bd 71d1 bcbc 640e 0ebe 1e4e 32be
000002d0: dc3f 4abe 20a0 36be 45aa 8f3d fcd6 b3be
000002e0: 782a 85be 603d aabc ea4c 253e e122 873d
000002f0: 3ee3 c73d 3f21 c5bd cce7 d33d def5 dabd
00000300: 44f2 91be 225d 8b3e 8af6 8d3e 1d90 51be
00000310: e278 3a3e 0b62 c03d ec25 85be 51d1 80be
00000320: 1723 4cbe 4c3a 773d 5093 6abe f7d3 d3bd
00000330: fa2e 1fbe 89cd 51bd 1748 3d3e b0fa 613e
00000340: 2f11 ba3e deb9 7ebe d8a6 0dbe 7e62 d7bd
00000350: 6286 4fbe c18b ab3d bf7d 4abe febf 7f3d
00000360: bb2a 9c3e 6b76 59ba d9d5 c43d c6d3 96bd
00000370: 5dc4 08be d9d7 4d3e 3cb2 943e eb96 4fbe
00000380: 9c79 dabd fcff e4be ec19 96be 212f 58bc
00000390: a439 bbbc 04f0 90be 386e 88be b650 9a3d
000003a0: 91b9 04be 0c7e d03e 40c2 253e 102a 403e
000003b0: fd78 98be 7e7d 86be 0639 563e 33bb e43d
000003c0: 0129 14be 3140 05bd cdc5 41bd 0ca4 edbd
000003d0: 627b 88be b0cf bcbe 5033 f8bd 11dc 173d
000003e0: 8021 4d3d b356 4abd 4b25 39bd 45a5 d2bc
000003f0: aa8d 8abe 3c5c 953c c252 77be a350 e03d

model.lstm.weight_hh_l0 f4 [80, 20]
-0.17449197 0.10871748 0.09346084 0.26495063 -0.07711756 -0.075387836 -0.049554627 0.2613973
0.20496055 -0.040902894 0.08264333 0.057551187 0.020375175 0.29629093 0.25844216 -0.055880368
-0.123619705 -0.035126474 -0.009830449 -0.22894032 0.15261494 0.10490531 -0.08866623 0.34081054
-0.07326821 0.23711745 0.110679716 0.09186585 0.33942413 0.0942479 -0.055897582 0.032603793
-0.037296142 0.13231127 -0.030108824 -0.10139313 -0.29004157 0.10286938 0.14406295 -0.07916134
-0.14057711 -0.098253496 -0.14499027 0.17044507 0.026573667 -0.03630667 0.080417365 -0.09785069
0.13819528 0.039237797 -0.16575003 -0.24948609 -0.1070329 0.1701216 -0.03605587 -0.18411222
0.076845676 -0.11548554 -0.15007907 0.11342264 0.16637895 -0.23443028 0.068969525 -0.061468914
-0.09885556 -0.09638094 0.25677818 0.25694704 0.19464831 0.00033812178 0.2645071 -0.1046593
0.37440777 0.15635273 -0.0032407125 0.10067978 0.15509795 0.40857133 -0.025789212 -0.015957385
-0.27354681 0.0038774037 -0.04963435 0.23950635 0.44951048 -0.08842598 -0.32343155 -0.22136217
-0.2910453 0.18081114 -0.23150066 -0.12515454 0.0659298 -0.07270333 0.05074084 0.05967932
-0.12621687 0.02529447 0.06604944 -0.08388021 -0.24686751 0.09489958 -0.13986677 -0.011924479
0.2643254 -0.22724752 0.42906463 0.10277279 -0.059941273 -0.18646897 -0.22154869 -0.13192903
0.34383622 -0.014263387 0.15305226 -0.28510338 0.10363639 0.19365506 0.22523308 -0.20597965
0.15276662 0.2821384 -0.24080814 0.012849895 0.32259005 0.08985746 0.26517752 0.018677365
0.11726336 0.217046 0.06685836 -0.24733666 0.12003634 -0.09197039 -0.029921511 -0.06942233
0.046406694 0.22665095 -0.03581232 -0.07154816 -0.22950643 0.058331653 -0.4038981 0.23081888
0.1487132 0.2198088 0.44855356 -0.22131182 0.3937617 -0.030638207 -0.13356206 0.0030066923
0.29121867 0.034142278 0.19756095 -0.06783292 -0.29086238 -0.38219947 0.109170675 -0.394054
-0.1661093 0.3712097 -0.080309615 0.18160106 0.3311979 -0.13917942 0.32392928 0.07927789
-0.14605728 0.124139786 -0.22440463 -0.26536486 0.04040972 0.116609804 0.11631589 -0.35372305
-0.28987876 0.20242666 0.12293554 -0.07881793 0.24779715 0.06617595 -0.069042854 0.31429157
0.25116375 -0.0015855305 -0.07689845 -0.101636745 0.3825231 0.02358212 -0.18677288 0.15890597
0.19012375 0.33740374 0.028921302 0.020441134 -0.040837135 0.0676868 0.1407022 -0.15426676
-0.032908205 0.27881458 0.21271528 -0.2166244 0.26711196 0.031012878 -0.08533907 0.05193142
-0.08439478 0.10961017 0.1930772 0.13671404 0.32434112 -0.119188406 -0.09107958 -0.31245324
-0.017120847 0.32203075 -0.026141053 -0.040486157 0.21066797 0.17504582 -0.3207846 0.09951568
0.60435474 -0.26193145 -0.12461862 -0.08865538 -0.11524508 0.45654792 -0.144582 0.13564025
0.21969536 -0.07342966 0.10761953 -0.05812876 -0.09411973 0.34512994 0.21600267 0.06920412
0.11466347 -0.061799638 -0.04973515 -0.012523358 0.4186498 -0.17323956 0.38536617 -0.26370353
0.17473458 0.18538319 -0.42314208 -0.1563957 0.32166064 -0.09639545 -0.03784191 -0.18151058
00000000: 06ae 32be 45a7 de3d 6668 bf3d 9ca7 873e
00000010: d0ef 9dbd f064 9abd cbf9 4abd ded5 853e
00000020: 2ee1 513e cb89 27bd e840 a93d cbba 6b3d
00000030: d7e9 a63c 72b3 973e 8852 843e d0e2 64bd
00000040: 542c fdbd c7e0 0fbd e40f 21bc 556f 6abe
00000050: 1747 1c3e 98d8 d63d a496 b5bd b87e ae3e
00000060: a50d 96bd ebce 723e 0cac e23d 2a24 bc3d
00000070: 00c9 ad3e 0b05 c13d ddf4 64bd 8e8b 053d
00000080: d7c3 18bd 9b7c 073e c8a6 f6bc 34a7 cfbd
00000090: 5480 94be 2ead d23d 3d85 133e 571f a2bd
000000a0: 72f3 0fbe 2139 c9bd 5478 14be 2789 2e3e
000000b0: 05b1 d93c 4eb6 14bd dcb1 a43d f165 c8bd
000000c0: 1083 0d3e d0b7 203d 60ba 29be 4879 7fbe
000000d0: 1134 dbbd 5b34 2e3e 52af 13bd ea87 3cbe
000000e0: 4461 9d3d af83 ecbd 54ae 19be 214a e83d
000000f0: 3e5f 2a3e 7e0e 70be e53f 8d3d d4c6 7bbd
00000100: c974 cabd 5f63 c5bd 6e78 833e 908e 833e
00000110: e351 473e f045 b139 7a6d 873e 9d57 d6bd
00000120: 60b2 bf3e ee1a 203e 2262 54bb 3331 ce3d
00000130: ffd1 1e3e 4330 d13e e643 d3bc 10b9 82bc
00000140: 540e 8cbe 0a1c 7e3b 634d 4bbd 2741 753e
00000150: 3d26 e63e ae18 b5bd d298 a5be c4ac 62be
00000160: e403 95be 8e26 393e 820e 6dbe 8328 00be
00000170: 3406 873d 7ce5 94bd a1d5 4f3d 4d72 743d
00000180: ff3e 01be 5936 cf3c ee44 873d 63c9 abbd
00000190: d6ca 7cbe b65a c23d 3c39 0fbe e45e 43bc
000001a0: a955 873e 93b3 68be 5cae db3e 8a7a d23d
000001b0: fb84 75bd b9f1 3ebe a9dd 62be 6718 07be
000001c0: 4d0b b03e fbb0 69bc bbb9 1c3e 12f9 91be
000001d0: 513f d43d 834d 463e 80a3 663e 54ec 52be
000001e0: da6e 1c3e 7274 903e 6996 76be 5e88 523c
000001f0: 862a a53e 3007 b83d 59c5 873e 4601 993c
00000200: c627 f03d 4e41 5e3e 09ed 883d d245 7dbe
00000210: 9dd5 f53d f95a bcbd f51d f5bc 4b2d 8ebd
00000220: f214 3e3d 3017 683e f0af 12bd d787 92bd
00000230: bc03 6bbe 2ced 6e3d bbcb cebe c95b 6c3e
00000240: 4648 183e 8f15 613e d0a8 e53e 919f 62be
00000250: 229b c93e fafc fabc 7ec4 08be ed0b 453b
00000260: 9d1a 953e c6d8 0b3d 6b4d 4a3e fceb 8abd
00000270: eaeb 94be a6af c3be e094 df3d 72c1 c9be
00000280: 8e18 2abe 330f be3e 5e79 a4bd a1f5 393e
00000290: c592 a93e 0d85 0ebe 0fda a53e 725c a23d
000002a0: 0a90 15be 003d fe3d 54ca 65be e7dd 87be
000002b0: aa84 253d 1fd1 ee3d 0637 ee3d 301b b5be
000002c0: fd6a 94be ef48 4f3e a1c5 fb3d 4b6b a1bd
000002d0: 89be 7d3e 4287 873d 5766 8dbd d3ea a03e
000002e0: 8998 803e 93d1 cfba ef7c 9dbd ed26 d0bd
000002f0: 11da c33e 4a2f c13c 6441 3fbe 3fb8 223e
00000300: cdaf 423e 2fc0 ac3e 5eec ec3c 2a74 a73c
00000310: d744 27bd 619f 8a3d 3d14 103e 1bf8 1dbe
00000320: c1ca 06bd c9c0 8e3e 09d2 593e c9d2 5dbe
00000330: e6c2 883e b80e fe3c 40c6 aebd 0ab6 543d
00000340: 2cd7 acbd 4c7b e03d 08b6 453e c4fe 0b3e
00000350: 0a10 a63e 0d19 f4bd ee87 babd dff9 9fbe
00000360: 0541 8cbc 37e1 a43e c325 d6bc d0d4 25bd
00000370: 58b9 573e 363f 333e e13d a4be e0ce cb3d
00000380: feb6 1a3f e11b 86be 0c38 ffbd f490 b5bd
00000390: 9d05 ecbd a6c0 e93e 4e0d 14be 47e5 0a3e
000003a0: d2f7 603e 4a62 96bd a167 dc3d 6c18 6ebd
000003b0: d8c1 c0bd dfb4 b03e ce2f 5d3e e4ba 8d3d
000003c0: aed4 ea3d 9e21 7dbd 16b7 4bbd c52e 4dbc
000003d0: 4459 d63e b665 31be b74e c53e 2604 87be
000003e0: 9fed 323e 17d5 3d3e 14a6 d8be 3226 20be
000003f0: b4b0 a43e fa6a c5bd 1e00 1bbd e9dd 39be

model.lstm.bias_ih_l0 f4 [80]
0.021933468 -0.06611471 0.1357042 0.09210479 0.026699876 -0.2308464 0.02817755 -0.16501333
-0.04418646 -0.1920281 0.19795053 0.0037832512 -0.36448327 -0.1926366 0.114886075 -0.35031334
-0.007934816 -0.26469153 -0.2151007 -0.2583693 0.15162732 -0.12007978 -0.124299206 -0.11084531
-0.038633283 -0.1969872 0.0114326775 -0.13829152 -0.12678035 0.09717351 0.4551625 -0.11891951
-0.3190672 -0.05662906 -0.07924885 -0.17544195 -0.19094871 -0.04407254 0.06976467 0.16140811
-0.057578262 -0.0124328295 0.16156326 -0.18262789 -0.2267685 0.06981622 0.08918235 0.06418582
-0.1481556 -0.0922447 0.13470317 -0.0023517576 -0.060210466 0.16816248 -0.18050085 -0.031522207
-0.093176976 0.16422561 -0.2598586 0.15351775 -0.18321843 -0.07524747 -0.24368614 -0.15760522
-0.17681152 -0.3526509 -0.2679664 -0.23887844 0.029870994 -0.048120607 -0.15415332 -0.14037359
-0.15989845 -0.22686777 0.11802853 -0.147283 -0.30329373 -0.043313783 -0.32489005 -0.30770138
00000000: d1ad b33c 2667 87bd 0bf6 0a3e 70a1 bc3d
00000010: b3b9 da3c 0063 6cbe 9bd4 e63c 41f9 28be
00000020: ddfc 34bd 04a3 44be 8bb3 4a3e 6cf0 773b
00000030: 8d9d babe 8742 45be 6449 eb3d 455c b3be
00000040: 0801 02bc a685 87be 5c43 5cbe fb48 84be
00000050: 3144 1b3e 63ec f5bd 9590 febd de02 e3bd
00000060: ef3d 1ebd 03b7 49be 2050 3b3c 4b9c 0dbe
00000070: b5d2 01be e802 c73d 0f0b e93e 128c f3bd
00000080: c75c a3be e0f3 67bd 394d a2bd 0ea7 33be
00000090: 0f88 43be 6885 34bd c8e0 8e3d 2b48 253e
000000a0: 2fd7 6bbd 11b3 4bbc d770 253e ce02 3bbe
000000b0: 0036 68be cefb 8e3d 3ca5 b63d db73 833d
000000c0: 1ab6 17be caea bcbd a1ef 093e f21f 1abb
000000d0: 409f 76bd c932 2c3e 37d5 38be 6e1d 01bd
000000e0: 92d3 bebd c22a 283e 300c 85be c233 1d3e
000000f0: 9d9d 3bbe 581b 9abd dc88 79be 4363 21be
00000100: 140e 35be a98e b4be e432 89be 8d9c 74be
00000110: 04b4 f43c 1d1a 45bd 5eda 1dbe 18be 0fbe
00000120: 6bbc 23be 0650 68be f1b8 f13d 5bd1 16be
00000130: 5149 9bbe cb69 31bd fd57 a6be 098b 9dbe

model.lstm.bias_hh_l0 f4 [80]
-0.20127414 -0.26669818 -0.05177773 -0.19286118 -0.06760549 -0.36058298 -0.18878771 -0.49196714
-0.1277802 -0.24304532 -0.16840908 -0.018584419 -0.22985148 -0.48552898 -0.16131318 -0.09306258
-0.22171769 0.07509274 0.00067343295 -0.06491318 -0.21306098 0.04934687 -0.10777508 -0.15854102
-0.10577275 -0.34192374 -0.023158574 -0.3275068 -0.24087615 -0.0936968 0.16594258 -0.3889644
-0.01736076 -0.26148912 -0.28794435 0.066495225 -0.39348286 -0.13011193 -0.23125768 -0.14929408
0.22139217 -0.10826281 0.0586958 -0.12208556 -0.17078146 0.09018186 -0.28311518 -0.039873533
0.05057586 0.14142084 0.30036536 0.023395553 -0.18567066 -0.0313436 -0.12249316 0.22120972
0.13801406 0.1459283 -0.03193375 0.069094345 -0.17053463 -0.20525424 -0.10729559 0.07471498
-0.23646608 -0.24528128 -0.1800512 -0.1790143 -0.17289561 -0.30018485 -0.29655194 -0.2658987
-0.47936743 -0.3155514 -0.12331624 -0.28728637 -0.2242471 -0.06207015 -0.24774979 -0.251085
00000000: cf1a 4ebe aa8c 88be e314 54bd 677d 45be
00000010: bf74 8abd 559e b8be 9151 41be 1ee3 fbbe
00000020: d0d8 02be dfe0 78be 6e73 2cbe 5a3e 98bc
00000030: 305e 6bbe 4197 f8be 482f 25be 9897 bebd
00000040: f609 63be 39ca 993d 5289 303a 34f1 84bd
00000050: a82c 5abe f21f 4a3d 2eb9 dcbd 9458 22be
00000060: 629f d8bd a110 afbe 0db7 bdbc f9ae a7be
00000070: 3da8 76be 1ce4 bfbd daec 293e 5826 c7be
00000080: 2738 8ebc e7e1 85be 716d 93be a62e 883d
00000090: 9676 c9be 103c 05be d0ce 6cbe 8ce0 18be
000000a0: a1b4 623e e4b8 ddbd 026b 703d fe07 fabd
000000b0: 56e1 2ebe 44b1 b83d 79f4 90be 6e52 23bd
000000c0: a228 4f3d a0d0 103e 7dc9 993e 08a8 bf3c
000000d0: 7320 3ebe 2662 00bd b2dd fabd cd84 623e
000000e0: 8f53 0d3e 3a6e 153e f7cc 02bd 5681 8d3d
000000f0: a1a0 2ebe 2b2e 52be cabd dbbd 2b04 993d
00000100: 2a24 72be 042b 7bbe 575f 38be 864f 37be
00000110: 8c0b 31be d4b1 99be a8d5 97be e023 88be
00000120: a66f f5be f48f a1be 3a8d fcbd 3317 93be
00000130: 08a1 65be 453d 7ebd 1fb2 7dbe 378e 80be

model.fc.weight f4 [1, 20]
-0.05072554 0.00089005934 -0.055770487 -0.1694157 -0.093719214 0.049383566 -0.032318186 0.047796194
0.011568653 -0.0018724365 0.13195981 0.033020493 -0.04237849 0.04121533 0.026969144 0.03329284
-0.0015671658 0.06453531 0.10580229 0.03352935
00000000: 95c5 4fbd df52 693a 986f 64bd 4f7b 2dbe
00000010: dcef bfbd 6c46 4a3d 1360 04bd f1c5 433d
00000020: 738a 3d3c 8b6c f5ba 7920 073e 7f40 073d
00000030: 1195 2dbd 68d1 283d 65ee dc3c 135e 083d
00000040: 5c69 cdba 172b 843d dfae d83d 1256 093d

exp_avg f4 [80, 9]
-0.00021235188 -0.00055515574 -0.0004939067 -0.00045069618 -0.0007768547 0.00017623261 -0.00063365675 -0.00018556278
-0.0001359021 3.800427e-05 1.7361592e-05 -3.7701702e-05 3.5851278e-06 0.00022390138 0.00029882265 -3.5698804e-06
1.0678663e-06 -5.097308e-06 -3.645538e-05 -0.001617745 -0.00034073915 -0.0006290205 -0.00018282494 0.001116029
-0.0012084857 -0.00028751476 -0.00029065734 -0.0015257327 -0.0011612552 -0.0018070099 -0.0021591764 -0.005751733
-0.0036777481 -0.0021511968 -0.0009314219 -0.00013658736 0.00065368507 -0.0017986392 0.00054288417 -0.0005348494
0.00037817765 0.0010304151 -0.0010271587 -0.0004486008 -2.7704427e-05 0.00023301004 -0.0003743652 -0.0002086304
-0.00057231926 1.3982819e-06 0.0009510329 -0.0003819914 -5.9163747e-05 1.3505554e-06 2.8775761e-05 0.00043713735
0.00031708722 0.00015519916 -9.151974e-05 -0.0005492849 0.00029658445 6.801373e-05 0.00017459477 -0.00028805804
0.0001070322 -0.00027192908 -4.074475e-05 0.0002532748 -0.00016206612 -4.35935e-06 -3.3443014e-06 3.1800224e-05
0.00010674919 -2.853203e-05 7.434423e-05 1.6504835e-05 0.00010021405 0.000209901 -1.7550908e-06 -1.7828035e-07
-5.370067e-05 -1.878126e-05 4.7530467e-08 6.5012464e-05 5.911525e-05 -1.9230945e-05 -1.623955e-06 2.0423946e-05
3.669626e-05 -3.879304e-05 -0.0018604062 -0.001820574 -0.0008179502 -0.00097046234 -0.003595703 -0.003788698
-0.0016110786 -0.000896539 0.000283476 0.00021489589 0.00015547808 0.0001895505 0.0001348346 0.00047081566
0.0007999994 0.00022046575 8.714528e-05 5.0680726e-05 -9.430064e-05 -0.00011818702 -3.844371e-05 -0.0002454302
-0.0006555059 -0.00062362454 -0.00015710067 -0.00013558223 3.326064e-05 0.00012296673 -0.00025816145 0.000121587735
-0.00012796035 -8.147373e-06 6.0310213e-05 -0.00013054184 -5.5646888e-05 3.0586114e-05 -0.00013563914 -0.00021794206
-0.0003572922 -0.00029737887 -0.00053980807 -6.2632374e-05 -0.00034710608 -5.1730232e-05 -0.00010582294 0.00010748222
-2.7759623e-05 2.6384656e-05 8.6319626e-05 0.0007839916 0.0010534313 2.1886746e-05 -5.6678873e-05 0.0001268169
-0.00011832819 -0.00011577296 7.048406e-05 8.834715e-05 9.555982e-05 5.4447177e-05 -3.419717e-06 -5.9477927e-05
2.8340696e-06 0.0012751946 0.0019955651 0.0017734442 0.0007572286 -0.009185017 -0.012980022 0.002054453
0.0004710088 0.00036332596 -0.00041850808 0.0016671298 0.000107234846 0.00094844506 0.0011953105 -0.0005133997
0.0012058169 0.0007524172 0.00018340175 1.17564505e-05 0.00018536494 1.919978e-05 -6.262471e-05 -0.0007150073
-0.0004651553 1.0676656e-06 -6.84272e-05 3.958299e-05 -0.00028409518 -0.0002026041 -0.0001334445 -0.00018091832
-0.00028268684 -0.0004729309 -0.0001368792 -0.00033804425 -8.5279244e-05 -3.9946535e-06 -9.135684e-06 3.7651955e-06
-6.802089e-06 -3.239541e-05 -3.2267086e-05 -9.5530195e-06 4.177174e-06 -2.6589923e-06 -0.00032354478 0.0006640097
-7.4624244e-05 0.00029932935 -6.102523e-06 -0.0006458711 0.00048786978 0.0002534837 -5.268495e-05 -0.00022499516
-0.001221327 -0.00045900614 -0.0008665558 -0.0003769809 0.0004351586 -0.0010471968 -0.0005131131 -0.00013652693
-0.00019681922 -0.00096658774 -8.88739e-05 -0.00072980014 -0.00453554 -0.0039833263 -0.0008226422 -0.00086587865
-0.0002114016 -0.00011671199 -4.06584e-05 -4.9903007e-05 -2.6806314e-05 3.2371077e-05 -3.3116445e-05 -4.830685e-05
-1.1741404e-05 3.7149774e-05 0.00031543404 0.00020868597 0.00026230735 0.00018055669 0.00032931942 0.00034234603
0.00020627971 0.00025370566 0.00013259232 6.0166323e-05 8.3937965e-05 5.2439387e-05 6.318091e-05 0.00014582934
0.00018343059 7.925554e-05 1.8253037e-05 1.15417e-05 -0.00010944525 -1.2598588e-05 -4.65956e-05 2.7785742e-05
00000000: c6aa 5eb9 df87 11ba 8479 01ba 6b4b ecb9
00000010: d6a5 4bba 15cb 3839 fc1b 26ba a193 42b9
00000020: f180 0eb9 c666 1f38 bca3 9137 e521 1eb8
00000030: 0798 7036 12c7 6a39 4cab 9c39 1492 6fb6
00000040: 9b53 8f35 8b09 abb6 abe7 18b8 840a d4ba
00000050: 3ca5 b2b9 dae4 24ba b2b4 3fb9 b847 923a
00000060: 0d66 9eba 94bd 96b9 5e63 98b9 18fb c7ba
00000070: 4235 98ba 31d9 ecba f880 0dbb 0979 bcbb
00000080: 6006 71bb 18fb 0cbb aa2a 74ba e438 0fb9
00000090: 105c 2b3a 51c0 ebba 5750 0e3a 2335 0cba
000000a0: 2546 c639 fe0e 873a baa1 86ba 2e32 ebb9
000000b0: ce66 e8b7 2854 7439 7246 c4b9 ccc3 5ab9
000000c0: b207 16ba 9aac bb35 bd4e 793a 0546 c8b9
000000d0: 9726 78b8 bb44 b535 7a63 f137 952f e539
000000e0: ba3e a639 f5bc 2239 49ee bfb8 e3fd 0fba
000000f0: e47e 9b39 98a2 8e38 6d13 3739 7f06 97b9
00000100: 7a76 e038 b491 8eb9 58e5 2ab8 f8c9 8439
00000110: 4bf0 29b9 8846 92b6 a96e 60b6 3b61 0538
00000120: 89de df38 1158 efb7 41e9 9b38 dd73 8a37
00000130: 022a d238 df18 5c39 7690 ebb5 546d 3fb4
00000140: a83c 61b8 738c 9db7 4d24 4c33 4d57 8838
00000150: 84f2 7738 2452 a1b7 abf6 d9b5 1754 ab37
00000160: 4fea 1938 b6b5 22b8 e0d8 f3ba 54a0 eeba
00000170: b56b 56ba a066 7eba e3a5 6bbb ce4b 78bb
00000180: d42a d3ba b705 6bba 819f 9439 ad55 6139
00000190: d407 2339 13c2 4639 6362 0d39 cfd7 f639
000001a0: 0db7 513a d32c 6739 c4c1 b638 0492 5438
000001b0: 45c3 c5b8 2cdb f7b8 9f3e 21b8 15ad 80b9
000001c0: 42d6 2bba bc7a 23ba 64bb 24b9 142b 0eb9
000001d0: 5781 0b38 a1f0 0039 d859 87b9 ebfc fe38
000001e0: 182d 06b9 b3b0 08b7 99f5 7c38 0fe2 08b9
000001f0: 6466 69b8 9749 0038 5b3a 0eb9 6087 64b9
00000200: f352 bbb9 84e9 9bb9 e881 0dba 8059 83b8
00000210: cafb b5b9 eaf8 58b8 42ed ddb8 1468 e138
00000220: 56dd e8b7 9e54 dd37 7f06 b538 c984 4d3a
00000230: 4a13 8a3a 6e99 b737 7aba 6db8 27fa 0439
00000240: f726 f8b8 22cb f2b8 d7d0 9338 0447 b938
00000250: 4a67 c838 365e 6438 4a7e 65b6 f077 79b8
00000260: f230 3e36 6e24 a73a 07c8 023b ea72 e83a
00000270: c080 463a c17c 16bc 28aa 54bc 00a4 063b
00000280: bbf1 f639 c97c be39 346b dbb9 9883 da3a
00000290: 45e3 e038 12a1 783a f7ab 9c3a ac95 06ba
000002a0: 800c 9e3a dd3d 453a 884f 4039 923d 4537
000002b0: 865e 4239 370f a137 6355 83b8 546f 3bba
000002c0: 16e0 f3b9 b64c 8f35 9380 8fb8 e905 2638
000002d0: 9cf2 94b9 2072 54b9 3ced 0bb9 e4b4 3db9
000002e0: 9635 94b9 b6f3 f7b9 3b87 0fb9 883b b1b9
000002f0: f2d7 b2b8 d009 86b6 7745 19b7 91ad 7c36
00000300: 803d e4b6 4ee0 07b8 8556 07b8 e845 20b7
00000310: a729 8c36 2471 32b6 72a1 a9b9 f010 2e3a
00000320: 967f 9cb8 4eef 9c39 46c4 ccb6 ad4f 29ba
00000330: c6c8 ff39 02e6 8439 09fa 5cb8 aeec 6bb9
00000340: ef14 a0ba c3a6 f0b9 9329 63ba 85a5 c5b9
00000350: 0026 e439 1842 89ba 7082 06ba ab28 0fb9
00000360: 4261 4eb9 9b62 7dba d061 bab8 0f50 3fba
00000370: de9e 94bb 9086 82bb 95a6 57ba 22fc 62ba
00000380: afab 5db9 46c3 f4b8 a088 2ab8 f24e 51b8
00000390: 1fde e0b7 2ec6 0738 83e6 0ab8 169d 4ab8
000003a0: f2fc 44b7 44d1 1b38 d760 a539 b7d2 5a39
000003b0: 4c86 8939 d153 3d39 81a8 ac39 e87c b339
000003c0: ca4c 5839 cc03 8539 7b08 0b39 195b 7c38
000003d0: da07 b038 5df2 5b38 fe7f 8438 c4e9 1839
000003e0: 4657 4039 fe35 a638 191e 9937 39a3 4137
000003f0: f985 e5b8 865e 53b7 a56f 43b8 6d15 e937

exp_avg_sq f4 [80, 9]
4.960362e-07 8.00117e-07 6.715845e-07 1.0372878e-06 4.326516e-07 1.4103247e-06 8.0298275e-07 1.6769589e-07
1.0674608e-07 2.7740555e-07 6.797869e-07 3.8292228e-07 6.032433e-07 1.9085937e-06 3.0358722e-06 6.147407e-07
1.2974843e-07 9.8108316e-08 3.1112523e-07 6.005634e-07 5.0885245e-07 5.0522897e-07 6.7249994e-07 8.660856e-07
2.0168857e-06 8.6519336e-08 6.81453e-08 1.5732325e-06 1.986261e-06 1.7534338e-06 2.4732524e-06 1.3012707e-05
3.7830945e-05 1.8224952e-06 3.6412357e-07 2.6122504e-07 1.5409905e-06 4.42408e-06 3.5671408e-06 5.387575e-06
1.7151395e-05 1.5000503e-05 3.8566563e-06 1.9147335e-07 5.509935e-07 1.959272e-06 6.38717e-07 1.642368e-06
1.2519542e-06 3.917577e-05 6.195868e-05 1.4842303e-06 5.75026e-08 7.893282e-08 1.5364354e-06 1.0808275e-06
2.4164463e-06 2.1807195e-06 2.0336438e-06 2.3309876e-06 2.6557461e-06 2.2522119e-07 1.9713596e-07 2.2217463e-07
3.311228e-07 4.9617717e-07 4.267586e-07 0.000114742536 6.706504e-06 4.4503665e-07 3.3313363e-08 3.3029455e-08
1.1958295e-07 2.4655068e-07 1.5736528e-07 2.0347639e-07 6.8360384e-07 1.2556674e-06 2.297636e-07 3.226274e-08
3.159573e-08 8.7622817e-07 1.0187167e-06 1.4852548e-06 1.0914147e-06 7.3324964e-06 5.5464943e-06 1.1316969e-06
6.237752e-08 6.921492e-08 3.404289e-06 6.171542e-06 6.97175e-06 5.7368848e-06 1.984501e-05 5.816346e-05
4.2820748e-06 5.640657e-07 4.6718066e-07 1.2848778e-06 2.0855439e-06 1.1771156e-06 1.8345897e-06 1.7882128e-05
7.1082606e-05 1.3763394e-06 2.5339799e-07 2.513536e-07 1.3336131e-06 4.6076028e-07 1.3115144e-06 8.76885e-07
4.2399065e-06 2.2164895e-06 5.2027406e-07 4.7946504e-08 4.7967866e-08 8.571278e-07 1.188309e-06 1.2363886e-06
1.1075409e-06 2.6762527e-05 1.5870537e-06 1.3534831e-06 4.600926e-08 6.1491924e-08 1.2702397e-06 2.4499357e-06
4.8354013e-06 4.1601547e-06 1.0640292e-06 5.533457e-07 3.4721563e-06 5.24874e-07 3.9035862e-07 8.0205064e-07
5.3803035e-07 9.287455e-07 6.9108575e-07 1.4197084e-06 1.40796e-06 9.795689e-07 2.045985e-07 1.8208743e-07
1.0580967e-06 1.1648858e-06 1.7161319e-06 1.8412783e-06 4.9845808e-06 5.775942e-06 1.1916753e-06 1.1862258e-07
8.72443e-08 3.294879e-06 2.2410672e-06 4.973435e-06 5.013527e-06 5.3608102e-05 9.0965244e-05 4.170242e-06
4.980223e-07 3.0832e-07 7.3514007e-06 1.2467999e-05 4.7156027e-06 5.2306664e-06 6.1016766e-05 1.8293733e-05
2.6292228e-06 4.093072e-07 3.7218737e-07 7.3137096e-07 6.6841403e-07 7.2183707e-07 7.0056643e-07 4.7221736e-05
3.1633288e-05 8.2844764e-07 1.1199598e-07 7.309891e-08 1.9478689e-07 2.7002585e-07 1.2682717e-07 1.7977456e-07
5.000647e-07 8.3547843e-07 1.1879461e-07 3.376092e-07 2.0708228e-07 1.1676336e-07 2.3345108e-07 1.05241845e-07
1.9766698e-07 1.9963247e-07 8.960312e-08 1.4597839e-07 8.177279e-08 5.0724257e-08 1.2481154e-07 1.556916e-07
9.2975945e-08 2.395775e-07 2.198317e-07 5.35174e-07 1.3505088e-07 1.266831e-07 9.7665584e-08 6.620663e-07
7.600813e-07 7.148558e-07 5.6788144e-07 1.4406801e-06 1.5879568e-06 6.0392887e-07 2.7371996e-07 2.572921e-07
1.0671575e-06 9.701198e-07 1.0378354e-06 1.4518334e-06 4.6380355e-06 5.728364e-06 9.642433e-07 2.953052e-07
4.1285907e-07 3.509593e-07 4.7443234e-07 4.7572976e-07 5.02964e-07 4.6305163e-07 6.689952e-07 5.0679773e-07
6.094586e-08 1.4642687e-07 3.736955e-07 2.6312702e-07 2.0058845e-07 2.2810279e-07 3.2158107e-07 6.08374e-07
2.0992675e-07 2.1635653e-07 1.4267768e-07 3.062626e-08 3.329296e-08 1.9760405e-08 2.5513419e-08 4.8461118e-08
8.836464e-08 2.09005e-08 7.8252445e-09 6.5405286e-09 1.3506948e-07 1.3179043e-07 9.840374e-08 9.4415036e-08
00000000: 5927 0535 9fc7 5635 ef46 3435 f038 8b35
00000010: 2f47 e834 634a bd35 8e8c 5735 e50f 3434
00000020: 473c e533 54ee 9434 9a7a 3635 7094 cd34
00000030: 90ee 2135 6415 0036 e3bb 4b36 a904 2535
00000040: fa50 0b34 9eaf d233 ba08 a734 6736 2135
00000050: 1398 0835 129f 0735 d885 3435 f37c 6835
00000060: d559 0736 82cc b933 4657 9233 db27 d335
00000070: b44b 0536 8757 eb35 27fa 2536 2751 5a37
00000080: abac 1e38 759c f435 c37c c334 7f3e 8c34
00000090: 08d4 ce35 8f72 9436 0363 6f36 ebc6 b436
000000a0: 57e0 8f37 abaa 7b37 6d68 8136 cb97 4d34
000000b0: fce7 1335 097c 0336 4c74 2b35 566f dc35
000000c0: d208 a835 aa50 2438 d0ef 8138 c435 c735
000000d0: c7f8 7633 c781 a933 8537 ce35 f310 9135
000000e0: 3b2a 2236 7a58 1236 bc79 0836 106e 1c36
000000f0: 5f39 3236 54d4 7134 52ac 5334 e68e 6e34
00000100: 2cc5 b134 0931 0535 411d e534 eea1 f038
00000110: 6e08 e136 5fed ee34 6e14 0f33 45dc 0d33
00000120: b666 0034 ab5d 8434 3df8 2834 2a7b 5a34
00000130: e680 3735 6788 a835 f0b4 7634 4291 0a33
00000140: dfb3 0733 f135 6b35 d7ba 8835 f758 c735
00000150: b97c 9235 aa09 f636 061c ba36 cfe4 9735
00000160: 67f4 8533 4ea3 9433 3d75 6436 2415 cf36
00000170: e0ee e936 777f c036 d678 a637 8af4 7338
00000180: beae 8f36 4d6a 1735 d2d0 fa34 1174 ac35
00000190: 5ff5 0b36 62fd 9d35 063c f635 9401 9637
000001a0: 2f12 9538 a9ba b835 c10a 8834 c7f1 8634
000001b0: 99fe b235 695e f734 4b07 b035 1463 6b35
000001c0: 8544 8e36 00bf 1436 f6a8 0b35 bded 4d33
000001d0: 3a05 4e33 6015 6635 fd7d 9f35 fdf1 a535
000001e0: d1a6 9435 1780 e037 c002 d535 53a9 b535
000001f0: b79b 4533 8b0d 8433 1b7d aa35 9369 2436
00000200: c83f a236 7597 8b36 c4cf 8e35 a189 1435
00000210: 3103 6936 11e5 0c35 7b92 d134 804c 5735
00000220: 2a6d 1035 e84e 7935 0d83 3935 cf8c be35
00000230: 23f9 bc35 bb79 8335 9caf 5b34 d083 4334
00000240: ed03 8e35 2c59 9c35 d855 e635 d721 f735
00000250: 3941 a736 f7ce c136 a7f1 9f35 74bd fe33
00000260: 105b bb33 971d 5d36 3e65 1636 7be1 a636
00000270: de39 a836 43d9 6038 98c4 be38 1bee 8b36
00000280: d5af 0535 2e87 a534 0dac f636 a62d 5137
00000290: b83a 9e36 1583 af36 41ec 7f38 7e75 9937
000002a0: b471 3036 c1be db34 0bd1 c734 6e53 4435
000002b0: 106d 3335 44c4 4135 8f0e 3c35 f40f 4638
000002c0: fcad 0438 7d62 5e35 7182 f033 8dfa 9c33
000002d0: 9d26 5134 12f8 9034 fd2d 0834 0e08 4134
000002e0: 2f3c 0635 a445 6035 071c ff33 a840 b534
000002f0: 585a 5e34 56bf fa33 8baa 7a34 5101 e233
00000300: 493e 5434 8e5a 5634 d66b c033 3cbe 1c34
00000310: 119b af33 e9db 5933 ef03 0634 2e2c 2734
00000320: 11aa c733 489f 8034 e10a 6c34 e1a8 0f35
00000330: 8102 1134 6306 0834 39bc d133 dab8 3135
00000340: 6408 4c35 84e4 3f35 8470 1835 645d c135
00000350: c821 d535 ad1d 2235 c9f3 9234 f521 8a34
00000360: 413b 8f35 1035 8235 c14b 8b35 9edc c235
00000370: 6ca0 9b36 4636 c036 266b 8135 708a 9e34
00000380: eba6 dd34 7b6b bc34 7cb5 fe34 cd67 ff34
00000390: 6c03 0735 5599 f834 0095 3335 e00a 0835
000003a0: 57e1 8233 8339 1d34 52a0 c834 e743 8d34
000003b0: 5561 5734 6bec 7434 c4a5 ac34 254f 2335
000003c0: 3a68 6134 a14f 6834 f132 1934 ee89 0333
000003d0: fffd 0e33 97bd a932 9a28 db32 9023 5033
000003e0: f9c2 bd33 b088 b332 ca6f 0632 19bb e031
000003f0: 9e07 1134 4782 0d34 0752 d333 37c1 ca33

exp_avg f4 [80, 20]
4.529202e-05 2.5497839e-05 -6.66912e-05 4.9069113e-05 2.1606704e-05 2.2525987e-06 -1.722687e-05 -1.1385186e-05
2.6640426e-05 -5.167404e-06 -2.9280896e-05 -6.0486673e-06 1.559779e-05 1.1568188e-06 1.9338751e-05 -2.514082e-05
-4.607056e-06 -1.8585348e-05 5.6962035e-05 -1.3623069e-05 4.5694446e-06 5.2278633e-06 -9.320732e-06 6.790592e-06
-9.983769e-06 -1.970748e-06 -1.4486884e-06 -4.444224e-06 1.1812097e-05 8.932551e-06 -4.565697e-06 1.461913e-06
2.3385323e-06 5.7885886e-06 -2.8332497e-06 -5.2161874e-07 -6.4867017e-06 -2.1893375e-06 1.5636689e-06 -3.1350078e-06
3.5679175e-05 7.544393e-05 -0.00015673522 7.006858e-05 -7.533675e-05 1.1402152e-05 2.3403782e-06 -2.2862096e-05
6.290172e-05 2.408305e-06 -7.254177e-05 -1.7710721e-06 4.6761827e-05 -1.3859437e-05 3.507319e-05 -2.9381295e-05
-1.0416791e-05 -7.172708e-05 8.400801e-05 -5.2730415e-05 0.00025405642 -5.733119e-06 5.6405734e-05 6.8574605e-05
0.00061634526 -4.6917474e-05 -0.00015161265 4.680722e-05 -5.519244e-05 -0.00010037339 -5.566136e-05 5.226708e-05
3.3477022e-06 -3.348056e-05 8.288314e-05 -8.3300656e-05 5.7767265e-06 5.3925e-05 0.00029310238 1.490289e-05
7.130527e-05 7.483404e-05 -0.00018896448 0.000116146235 8.668729e-06 1.844951e-05 -9.575519e-05 1.0088999e-05
0.000100278565 2.4017636e-05 1.7586168e-05 2.0820942e-05 2.1886597e-05 1.2360599e-05 5.2708285e-05 -5.7629746e-05
-5.243643e-05 -8.012767e-05 9.345269e-05 -7.325904e-05 6.597688e-06 6.772414e-06 -7.706022e-06 2.997947e-05
-2.3179166e-05 -1.661457e-06 -1.2846281e-05 -3.7177742e-06 -8.568765e-06 -1.0606646e-05 -3.3633914e-06 -2.8175248e-06
5.4129478e-06 -1.3776068e-05 -1.5751173e-06 1.6492542e-07 3.1327413e-06 -6.4543324e-06 9.278291e-06 -1.3308886e-05
-4.2909258e-05 -2.3842906e-05 7.612286e-05 -5.6210676e-05 -8.949105e-06 9.476781e-06 8.86628e-06 1.5614978e-05
-3.7039506e-05 -1.843106e-05 9.4586685e-06 1.9105926e-05 -1.616648e-05 -1.4304321e-06 -1.2316435e-06 1.6906939e-05
6.6062958e-06 2.8385024e-05 -2.703306e-05 2.0359528e-05 8.0158115e-06 -8.009942e-06 2.4367304e-05 -1.6264226e-05
1.4089413e-05 3.5350613e-06 6.4054616e-06 1.4271394e-06 -1.0776318e-05 -5.040575e-06 7.4149125e-06 1.2170887e-06
-5.176128e-06 5.761321e-06 -6.6170946e-06 2.7781089e-06 -5.150426e-06 1.7741499e-05 -2.346188e-06 1.4262317e-05
-4.10564e-06 7.105602e-06 -5.4318257e-06 9.885408e-06 6.1709994e-07 -1.8513616e-06 6.0666057e-06 2.1565859e-06
5.1462134e-06 2.391502e-06 -1.26950945e-05 -7.920057e-07 6.257218e-06 -2.5265906e-06 -4.2328656e-07 2.2376335e-06
5.2770356e-06 -4.35425e-06 -1.4390694e-06 -8.983408e-06 -2.0839054e-06 -9.197113e-06 1.6617914e-05 -1.3210988e-05
-4.4965282e-07 -3.387814e-06 -1.1358728e-06 1.7152867e-06 -8.787757e-06 -1.828859e-06 1.260911e-05 -4.306841e-06
-3.2596546e-07 -8.172921e-06 -7.4334253e-06 8.935509e-06 8.717936e-06 1.5460455e-05 -7.681053e-06 1.8156097e-06
0.000120697325 -8.7266766e-05 9.95877e-05 -7.442251e-05 0.0006039184 1.2220185e-05 -0.00012860069 0.00011392241
-6.5552944e-05 -0.000194172 4.049306e-05 4.9876573e-05 -3.02245e-05 1.8393841e-05 0.00019438933 -2.1147096e-06
-2.2196373e-05 -7.380425e-06 0.00021357145 4.5151595e-05 -8.5305055e-06 1.39612785e-05 -6.3248594e-06 1.1096983e-05
-4.8774567e-05 -3.8362914e-06 2.0063166e-05 -7.16892e-06 2.1114152e-05 3.8976872e-05 -1.6781247e-05 2.1050769e-06
1.1235824e-06 8.996511e-06 -6.6044427e-06 -8.344239e-06 -3.70202e-05 -6.7942074e-06 -3.0537456e-05 -2.4678704e-07
1.0821029e-05 7.2975087e-07 -2.5798652e-06 6.2811466e-07 6.67287e-05 6.225209e-06 -2.6536096e-05 1.07302585e-05
6.699388e-06 -8.65073e-06 5.2729024e-06 3.1502286e-06 -1.097986e-05 2.6530913e-06 3.2342658e-05 -2.1941014e-05
00000000: f0f7 3d38 31e4 d537 91dc 8bb8 8fcf 4d38
00000010: 0b40 b537 5a2b 1736 6c82 90b7 0003 3fb7
00000020: e179 df37 aa63 adb6 3fa0 f5b7 a8f5 cab6
00000030: 00d8 8237 fe43 9b35 a739 a237 80e5 d2b7
00000040: 4f96 9ab6 bbe7 9bb7 85ea 6e38 a38e 64b7
00000050: 3b53 9936 016b af36 3d60 1cb7 beda e336
00000060: f67f 27b7 3141 04b6 8e70 c2b5 981f 95b6
00000070: 922c 4637 04dd 1537 0a33 99b6 f336 c435
00000080: aeef 1c36 993b c236 dc22 3eb6 5e05 0cb5
00000090: 58a8 d9b6 88ec 12b6 41df d135 0663 52b6
000000a0: 39a6 1538 a737 9e38 4a59 24b9 c8f1 9238
000000b0: 1cfe 9db8 df4b 3f37 640f 1d36 fac7 bfb7
000000c0: 1bea 8338 5d9e 2136 9121 98b8 93b5 edb5
000000d0: 2122 4438 d485 68b7 8d1b 1338 da77 f6b7
000000e0: c7c3 2eb7 2f6c 96b8 752d b038 da2a 5db8
000000f0: e032 8539 1e5f c0b6 3295 6c38 b6cf 8f38
00000100: 3b92 213a 41c9 44b8 36fa 1eb9 df52 4438
00000110: 6e7e 67b8 8e7f d2b8 ee75 69b8 5a39 5b38
00000120: 16a9 6036 7a6d 0cb8 8cd1 ad38 b3b1 aeb8
00000130: b4d5 c136 872d 6238 89ab 9939 6d07 7a37
00000140: ba89 9538 38f0 9c38 c424 46b9 8993 f338
00000150: e86f 1137 05c4 9a37 2dd0 c8b8 ec43 2937
00000160: a54c d238 7b79 c937 0286 9337 a2a8 ae37
00000170: 1c99 b737 5e60 4f37 1713 5d38 78b7 71b8
00000180: 30ef 5bb8 370a a8b8 08fc c338 a6a2 99b8
00000190: b561 dd36 983e e336 1d49 01b7 6c7c fb37
000001a0: e170 c2b7 3aff deb5 5b86 57b7 e07e 79b6
000001b0: 91c2 0fb7 33f3 31b7 a0b6 61b6 b514 3db6
000001c0: dea0 b536 c31f 67b7 9e68 d3b5 5b16 3134
000001d0: 163c 5236 4b92 d8b6 f5a9 1b37 3b49 5fb7
000001e0: 77f9 33b8 4002 c8b7 26a4 9f38 c1c3 6bb8
000001f0: 1d24 16b7 77fe 1e37 62c0 1437 e9fc 8237
00000200: de5a 1bb8 669c 9ab7 acb0 1e37 aa45 a037
00000210: 409d 87b7 46fd bfb5 f34e a5b5 60d3 8d37
00000220: a6ab dd36 601c ee37 0ec5 e2b7 c1c9 aa37
00000230: a67b 0637 7062 06b7 6368 cc37 296f 88b7
00000240: 9161 6c37 e43b 6d36 7fee d636 238c bf35
00000250: efcb 34b7 3622 a9b6 9dcd f836 d95a a335
00000260: 9aae adb6 5f51 c136 6908 deb6 8c6f 3a36
00000270: d3d1 acb6 94d3 9437 3473 1db6 2f48 6f37
00000280: 2ec3 89b6 a86c ee36 0743 b6b6 81d9 2537
00000290: c9a6 2535 4d7c f8b5 bf8f cb36 ddb9 1036
000002a0: a3ad ac36 b17d 2036 04fd 54b7 389a 54b5
000002b0: 18f5 d136 7f8e 29b6 1040 e3b4 402a 1636
000002c0: 6411 b136 b91a 92b6 0c26 c1b5 72b7 16b7
000002d0: 39d9 0bb6 4d4d 1ab7 b366 8b37 c3a4 5db7
000002e0: d067 f1b4 345a 63b6 4b74 98b5 cd38 e635
000002f0: 216f 13b7 1e77 f5b5 b78b 5337 7c83 90b6
00000300: 5a00 afb4 6e1e 09b7 a36c f9b6 b8e9 1537
00000310: 4043 1237 13b1 8137 dfdd 00b7 e0af f335
00000320: e21e fd38 fd02 b7b8 bdd9 d038 4813 9cb8
00000330: 4750 1e3a 4c05 4d37 fcd8 06b9 a1e9 ee38
00000340: 7879 89b8 a69a 4bb9 18d7 2938 9032 5138
00000350: 9f8a fdb7 794c 9a37 fdd4 4b39 6fea 0db6
00000360: 5932 bab7 5ea5 f7b6 26f2 5f39 2861 3d38
00000370: 3e1e 0fb7 3c3b 6a37 213a d4b6 2e2d 3a37
00000380: 4b93 4cb8 7eb9 80b6 524d a837 8e8c f0b6
00000390: 4c1e b137 197b 2338 74c5 8cb7 f244 0d36
000003a0: ffcd 9635 b8ef 1637 bb9b ddb6 3cfe 0bb7
000003b0: 2346 1bb8 ccf9 e3b6 5815 00b8 277e 84b4
000003c0: f78b 3537 19e4 4335 bf21 2db6 b69b 2835
000003d0: b3f0 8b38 23e2 d036 d599 deb7 1c06 3437
000003e0: 4ecb e036 9a22 11b7 e3ed b036 8468 5336
000003f0: 2436 38b7 c30b 3236 aaa7 0738 f80d b8b7

exp_avg_sq f4 [80, 20]
2.7255863e-08 1.6342508e-08 1.2939137e-08 1.4090979e-08 4.0912984e-09 5.4525793e-09 1.172032e-08 1.0357545e-09
8.975142e-09 4.5893316e-09 1.1621031e-08 2.1400774e-09 1.1633927e-09 2.830279e-09 1.6568265e-08 8.078724e-09
8.993818e-09 1.0190094e-08 1.6039994e-08 1.3398266e-08 2.0634099e-08 1.0652363e-08 1.0697207e-08 9.4207016e-09
5.0770095e-09 3.4723235e-09 9.024925e-09 1.0981765e-09 4.807022e-09 4.651132e-09 1.1454589e-08 3.5300634e-09
1.1817067e-09 2.4758642e-09 1.4323809e-08 5.1621596e-09 5.990896e-09 4.5633843e-09 1.3439072e-08 1.4010997e-08
1.2125299e-08 7.235151e-09 8.46723e-09 6.622473e-09 6.1616467e-09 2.3360647e-09 7.691456e-09 5.973068e-10
4.068258e-09 2.1403332e-09 7.896723e-09 2.815902e-09 1.0188823e-09 1.5906526e-09 9.669139e-09 3.7218908e-09
4.220023e-09 5.3336153e-09 9.320534e-09 7.1778254e-09 3.1646053e-08 2.0707118e-08 2.809331e-08 1.9468459e-08
7.1368525e-08 1.5151745e-08 2.6810122e-08 3.0784457e-09 2.8736915e-08 1.5310434e-08 3.8669306e-08 1.0738947e-08
4.1546313e-09 6.942762e-09 2.7106735e-08 1.3444439e-08 1.4858974e-08 3.56405e-08 2.5067921e-08 1.8357797e-08
1.570821e-08 1.9811347e-08 2.6052334e-08 1.7206817e-08 2.6694773e-08 1.2196392e-08 2.1754486e-08 2.0461894e-09
2.4642997e-08 1.6147988e-08 2.7971874e-08 7.988867e-09 6.649145e-09 4.9644466e-09 1.38859555e-08 7.7812e-09
8.9754515e-09 4.091327e-08 8.262486e-09 1.0067771e-08 1.39751295e-08 3.04472e-08 1.2188842e-08 1.499694e-08
2.1582585e-08 1.4357269e-08 1.6147746e-08 2.62458e-09 1.5755765e-08 1.5537559e-08 1.9046126e-08 1.0596382e-08
3.414157e-09 9.15785e-09 1.5214626e-08 5.2012004e-09 5.527884e-09 1.9167523e-08 1.138704e-08 7.802001e-09
2.3215907e-08 1.8604588e-08 1.9163362e-08 1.8751864e-08 9.274658e-09 6.2075762e-09 1.8416616e-08 1.5325535e-09
2.0342842e-08 1.1060245e-08 1.5966481e-08 6.332374e-09 2.6406481e-09 6.2530607e-09 1.8104007e-08 8.711218e-09
9.663093e-09 1.5389725e-08 1.6377204e-08 1.4875892e-08 2.7669502e-09 3.3927556e-09 3.5446153e-09 2.7946103e-09
4.0639088e-09 1.3439335e-09 3.0715965e-09 4.0228768e-10 3.341542e-09 2.6882605e-09 2.5910298e-09 1.699255e-09
7.8495577e-10 1.0862942e-09 3.2747043e-09 1.8043029e-09 1.4019244e-09 3.6395347e-09 3.0674923e-09 1.8888702e-09
2.0585504e-09 1.8288183e-09 3.1507148e-09 2.0382112e-09 1.6315402e-09 9.66587e-10 3.1751122e-09 1.9853633e-10
3.128717e-09 1.2065724e-09 3.698085e-09 1.4804589e-09 7.477345e-10 1.0381467e-09 2.7879141e-09 1.3703106e-09
9.2243196e-10 2.468713e-09 2.7787765e-09 2.4197417e-09 5.6471876e-09 6.4019523e-09 7.730642e-09 6.6782517e-09
7.019477e-09 2.806843e-09 1.0444318e-08 6.6109795e-10 1.2765516e-08 4.370837e-09 9.014133e-09 4.4508774e-09
1.3441691e-09 2.9290244e-09 5.798397e-09 3.724807e-09 2.6280453e-09 8.60265e-09 4.4192876e-09 7.2007045e-09
4.0577557e-08 3.5275697e-08 4.447754e-08 3.671221e-08 9.354759e-08 2.7552419e-08 5.4663737e-08 5.03491e-09
5.503074e-08 2.8214243e-08 4.833803e-08 3.2342406e-08 1.2206338e-08 1.339376e-08 5.6942856e-08 2.683754e-08
1.4214271e-08 5.8504412e-08 5.312456e-08 2.461183e-08 2.5859167e-08 2.86263e-08 2.1099735e-08 2.452555e-08
1.283844e-08 8.155785e-09 1.7593004e-08 2.4508604e-09 2.0415245e-08 1.9333086e-08 1.7915893e-08 8.9115515e-09
3.6206251e-09 5.619796e-09 1.1307898e-08 8.2000415e-09 7.6918525e-09 1.544435e-08 8.837797e-09 9.015386e-09
4.497563e-09 3.6549825e-09 3.5415877e-09 4.976866e-09 3.6105385e-09 2.1522943e-09 3.900665e-09 3.6228306e-10
4.7677053e-09 2.886496e-09 2.9949898e-09 3.0267984e-09 1.0638727e-09 2.3472353e-09 2.7587679e-09 1.5262692e-09
00000000: 4720 ea32 8e61 8c32 ed4a 5e32 c814 7232
00000010: 7193 8c31 6559 bb31 835a 4932 5f5a 8e30
00000020: 1831 1a32 30b0 9d31 d6a5 4732 a410 1331
00000030: 3ee5 9f30 cb7e 4231 0052 8e32 9bca 0a32
00000040: 3b83 1a32 8210 2f32 52c8 8932 322e 6632
00000050: dd3e b132 9701 3732 d0c6 3732 afd8 2132
00000060: d971 ae31 c39d 6e31 0a0c 1b32 a7ee 9630
00000070: 032b a531 cacf 9f31 d1c9 4432 8895 7231
00000080: 9c69 a230 dd23 2a31 c714 7632 d65e b131
00000090: 7ad8 cd31 f4cb 9c31 aae1 6632 04b5 7032
000000a0: a14f 5032 1099 f831 4577 1132 e38b e331
000000b0: 6bb6 d331 7c88 2031 6223 0432 bb2f 2430
000000c0: c7c8 8b31 2415 1331 28aa 0732 df81 4131
000000d0: bc08 8c30 1d9e da30 531d 2632 32c4 7f31
000000e0: b7ff 9031 fa42 b731 2420 2032 d2a0 f631
000000f0: 34eb 0733 6fdf b132 d851 f132 983b a732
00000100: 4343 9933 0a27 8232 154c e632 978c 5331
00000110: 25d9 f632 0084 8332 5a15 2633 637e 3832
00000120: 86c0 8e31 2e8d ee31 57d8 e832 45f9 6632
00000130: 7546 7f32 2513 1933 f154 d732 39b1 9d32
00000140: b8ee 8632 9d2d aa32 b0c9 df32 31ce 9332
00000150: 6d4e e532 4d88 5132 9fde ba32 f29c 0c31
00000160: 86ae d332 cdb5 8a32 cd46 f032 693f 0932
00000170: 7f76 e431 bc93 aa31 148f 6e32 14ae 0532
00000180: 7432 1a32 9eb8 2f33 ccf2 0d32 86f6 2c32
00000190: 4517 7032 0dc5 0233 1867 5132 9fd2 8032
000001a0: 9b64 b932 f0a7 7632 45b5 8a32 1a5c 3431
000001b0: 4b57 8732 7477 8532 e09a a332 620b 3632
000001c0: 7c9e 6a31 a654 1d32 51b1 8232 3eb6 b231
000001d0: c8ef bd31 d4a5 a432 bba0 4332 9009 0632
000001e0: 526c c732 eccf 9f32 ae9c a432 c913 a132
000001f0: 6156 1f32 6b4a d531 9132 9e32 efa1 d230
00000200: 62be ae32 7903 3e32 aa26 8932 2794 d931
00000210: c676 3531 81da d631 2283 9b32 58a8 1532
00000220: bc02 2632 5d32 8432 daad 8c32 dd90 7f32
00000230: b424 3e31 fd25 6931 8895 7331 4e0b 4031
00000240: 85a2 8b31 75b5 b830 1914 5331 f528 dd2f
00000250: 07a1 6531 61bc 3831 e10d 3231 388b e930
00000260: 5ac4 5730 944c 9530 3509 6131 44fb f730
00000270: d4ad c030 5f1b 7a31 e5cb 5231 5bcd 0131
00000280: 6776 0d31 d359 fb30 f683 5831 9710 0c31
00000290: b83c e030 c2d8 8430 2a31 5a31 024b 5a2f
000002a0: f900 5731 7ed4 a530 6621 7e31 0479 cb30
000002b0: 2389 4d30 8aae 8e30 8195 3f31 8555 bc30
000002c0: 618e 7d30 0fa6 2931 c1f4 3e31 8c48 2631
000002d0: 3009 c231 2bf8 db31 b9cf 0432 8676 e531
000002e0: f92f f131 81e2 4031 996e 3332 a2b8 3530
000002f0: 554f 5b32 4a2e 9631 94dc 1a32 55ee 9831
00000300: bfbd b830 f147 4931 3d3b c731 7ff7 7f31
00000310: 1099 3431 dbca 1332 77d8 9731 116a f731
00000320: 7f47 2e33 0a82 1733 9307 3f33 80ad 1d33
00000330: 55e4 c833 69ac ec32 6ac7 6a33 89ff ac31
00000340: f05a 6c33 c75b f232 3a9c 4f33 dae8 0a33
00000350: 0bb4 5132 611a 6632 5591 7433 6088 e632
00000360: 0633 7432 4846 7b33 122b 6433 fd69 d332
00000370: e920 de32 e6e5 f532 cf3e b532 41ac d232
00000380: 0e90 5c32 861d 0c32 6d1f 9732 fe6b 2831
00000390: 995d af32 e811 a632 77e5 9932 6b19 1932
000003a0: b6ce 7831 4018 c131 a944 4232 2ae0 0c32
000003b0: 2025 0432 7caa 8432 0bd5 1732 16e2 1a32
000003c0: fc88 9a31 222b 7b31 4560 7331 fa00 ab31
000003d0: 441d 7831 90e7 1331 9d06 8631 cf2a c72f
000003e0: 2ed1 a331 c65b 4631 6bd0 4d31 0000 5031
000003f0: b137 9230 004d 2131 c294 3d31 d3c4 d130

exp_avg f4 [80]
-0.00040573315 3.7371474e-06 -0.00064400554 -0.0021201768 -0.0007277234 -1.4906392e-05 0.000253596 7.7609975e-06
-1.5499336e-05 5.601812e-05 -0.0016730118 0.00019382394 -0.00024983296 2.8798418e-06 -0.00014465093 -3.1844836e-05
-6.771347e-05 0.0013551112 0.0014600161 -0.00013002206 -0.0006727374 6.626189e-06 0.00046676496 -0.0007508235
-0.0017203599 2.861668e-05 0.00052964775 3.3941877e-05 4.916427e-05 9.53755e-06 0.00019097191 0.00019150344
0.00017255577 -9.994188e-05 0.00018250028 -0.00040610824 -3.7825444e-05 -0.0002530915 0.0013315139 8.059662e-05
0.0029468935 -0.0002216421 0.0042625135 0.009160201 0.0042231227 -0.00043637707 0.0013837733 -0.0019086846
-0.00042816292 0.0003578705 -0.006925703 -0.0019314889 0.0013389366 -0.0015621922 -0.0018820023 -0.0017584465
-0.00011785849 -0.0013757861 -0.004796546 -0.0010046113 -0.0013200104 3.089193e-05 -3.5224813e-05 -0.002299037
-0.0011279726 7.79115e-05 0.00038802077 -2.2610617e-07 2.142899e-05 3.4179313e-05 -0.0018280889 0.00023525
-0.00019469085 0.00016497825 -0.00023231484 -0.00014804017 2.0179139e-05 0.0005167384 0.0028330476 -8.286159e-05
00000000: 95b8 d4b9 b4cb 7a36 7bd2 28ba aaf2 0abb
00000010: b1c4 3eba 7716 7ab7 14f5 8439 3b35 0237
00000020: 9204 82b7 00f5 6a38 f648 dbba 383d 4b39
00000030: 03fc 82b9 4e43 4136 70ad 17b9 2291 05b8
00000040: 6401 8eb8 fd9d b13a 035e bf3a 8856 08b9
00000050: a55a 30ba 8856 de36 22b8 f439 ead2 44ba
00000060: b37d e1ba da0d f037 0fd8 0a3a d05c 0e38
00000070: bc35 4e38 7703 2037 a23f 4839 50ce 4839
00000080: 16f0 3439 e397 d1b8 8c5d 3f39 edea d4b9
00000090: c3a6 1eb8 5eb1 84b9 3186 ae3a fb05 a938
000000a0: ab20 413b 9968 68b9 8eac 8b3b ab14 163c
000000b0: 1f62 8a3b 8ac9 e4b9 ba5f b53a d42c faba
000000c0: 0e7b e0b9 91a0 bb39 02f1 e2bb 032a fdba
000000d0: 427f af3a 79c2 ccba 85ad f6ba ac7b e6ba
000000e0: cc2a f7b8 b953 b4ba 582c 9dbb 29ad 83ba
000000f0: 3304 adba f591 0138 5bbe 13b8 71ab 16bb
00000100: 7bd8 93ba 6b64 a338 446f cb39 97c7 72b4
00000110: 68c2 b337 c25b 0f38 7c9c efba 71ad 7639
00000120: ed25 4cb9 03fe 2c39 8a99 73b9 3b3b 1bb9
00000130: 5f46 a937 ba75 073a a7aa 393b fac5 adb8

exp_avg_sq f4 [80]
2.390922e-07 2.1032014e-07 1.7937026e-07 9.4627904e-07 6.4742073e-07 1.7483914e-07 3.8787917e-07 8.659777e-08
8.798312e-08 1.3164357e-07 1.2985283e-06 4.3530775e-07 9.888318e-08 1.1518233e-07 6.5991594e-07 2.7637398e-07
2.0771769e-07 1.0262174e-06 9.544502e-07 1.8343363e-07 4.3318803e-07 1.2038191e-07 2.3755136e-07 7.1185644e-07
9.456484e-07 1.8908038e-07 4.0024088e-07 1.7092857e-08 1.2195733e-07 1.1830463e-07 9.1495906e-07 3.3821155e-07
7.2883296e-08 1.9070205e-07 1.0198086e-06 3.731533e-07 7.187532e-08 6.5827726e-07 9.770021e-07 1.6214555e-07
5.754996e-06 2.6674725e-06 4.753635e-06 1.8622175e-05 2.3521146e-05 7.2258704e-06 8.5860265e-06 2.5953198e-06
3.63969e-06 1.01584155e-05 2.0308402e-05 1.3947074e-05 2.7503102e-06 3.93332e-06 1.2325771e-05 8.787058e-06
2.2464878e-06 5.892773e-06 2.3483433e-05 2.570855e-06 7.8563465e-07 4.8901506e-07 4.1544777e-07 1.8218612e-06
1.2716459e-06 3.489734e-07 1.1077741e-06 7.998923e-08 2.0200642e-07 1.337817e-07 1.9029782e-06 6.818775e-07
6.061319e-08 2.8033415e-07 1.2098183e-06 2.8838534e-07 2.213833e-07 3.0350263e-06 3.1880702e-06 2.2989914e-07
00000000: 955c 8034 5cd4 6134 ec98 4034 cd03 7e35
00000010: 6aca 2d35 6bbb 3b34 b53d d034 a1f7 b933
00000020: 3bf1 bc33 e959 0d34 1849 ae35 3eb4 e934
00000030: 9a59 d433 285a f733 1425 3135 8d60 9434
00000040: 0109 5f34 90bc 8935 a91a 8035 daf5 4434
00000050: e990 e834 5442 0134 9f11 7f34 6716 3f35
00000060: 77d8 7d35 0506 4b34 b0e0 d634 97d3 9232
00000070: 60f3 0234 a80e fe33 829b 7535 7193 b534
00000080: 0484 9c33 c8c3 4c34 5be0 8835 cd55 c834
00000090: e059 9a33 78b4 3035 8921 8335 3b1a 2e34
000000a0: 0a1b c136 d402 3336 6a81 9f36 d136 9c37
000000b0: 474f c537 c175 f236 b40c 1037 412b 2e36
000000c0: 6641 7436 106e 2a37 f65b aa37 3afe 6937
000000d0: f891 3836 f6fa 8336 c9ca 4e37 206c 1337
000000e0: 5ec2 1636 89ba c536 4afe c437 f486 2c36
000000f0: 67e4 5235 dc44 0335 b50a df34 ad86 f435
00000100: 6cad aa35 8a5a bb34 d4ae 9435 8bc6 ab33
00000110: 1ae7 5834 a2a5 0f34 d569 ff35 440a 3735
00000120: 742a 8233 d580 9634 0a61 a235 61d3 9a34
00000130: 61b5 6d34 5bad 4b36 a1f2 5536 32da 7634
