lightning_logs/version_18/checkpoints/epoch=1-step=7024.ckpt (torch, 820579 bytes, 15 tensors)

model.lstm.weight_ih_l0 f4 [500, 8]
00000000: 06ad 43bd a5b2 98bd e71f e2bc da13 3d3e
00000010: fbb6 68be 9a69 33bd 1a77 33be 4b02 a43d
00000020: 9e8e b03d ef1a 423e 9343 49be 81f0 6abe
00000030: 79c0 56be ff83 af3c 3f70 39be 2cc9 dbbd
00000040: 3320 79bc 0a42 4bbe 83c8 25be 55f7 bcbe
00000050: ffea ff3d a116 9abc 35ec 11be 85ea c1be
00000060: a003 a8bd b914 683e 17df a9bd dd06 a2be
00000070: 0968 9cbd 045c 9cbd 5e77 283d 3638 28be
00000080: 17cc 15bd 46bd 963c 1299 2cbd dce5 a2be
00000090: 9132 e7bd 81d1 49bc d7c6 953d 2163 43be
000000a0: b494 73be a498 89be f43a 07be 3bc4 e7be
000000b0: c9c1 a53d 4694 a9be 2e6e 80be bdf1 3fbe
000000c0: 4cb5 0e3e 17bd 8e3e 1b57 47be d2b7 c9be
000000d0: a89c 2a3e e707 cf3c cc97 30bc 4ef4 50be
000000e0: 42b4 01be 25fe 82be 0c5c d1bd 0531 ccbd
000000f0: 6081 103e 5d56 ec3d 0b98 abbe 99d8 64be
00000100: 3822 c83d f3f0 013e d114 a63c 332e 003e
00000110: 0d91 96be e89e bbbc 043b cf3d 715f 1e3d
00000120: c6f8 cebd 7bbe 0f3e 5125 e8bc 1310 313e
00000130: 0a44 323e ffc6 0a3d e1ea bb3d e753 c83c
00000140: 40d8 fabe 7fa3 6bbe b75e 36be c849 543d
00000150: 36f6 11be b713 fbbd 1397 7cbe e1ed a13e
00000160: 78de 1d3d fe9e aebd 26ac 493e 62c9 173f
00000170: d794 79be 84ad 82be 48e3 d7bd 228a 813e
00000180: d3c5 1a3e 5d9f d83e 5247 9dbe 3a01 35be
00000190: feb4 be3d 1bdc 993e 9304 b13d 5557 05be
000001a0: 7db2 3e3c b6a1 aa3e 4bf0 03be 1b3d 513b
000001b0: a9d6 363e c546 963e e288 c93d ce28 ef3d
000001c0: e7d8 8b3d 9498 933d 4599 0dbe a38c f9bd
000001d0: 98cf 473e 450c 02be b654 273e 644f 2cbe
000001e0: a692 b83d bfc3 853d c4e2 d5bd 7e22 57be
000001f0: e29d 853e d95a 283e a94a ffbd a119 30be
00000200: 0ab5 0e3d 3004 a63e ba70 70be fd2c 42be
00000210: 4387 6ebe caf0 b73d ff91 bd3d 1870 febd
00000220: 075e b6bd 4786 a73e 70db c0bd d21b 613c
00000230: 063b 41be 4f60 6a3d 40d4 6d3e 67a8 753d
00000240: 03cc 18bc 3ac9 a7bd 4a9c 643d 3c42 0bbe
00000250: 8cfb ca3d 39bd 043e 944a a0bd 605a b8bd
00000260: cd42 bfbd 0c5c 1abe 12fb 313e 678c c33e
00000270: 8ef0 5d3e 4e1d 11be f3b1 003e a483 3a3e
00000280: a41b 5cbd e441 883e 155b 15be 94f0 ddbe
00000290: 38ff 973d 0769 54bd 8df8 3f3e 2799 65be
000002a0: 9296 09be 5f3e c73d 1bad 35be a0eb 343e
000002b0: 52b9 d0bd c778 823e d318 063d 4e25 9b3d
000002c0: 7762 c9bd f09b 94bd ca8e 4d3e 39a9 3e3f
000002d0: 6c21 0f3e 908f 0c3d 710e 4b3e aa4e 353e
000002e0: 7473 493e 8c77 cbbb 7758 8ebe bf6b 27be
000002f0: 534f 7b3e 354d 883e fc6e 5dbe 38ec a1be
00000300: 0503 13be a47e 45be 1ba0 d4bd bd67 f63c
00000310: 36f5 78be 9a95 f4bd 577f aebe 8b3e 3c3d
00000320: 7a4a 883e 7319 44bc 413c 113e b394 b2be
00000330: 62f0 493e ee70 973d 6d03 4f3e 29fa 87be
00000340: c20d fabc 3ff1 d73d 3288 c83c 976c 3c3f
00000350: 5a45 1bbe 2318 49bd 0612 ab3d 5c51 893e
00000360: 09b4 f63b 86cd d03e 42f2 99be 221a 2cbe
00000370: 5f26 213d ba3b 6a3e e4f7 cd3d b1b9 dbbd
00000380: 394b 73be 30fc 33be 2718 4fbe eb87 aebe
00000390: 4579 9a3e b5c0 dc3d fc13 213d 1ae1 73be
000003a0: 7182 50bd d8c2 783e 2e5e a7bd 3e51 07be
000003b0: 9151 b0bd 66c2 14bf 62b5 0cbc 6553 d03d
000003c0: c305 4abe 6d46 96be dda5 46be 4d45 c4be
000003d0: 71ea bc3d 523e 56bd 5b45 20bd e4dc 91be
000003e0: fc45 2ebe e40e a5be a377 c4bc 5000 2fbf
000003f0: f7fd 553e 32a1 683d 2cd1 01be df81 7bbe
-0.04777243 -0.07455949 -0.027603103 0.18464604 -0.22726052 -0.04380188 -0.17525902 0.0800825
0.08620952 0.18955587 -0.19654684 -0.22943307 -0.2097186 0.021425245 -0.18109225 -0.1073173
-0.015205431 -0.1984941 -0.1618977 -0.3690745 0.12495994 -0.018809618 -0.14250262 -0.37874237
-0.082038164 0.22664155 -0.08294504 -0.3164586 -0.07637031 -0.07634738 0.041129462 -0.16427693
-0.03657159 0.0184008 -0.042138167 -0.31815994 -0.11288942 -0.012318016 0.07313316 -0.19080783
-0.23787194 -0.26874268 -0.13206083 -0.452669 0.08093602 -0.33120936 -0.2508406 -0.1874456
0.13936347 0.2787864 -0.19466822 -0.39398056 0.16661322 0.025272323 -0.010778379 -0.20405695
-0.12666419 -0.25584522 -0.10222635 -0.09970287 0.14111853 0.1153991 -0.33514437 -0.2234825
0.09772152 0.12689571 0.020273598 0.12517624 -0.2940754 -0.02290292 0.10118678 0.03866524
-0.101060435 0.14037506 -0.028338106 0.17291288 0.17408767 0.033881184 0.09175659 0.02445407
-0.4899311 -0.23011588 -0.17809568 0.051828176 -0.14254078 -0.1225962 -0.24667005 0.316268
0.03854224 -0.08526419 0.19694576 0.5929166 -0.24373184 -0.25523007 -0.10541397 0.253007
0.15114526 0.42309085 -0.30718476 -0.17676249 0.09311865 0.3005074 0.086434506 -0.13021596
0.011639235 0.333265 -0.12884633 0.003192729 0.17855324 0.29350868 0.098405614 0.11677705
0.0682848 0.07206836 -0.13827999 -0.121850275 0.19512784 -0.12699993 0.16340908 -0.1682716
0.09012346 0.06531476 -0.10443643 -0.21009251 0.26097018 0.16440906 -0.12465412 -0.17197277
0.03484062 0.3242507 -0.23480502 -0.18962474 -0.23293786 0.08981474 0.09256362 -0.12423724
-0.08904653 0.32719633 -0.094168544 0.013739543 -0.18870172 0.057220753 0.23225498 0.059975054
-0.009325984 -0.08192678 0.05581311 -0.13599485 0.0991126 0.12962808 -0.07826725 -0.09001613
-0.09338913 -0.15074176 0.17380932 0.38193056 0.21673796 -0.14171335 0.12567882 0.1821428
-0.053737298 0.2661277 -0.14585526 -0.4334761 0.07421726 -0.051857974 0.18747158 -0.22421704
-0.13436344 0.09728693 -0.17741816 0.17668009 -0.10191597 0.2548277 0.032738518 0.07575475
-0.09833234 -0.07256305 0.20074001 0.74476963 0.13977593 0.0343166 0.19829728 0.17705789
0.19672948 -0.0062093195 -0.27801868 -0.16349696 0.24541979 0.26621404 -0.21624368 -0.31625533
-0.1435662 -0.19286591 -0.103821 0.030078763 -0.2431229 -0.11942597 -0.34081528 0.045958083
0.2661932 -0.011968958 0.14183141 -0.34879074 0.19720605 0.073945865 0.2021615 -0.26558045
-0.030524138 0.10544061 0.024479005 0.73603195 -0.15163174 -0.049095284 0.08353047 0.26819885
0.007528786 0.40781802 -0.3006764 -0.16806844 0.039343234 0.22874346 0.10057047 -0.10728777
-0.23759164 -0.1757667 -0.20224057 -0.34088072 0.30170646 0.107789434 0.0393257 -0.23816338
-0.05090565 0.24293077 -0.0817226 -0.13214585 -0.086093076 -0.5810913 -0.008588167 0.10172156
-0.1972876 -0.29350606 -0.1939921 -0.38334122 0.09224404 -0.052305527 -0.039128643 -0.2848884
-0.17018884 -0.32237923 -0.023982828 -0.6835985 0.20897661 0.056794353 -0.12677449 -0.2456126

model.lstm.weight_hh_l0 f4 [500, 125]
00000000: 0e22 1abe 1e91 68bd 64bc b1bd 1b66 99bd
00000010: 2261 05be 5235 213d 2fe8 243e 73ca 5a3d
00000020: cfbd de3d 3076 07be bc46 b43e 152b 843e
00000030: fa97 903d fecb 7a3e 816d 61bd 14c6 4ebe
00000040: eb10 bb3d 7bf9 acbc d13d 1fbe e251 55bd
00000050: 1b39 d3bc 1650 7dbd d6a6 8d3c 807d 88bb
00000060: 36c7 943e b3da f33d 65f9 8c3e 418b 5cbd
00000070: f1c0 313c 9ecf 043e 16fb 3abe 3e16 4abd
00000080: 5f98 033e a44f 8a3d f1b1 023e 8a74 6f3c
00000090: d564 bebd e7af 6d3e 6082 0d3e cea0 8a3d
000000a0: f746 5ebd 530f 1c3d d8ea 0c3d 03e1 203e
000000b0: 90fc ab3d 6a25 aebd 9486 2abe c672 04bd
000000c0: c6dc 8cbd 49fb d7bd 268c 0dbe 88b0 f23d
000000d0: 377c c0bd ba7b 5b3e 77ed 803c 406b fabd
000000e0: 263c 573e 4f62 893e 1ddd e2ba 4523 b6bc
000000f0: c5ae 143e 0f56 373d 5bd6 0fbe af1d 833c
00000100: a488 e0bd 6f57 d0bd eb88 03bd 6063 3c3e
00000110: 08e2 653d dc13 3dbe 2a0d a13c a7d7 803d
00000120: b3f9 d13d ef10 a0bd 1b40 19be 29c6 abbd
00000130: 1ce4 523e d7f6 923c 47a5 e4bd a7bb 8cbc
00000140: b43e cbbd 9e38 8f3d f44f 70be 8c94 3d3d
00000150: 35e4 9f3d 9d04 a8be 8681 b8bd ae6e 393e
00000160: f2d1 5e3d 33ae 4bbe 309e efbc 2985 d8bb
00000170: ff50 83be e58a 8fbd b704 bdbc 317f 8f3e
00000180: 88a3 dbbd 8b94 c13c ada8 a53c e1d1 633d
00000190: b690 193e d212 1ebd 6b0b 93bd 7217 47bd
000001a0: 5882 2dbe 84e3 f8bd e833 163a 5dc6 29be
000001b0: bb79 ddbc ecf7 d43d f947 54be d471 c13d
000001c0: a1da c9bc 5003 4ebe a78b 2b3d 28d0 7abd
000001d0: 977b ddbb 6641 32be 83c6 21bd fea1 6ebc
000001e0: 159b 483e 43a6 a2bd 1d41 9a3d 66af b7bc
000001f0: 26ff 46be a793 06bd d199 373e cb6b 0d3a
00000200: 6eca e53d 2d84 133e 2c21 e3be a5e1 7e3d
00000210: 040b 64bd 4e2a da3c 4c29 b2be 019f 643e
00000220: d80a 6f3e b157 803d a4ed e1bc 5b04 11bd
00000230: feeb 653c 2833 9cbe bd1a 343d 9243 bbbd
00000240: f8de 233e 7b95 16bd 0b7a 75be 2548 843e
00000250: 2d9b 1bbe f3b6 763e 6ea1 a13e 3f65 793e
00000260: 55fa 713d 22f3 cbbd 9b95 f63e 5a51 fbbd
00000270: 61ca 6abe 2bc6 1e3d acde 1d3e 7f16 053e
00000280: f8ee aabe 6d13 febd 0f4b 743e 0221 7fbd
00000290: ac89 4fbd 4ae4 e3be fcc2 183e 5c0c 9cbe
000002a0: 4f42 083e 047a 033d aa41 3a3e a67d c0be
000002b0: 0dab d33d dc38 803d bd0e 02be 340c 5c3e
000002c0: e9ff 3abe ffa9 423d 2132 29be 468c cc3d
000002d0: ae6a 823d 2567 173d 1865 8e3e 020b 623e
000002e0: 9a66 bf3c 13cd 9d3d 64b4 6e3e d094 51be
000002f0: 641a a1be 501a 68be 2f49 82be f43f 223d
00000300: d010 773e 814b dfbd fcf2 d3be d368 55bd
00000310: a047 803c 0373 9a3d bf1d 343d a26d ed3d
00000320: 8c3b 1fbe bba5 963e ed18 773d bcb6 fb3d
00000330: a472 f13b 8ea9 61be 6763 7cbe cd0c 2bbd
00000340: 777d 133e 67b4 febd cae9 20bf da73 853d
00000350: a915 63be bc7d 3dbb fd4a 92bc 8398 0d3d
00000360: 7fc4 833d 33d8 93be fa45 63be b3c8 89be
00000370: 0b16 18bc 2ec5 80be 22b9 48be 515a 643d
00000380: 64b3 28bd 1be2 983e 607f 8ebe 81fe 953e
00000390: d422 9f3e 3097 4d3e 0f25 343d 97eb 30be
000003a0: a098 00be 8bfa b7ba 5951 eb3d e626 50be
000003b0: bc6c 58be 743b 2ebe 5beb 7c3e de2c 23be
000003c0: 63ad f1bd 4a73 83bb eddd b4bd 5a0e 013d
000003d0: 9db8 543e 00c1 3e3e a51c e7bd 61e6 f03d
000003e0: a4e1 63be 5c77 a5be 98bc f53d a990 1f3e
000003f0: 5037 d9ba 6f2d 613d ea5b 2d3e 17aa 6ebe
-0.15052053 -0.05677902 -0.08678511 -0.07490178 -0.13025334 0.03935749 0.16104196 0.053415727
0.10876047 -0.13228679 0.35210216 0.2581412 0.07060237 0.2449188 -0.05503607 -0.20192748
0.09134086 -0.021115055 -0.15550925 -0.052080043 -0.025784066 -0.061843954 0.017291468 -0.0041653514
0.29058236 0.11906948 0.27534023 -0.05384374 0.0108492235 0.12969825 -0.18259844 -0.049337618
0.12851094 0.067534715 0.12763192 0.014615187 -0.09296576 0.23211633 0.13819265 0.06768952
-0.054266896 0.03810055 0.034403652 0.15710835 0.08397782 -0.0850323 -0.166529 -0.03233602
-0.06878047 -0.10545976 -0.13822994 0.11850077 -0.09398692 0.21433917 0.015738232 -0.122274876
0.21019039 0.26832816 -0.0017308329 -0.022233615 0.14519794 0.044759806 -0.14046614 0.016005365
-0.10963562 -0.10172927 -0.032112997 0.18397284 0.056123763 -0.18464607 0.019659597 0.062911324
0.102527045 -0.0781573 -0.1496586 -0.083874054 0.2059483 0.017939968 -0.11164337 -0.017179323
-0.09924069 0.06993221 -0.23468 0.046284243 0.07807199 -0.3281602 -0.0900908 0.18108627
0.05439944 -0.1989067 -0.029250234 -0.006607671 -0.25647733 -0.07008914 -0.023073537 0.28026727
-0.107245505 0.023630401 0.020222032 0.055620078 0.14996609 -0.038592167 -0.07179912 -0.048606344
-0.16944253 -0.1215277 0.00057297805 -0.16579576 -0.027035585 0.1039885 -0.2073058 0.09445539
-0.024640383 -0.20118451 0.04188123 -0.06123367 -0.006759118 -0.1740776 -0.039495956 -0.014564989
0.19590409 -0.07941868 0.075319506 -0.022422504 -0.19433269 -0.032855656 0.1792977 0.00053947855
0.11220251 0.1440589 -0.44361246 0.06222691 -0.055674568 0.0266315 -0.34797132 0.2232628
0.2334398 0.06266726 -0.027579136 -0.035404544 0.014033316 -0.3050778 0.043970812 -0.091437474
0.16003025 -0.03676365 -0.23972337 0.25836292 -0.15195914 0.24093227 0.31568474 0.24355029
0.059076626 -0.09958483 0.48161015 -0.12271376 -0.22928764 0.038763206 0.15416974 0.12996863
-0.33385444 -0.12406049 0.23856758 -0.062287338 -0.050668404 -0.44510108 0.1491813 -0.3047818
0.13306545 0.032098785 0.18189111 -0.37595862 0.1033536 0.06260845 -0.12700935 0.2148903
-0.18261684 0.047525402 -0.16523029 0.099876925 0.06368004 0.0369636 0.27811503 0.22074512
0.023364354 0.077051304 0.23311001 -0.20466924 -0.31465447 -0.22666287 -0.2544646 0.03961177
0.24127507 -0.10903073 -0.4139632 -0.05210192 0.015659153 0.07541468 0.04397368 0.115931764
-0.15550059 0.29423317 0.060326505 0.12290713 0.0073684026 -0.22037336 -0.24647294 -0.041760255
0.1440333 -0.12436753 -0.62856734 0.065162376 -0.22176231 -0.0028914055 -0.017858023 0.034569275
0.06433963 -0.28875884 -0.22194663 -0.26910934 -0.009282599 -0.25150436 -0.19601873 0.055750195
-0.041186705 0.29860005 -0.27831554 0.29295734 0.3108126 0.20077205 0.043980654 -0.1727737
-0.12558222 -0.001403646 0.11490125 -0.20327339 -0.21135229 -0.17014867 0.24699156 -0.15935084
-0.11800649 -0.0040115463 -0.088313915 0.031507827 0.2077355 0.18628311 -0.112847604 0.11762691
-0.22254044 -0.32317626 0.11998862 0.15582527 -0.001657227 0.05497497 0.16929594 -0.23307072

model.lstm.bias_ih_l0 f4 [500]
00000000: a288 81be 35e7 b1be 919b 0bbf 1c0d 47bf
00000010: a8cc 0abf a722 67be 2d86 2cbf 52c6 69be
00000020: f610 2cbf d9ac 18bf b8bb 12be 535b f93d
00000030: 6984 32bf 90de a9be 93de b4be 9ca7 83be
00000040: 0ecb acbe bfa3 e8be 41d7 eabe 28bd b3be
00000050: 9b57 0bbf 06a9 00bf 5a83 bb3d a669 4ebe
00000060: e4be 39bf 9861 89be 1f96 2d3e 9bfd 13bf
00000070: 1c51 84be 2190 22be bf02 e8be fdec f1be
00000080: fbac 12bf 6601 20bf cd8f eabd 792c 26bf
00000090: 0b21 0ebf 7ce4 2cbd 710e 35bf e5f6 15bf
000000a0: ca99 e6be 0cc2 21bf b061 01bf d228 ca3e
000000b0: 86ec 36be ed52 63be ea6a 9dbe 00cd 31bf
000000c0: 288f fbbe 7baa 3abe ad1c d9be 5de0 ccbe
000000d0: 85fd d1be 67ff 09bf 52b7 cabe 9203 b8be
000000e0: 2f20 31bf d969 8ebd c540 ecbe c8ae f3bd
000000f0: 36a9 04bf 07a9 01bf da4c 993e 2210 f3be
00000100: e7d8 2dbf 7edb aabd 660d 0cbf 971e acbe
00000110: e9cf 1abf 57b4 96bd 34b7 d3be 62c7 0fbf
00000120: c423 29bf 652a 34bf 5595 40bd 7625 1abf
00000130: 2abb 21bf a35a 88be 4ac1 40bf 43e9 07bf
00000140: 2999 9fbe 8239 f3be 55c3 e1be ee63 fbbe
00000150: 1e75 5bbe f58b 61be 8f53 10bf 7cea 1bbf
00000160: fb7b c0be d0d3 03be d212 5ebf 52b5 0bbf
00000170: 0949 083e 9b1f 19bf 6c18 6ebd 7917 1cbf
00000180: 981e a7be fdf9 a4be 1654 afbe 111b ddbe
00000190: b1aa 163e 4895 5ebf e0df 02bf 9460 a7be
000001a0: 4017 0bbf 7626 39bf be9a 55bf d61c e5bd
000001b0: 7f54 8bbe 6762 0fbf dd62 38bf f676 e8be
000001c0: 313e 79be 8674 d1be 874c 36be aae6 bdbd
000001d0: a952 95be f01e ecbe ffd8 e5be df5c f7be
000001e0: ed32 86be d9b0 ddbe 07e4 e9be 86f5 06bf
000001f0: 72e3 323f f661 adbe 4f21 eebd 3b87 c3bb
00000200: ead0 2bbe ae81 21be 1bd8 1dbe 6317 8abe
00000210: 33e0 c1bc 4b24 5c3d 9f41 95bd 3ee0 52be
00000220: 20ee 1e3e 096b 00be 2b96 fcbd 5d2c 3bbe
00000230: b653 76be b998 6fbe d2f5 46be 6966 cdbe
00000240: 454e 81be 3dc3 62be 31f3 d8be ba0b 46be
00000250: d7cd 0cbe 0e00 d9be 7e3a 6fbe 5d06 8ebd
00000260: 28d1 cebe ce2a a93d 339b dfbd 2c7d ba3c
00000270: c83d dbbd 069b b1bd ea7f 52be e37e f3bd
00000280: 680c 26be 7fcb 76bb 6d00 3cbe 1992 42be
00000290: a12e 35be c89d 92be d78e ecbd 6b63 18be
000002a0: 181e 163e 4223 793d 9934 a9be 8218 b13c
000002b0: 9dee b0be 7e4b 54be b883 e5bd abd8 b1bc
000002c0: bf5f 81bd 5625 d1be f851 8cbe d154 11be
000002d0: 5193 8c3e 74d6 93bd 1169 6ebe f4eb f1bd
000002e0: 884a afbc 025e 0ebf b605 bcbe 6867 c53e
000002f0: eb83 bb3e 26a6 b1be d47e b2bc 910c a6be
00000300: d068 e1bd 0329 16be 5b25 30be ee4e a7be
00000310: 11fa 98be 6923 4dbe bf2e b1be 1f0d 953e
00000320: 9757 22be 12de 10be 4e40 16be 3114 57be
00000330: 6ada 06be 8caa 9bbd da58 8dbe 5776 81be
00000340: 1fa1 2cbe 13df d3be 09a7 7cbe e661 7cbe
00000350: fef8 f2be f39b a5be eb90 9cbe 3009 2cbe
00000360: bc59 f9bd 7094 c53e 74e2 acbe d54f 6ebe
00000370: b75f 10be c507 f5bd 16b2 90be dca9 67be
00000380: 6cc5 57be baa7 a83e ef4b 94be de2a 57bd
00000390: 9ca6 03be f679 05be 155d 71be beac 943c
000003a0: 5c95 953e 2031 71be 9ba1 97bd 9bb0 7bbe
000003b0: f127 18bd d7d8 96be 711e 68be 9654 a0bd
000003c0: e1fe f9bd c59c a2be 479e 57bd 1c99 b0be
000003d0: 6c7c 7abe 00a6 f5bd 5922 3bbe bbcc 1ebe
000003e0: d970 7bbe db3d 033e a480 a63c 8b93 83be
000003f0: b5ef 093e cfdd 02be eb12 d73a cd29 943e
-0.25299555 -0.3474671 -0.5453425 -0.7775438 -0.5421853 -0.22571813 -0.67392236 -0.2282956
-0.6721338 -0.59638745 -0.14329422 0.12175622 -0.6973329 -0.33177614 -0.3532606 -0.25713813
-0.33748668 -0.45437428 -0.4586735 -0.35105252 -0.5443055 -0.5025791 0.09155913 -0.20157489
-0.725569 -0.2683227 0.16951798 -0.57808846 -0.25843132 -0.15875293 -0.45314595 -0.4725112
-0.572952 -0.62502134 -0.11453209 -0.6491161 -0.5551917 -0.042210087 -0.7072516 -0.58579856
-0.45039207 -0.6318672 -0.50539684 0.39484268 -0.17863664 -0.22199602 -0.3074563 -0.6945343
-0.49132657 -0.18229096 -0.4240469 -0.40014926 -0.41013733 -0.5390534 -0.39592987 -0.35940224
-0.69189733 -0.069537826 -0.46143165 -0.11898571 -0.51820695 -0.5064854 0.29941446 -0.47473246
-0.6790909 -0.08342646 -0.54707944 -0.33617088 -0.60473496 -0.07358616 -0.4135071 -0.5616361
-0.660702 -0.7037719 -0.047017414 -0.6021341 -0.63176215 -0.2663165 -0.75294936 -0.53090304
-0.3117154 -0.47504812 -0.4409434 -0.49099678 -0.21431395 -0.22026046 -0.563775 -0.6090467
-0.3759459 -0.12873769 -0.8674747 -0.5457355 0.1330911 -0.5981385 -0.05812876 -0.60973316
-0.3264053 -0.32221976 -0.3424384 -0.43184713 0.14713551 -0.86946535 -0.51122856 -0.3269087
-0.5433235 -0.7232431 -0.8343924 -0.11187141 -0.27212903 -0.56009525 -0.72025853 -0.4540326
-0.2434013 -0.40909213 -0.1780263 -0.09272511 -0.29164627 -0.46117353 -0.44892117 -0.48313043
-0.26210728 -0.43298987 -0.45681784 -0.5271839 0.69878304 -0.338638 -0.11627447 -0.0059670485
-0.16778913 -0.15772125 -0.15414469 -0.26970968 -0.023666477 0.05374555 -0.07287907 -0.20593354
0.15520525 -0.1254083 -0.1233333 -0.18278642 -0.2405537 -0.23398103 -0.1942971 -0.40117195
-0.25255027 -0.2214479 -0.4237304 -0.19340411 -0.13750397 -0.42382854 -0.23362157 -0.069348074
-0.4039395 0.082601175 -0.10918274 0.022764765 -0.10705143 -0.086721465 -0.20556608 -0.11889436
-0.1621567 -0.0037657914 -0.18359537 -0.19001044 -0.17693569 -0.28636003 -0.11550682 -0.14881675
0.14659917 0.06082464 -0.3304794 0.021618132 -0.34557047 -0.20731923 -0.11206764 -0.02170976
-0.0631709 -0.40848798 -0.27406287 -0.14192511 0.27456143 -0.07218638 -0.23282267 -0.118125826
-0.021397844 -0.55612195 -0.36723107 0.38555455 0.36624083 -0.34697074 -0.021788992 -0.32431462
-0.110063195 -0.14664082 -0.1720175 -0.32677406 -0.29878286 -0.20033039 -0.34605977 0.29111573
-0.15853725 -0.14147213 -0.14672968 -0.21003796 -0.13169256 -0.076008886 -0.2760685 -0.252856
-0.16858338 -0.4138113 -0.24673094 -0.2464672 -0.4745559 -0.32345542 -0.30579314 -0.1680038
-0.121753186 0.3858981 -0.3376652 -0.23272641 -0.14099012 -0.119643725 -0.2826087 -0.2262339
-0.21071404 0.32940465 -0.28964183 -0.052531116 -0.12856525 -0.13034806 -0.23570664 0.018148776
0.29215515 -0.23553896 -0.07403871 -0.24579088 -0.037147466 -0.2946231 -0.22667862 -0.078286335
-0.122068174 -0.3176023 -0.05264118 -0.34491813 -0.24461526 -0.119945526 -0.18274821 -0.15507786
-0.24554767 0.12816565 0.020325013 -0.25698504 0.13470347 -0.12779926 0.0016408836 0.2893814

model.lstm.bias_hh_l0 f4 [500]
00000000: 7f1b 6fbe 6003 d9be 5ad2 e9be 9b95 48bf
00000010: df2b 25bf f774 6bbe 3045 31bf 868f 4bbe
00000020: f941 30bf ea1e 09bf 63fd 7fbe c4ab 6c3d
00000030: a978 18bf 585f a6be b642 cfbe ed63 9abe
00000040: 4e99 d7be 07f8 01bf 776b 11bf cce6 d7be
00000050: 9ec1 eabe 06b1 14bf b54f 9b3d d918 76be
00000060: d9e4 27bf 16b2 babe f4c2 5e3e eb05 24bf
00000070: 7b79 8ebe 922e 18be 5474 eebe 699b c9be
00000080: 604a 11bf 0256 26bf d979 1cbe 0499 22bf
00000090: e79b 0dbf 7953 acbc ae62 34bf 16e6 32bf
000000a0: b026 eabe 5382 0fbf 0323 e9be 4dee da3e
000000b0: 316d 35be 3707 27be 0a69 88be 7cf2 3bbf
000000c0: 842f 0cbf 14a3 0dbe da31 0ebf 4310 9bbe
000000d0: 0902 00bf cc5c fbbe 6af1 a3be b0cc 87be
000000e0: 52b8 35bf 7e95 0fbe ed57 f2be a8e6 56bd
000000f0: 3ee6 01bf dc09 e2be 0b8d a23e 013e febe
00000100: 10fb 34bf 7ff5 39bc 4f15 03bf 0823 bcbe
00000110: a3bc 08bf dce7 36be c1f1 e6be ab33 06bf
00000120: 766d 14bf 723d 3cbf 434b 97bc 89f8 09bf
00000130: d4a4 3fbf d91a 49be 2926 3bbf 487d 08bf
00000140: 6c4f 9abe 694e f5be 8054 b1be 047b cbbe
00000150: c47f 49be 30fe 81be 787b 1cbf 6c82 0fbf
00000160: 9a74 e9be 6878 13be 9a45 65bf 546f 18bf
00000170: ea28 393e 167a 19bf 5272 abbd 5429 16bf
00000180: fcf2 70be 1257 bdbe 6a80 a0be 9295 d9be
00000190: 4f6c 1c3e 3ada 44bf abc7 e9be 9c5e 88be
000001a0: 2ef3 15bf 58d7 26bf 3d7f 51bf afd8 55bb
000001b0: cb08 95be ebe6 15bf 2b34 2cbf fc37 fbbe
000001c0: 1a07 6dbe b857 05bf 624b 42be f7b2 35be
000001d0: 5d5d b2be 3741 f1be 1700 c5be cfc2 eabe
000001e0: 40d6 9ebe 9e2c f6be b67f ecbe 65e0 14bf
000001f0: 4b29 153f 8a0e 91be cd81 91bd c805 64bb
00000200: 6644 82be 6953 00be 1508 e5bd e957 a4be
00000210: 5b22 a7bc 9c27 be3c d4ee 813c cb9e 75be
00000220: ca94 763e 077e 0cbe 52e7 f8bd dece 7fbe
00000230: 4447 4fbe 3051 98be 6ecb 97be 4994 c0be
00000240: a593 7dbe fb3d 3dbe db52 d7be a056 72be
00000250: 0740 66bd 8e5e 06bf 5cfe 6fbe 94ec 86bd
00000260: cb13 ccbe c7d9 013d e043 8dbd 3038 973c
00000270: 72c4 a1bd 0fa6 56bd 32f9 1cbe cb21 22ba
00000280: b5ce 25be 5e1f 103d 1b6c 18be 3c36 eebd
00000290: 6049 12be ed42 46be 9466 33be ed3a 23be
000002a0: 72f7 d03d 5e55 a83d 156f 59be 2a02 343c
000002b0: 0b67 b2be cb3a 53be b7c0 96bd 63a3 eebd
000002c0: 25b2 63bd c787 f1be 1949 68be 8f02 3fbe
000002d0: 83fe 4c3e bd06 88bd 7238 4ebe cca8 66be
000002e0: 91e2 1cbd 1a2b f3be cbee d4be 8b1d cc3e
000002f0: 8397 913e fd5d 90be d46a 82bc 1290 9fbe
00000300: ed13 1fbd 248b 2dbe 1a18 2cbe 99c1 7fbe
00000310: d901 82be 3c59 93be 76af 91be 16cd 923e
00000320: 9034 2fbe dc93 5abe 0c01 34be 44ab 83be
00000330: 745c ccbc 99bc 3cbc 4ef7 3fbe afe6 5dbe
00000340: 8813 2cbe a325 91be 1639 73be e404 32be
00000350: 66f7 cdbe 94fa 72be 9c29 9fbe 39d5 f4bd
00000360: d0cf debd aad2 c23e 8fa1 b4be adcd 87be
00000370: 3a01 2bbe 556d 38be 205a 56be 2fc1 9abe
00000380: be8e 9fbe 4a05 653e b255 86be 3730 9bbd
00000390: 7006 30be 4082 13be db11 6cbe 22b6 f33c
000003a0: f727 a43e fa86 7cbe e82b 92bd 1ede 58be
000003b0: f230 8abd c46c b1be c5ca 97be 2c48 14be
000003c0: 1f93 e8bd 8aee c3be 5c1c 56bd deed 94be
000003d0: 3fce 78be 283d a4bd 89d6 dcbd 6fa7 26be
000003e0: 057b 15be 38e9 e33d 2777 66bd 29a2 6bbe
000003f0: a25d 553d 1dea 4bbc 82f7 193d 1a2e 9f3e
-0.23350333 -0.42385387 -0.45668298 -0.7835328 -0.64520067 -0.22993837 -0.69246197 -0.19878969
-0.68850666 -0.53562796 -0.24999003 0.057780996 -0.5955911 -0.32494617 -0.40480584 -0.30154362
-0.4210915 -0.50769085 -0.56804603 -0.42168272 -0.45850843 -0.58082616 0.07583562 -0.24032916
-0.6558357 -0.36463994 0.21754056 -0.6407153 -0.27827057 -0.14861515 -0.46573126 -0.3937638
-0.5675411 -0.6497499 -0.15280856 -0.63514733 -0.55316013 -0.021035897 -0.70463073 -0.69882333
-0.4573264 -0.56058234 -0.45534524 0.42759934 -0.17717434 -0.16311346 -0.26642638 -0.73416877
-0.54760003 -0.1383174 -0.5554482 -0.30285844 -0.50003105 -0.49094236 -0.32020122 -0.26523352
-0.70984375 -0.1402187 -0.47332707 -0.052466065 -0.50741947 -0.44148147 0.31748232 -0.4965668
-0.7069559 -0.011350035 -0.5120439 -0.36745477 -0.53412837 -0.17861885 -0.4510632 -0.5242259
-0.57979524 -0.7353126 -0.018468505 -0.5389486 -0.7486088 -0.19639148 -0.731051 -0.53316164
-0.3013872 -0.47911385 -0.3463478 -0.3974229 -0.19677645 -0.25389242 -0.611259 -0.56058383
-0.45596772 -0.144014 -0.8955933 -0.59544873 0.18082014 -0.59951913 -0.08371414 -0.5865681
-0.23530191 -0.36980492 -0.31347972 -0.42496926 0.15275691 -0.7689549 -0.45660147 -0.2663468
-0.5857419 -0.6517234 -0.81834775 -0.0032630374 -0.2910827 -0.5855548 -0.672671 -0.4906615
-0.2314724 -0.52086973 -0.18974069 -0.17744051 -0.34836856 -0.47120067 -0.3847663 -0.45851752
-0.31022835 -0.48080915 -0.46191186 -0.581549 0.58266133 -0.28331405 -0.07104836 -0.0034793485
-0.2544281 -0.12531818 -0.11183182 -0.3209832 -0.020402124 0.023212247 0.015860952 -0.23986356
0.24080196 -0.1371995 -0.12153496 -0.24981257 -0.2024203 -0.2974944 -0.29647392 -0.37613133
-0.24763353 -0.18480675 -0.420554 -0.23665857 -0.056213405 -0.5248803 -0.23436874 -0.065880924
-0.3985885 0.03170183 -0.06897712 0.01845941 -0.07898797 -0.05240446 -0.15329435 -0.0006184845
-0.16192134 0.035186164 -0.14884989 -0.11631438 -0.14285803 -0.19361468 -0.17519599 -0.15940447
0.102034464 0.082194075 -0.2123378 0.010986844 -0.3484424 -0.20627896 -0.07360976 -0.11652257
-0.055589814 -0.47173902 -0.22684135 -0.1865332 0.20018964 -0.0664191 -0.2013872 -0.22525328
-0.038302008 -0.4749382 -0.41588435 0.3986629 0.28435907 -0.28196707 -0.01592008 -0.31164604
-0.038837362 -0.16947609 -0.16806069 -0.24976195 -0.25392035 -0.28779018 -0.2845418 0.28672093
-0.17109895 -0.21345466 -0.17578524 -0.25716603 -0.024946429 -0.011519575 -0.18746683 -0.2167003
-0.16804326 -0.28349027 -0.23752245 -0.17384678 -0.40227813 -0.237284 -0.31086433 -0.119547315
-0.10879481 0.3805135 -0.3527951 -0.26524106 -0.16699687 -0.18010457 -0.20932817 -0.30225512
-0.3116359 0.22365299 -0.26237255 -0.075775556 -0.17189956 -0.14405155 -0.23053686 0.029749934
0.3206174 -0.24660864 -0.07137281 -0.21178481 -0.06747617 -0.34653294 -0.29646888 -0.14480656
-0.11356186 -0.38267928 -0.05227314 -0.29087728 -0.24297427 -0.08019477 -0.10783107 -0.16274808
-0.1459771 0.11128467 -0.056265976 -0.23011078 0.05209125 -0.012445954 0.037589557 0.3108986

model.fc.weight f4 [1, 125]
00000000: 5aa1 183d 6577 b0be 4332 753e 88d3 16bf
00000010: ff9e 21be 2e6c 1e3e 720f fb3e 3945 0d3e
00000020: a695 2bbe 0fd8 d23e 7f39 01be 0b7c 903e
00000030: 75ff 833e e32f 39be 72d7 8dbe f065 d6be
00000040: 916a d33e 2733 9dbd 7909 efbd 5551 fb3e
00000050: 71d2 e73e 00ec 00bf dda8 903e b9d5 d3bd
00000060: 19ad 593e 3387 aebe 6fcb 7b3e 1678 9ebe
00000070: fc7b 283f 4489 98bd ff5f aabe d7c9 e33e
00000080: 4040 dabe 8ead 59be 3b39 2d3e 224e d53e
00000090: e9b3 a0be ba6f c13e c058 0c3f 74c1 a4be
000000a0: f2ac 4b3e 0d41 773e 58fd f43e 244b fb3d
000000b0: 130e 383e 50ea afbe 2882 cf3e eee2 cebe
000000c0: 5a05 aabe 7569 b43d aed6 6ebd 0307 63be
000000d0: 30d6 11bf 53a5 533e 048c c9be ff3c b5bd
000000e0: c7e2 e3be 5e67 f8bd 1c1b 8fbc 5342 ae3e
000000f0: bbd9 c3be c230 fabd 0a82 cc3e 0892 b3bc
00000100: 5e1a 19bf ffa7 88be 45c1 413c a13f af3e
00000110: 9919 84bd f67c 923e 4833 00be 2ed6 ff3e
00000120: 3d79 e43e 2740 9e3e dd69 8c3e 5258 9bbe
00000130: aff9 823e 551a 9dbe 5193 bb3d bcdb 043f
00000140: 2f59 db3e 8512 67bd 399e 42be 0e97 08bd
00000150: 9eae 4b3e 002c c1bd 95a6 d4be 47e4 863e
00000160: aded bebe e8bb ae3e 0a2d 133f 5671 b6bd
00000170: 1c22 a4be 0471 903e 3161 b8be 7c2b ecbe
00000180: 8e1e 89be 246d 233e c607 08bf 9b15 a43e
00000190: 7005 babe 1708 89be 03f0 febd 5681 a4be
000001a0: 773b aa3e 733f 0cbf 6852 c6be e0bc cc3e
000001b0: 6c4d 89be fbbd 4c3d dd32 083f b923 c93e
000001c0: fa7f 4dbd ed94 823e 0676 cfbe 3a74 0f3f
000001d0: bea2 42be 4cda eb3e 9f49 86be eda5 f5bd
000001e0: b55c 863e f80d 7bbe 0500 8bbe 4f0c d03d
000001f0: 8a9a 623e
0.03726325 -0.3446609 0.23944955 -0.5891652 -0.15783308 0.15470955 0.4903522 0.13795938
-0.16756305 0.41180465 -0.1261959 0.28219637 0.25780836 -0.18084674 -0.27703434 -0.41874647
0.4129224 -0.07675772 -0.11671729 0.4908549 0.45277742 -0.5036011 0.28253832 -0.10343499
0.21257438 -0.34087524 0.24589323 -0.30950993 0.65814185 -0.07448056 -0.33276364 0.4448993
-0.42627144 -0.21257612 0.16916363 0.41661173 -0.3138726 0.37780553 0.5482292 -0.32178843
0.19890192 0.24145909 0.47849536 0.12270191 0.17974119 -0.34358454 0.4052899 -0.4040751
-0.33207208 0.08809177 -0.058310203 -0.22170644 -0.5696745 0.20668535 -0.39364636 -0.08849525
-0.44508955 -0.12129091 -0.017468981 0.34034976 -0.38252053 -0.12216331 0.39942962 -0.021920219
-0.5980586 -0.2669067 0.011825864 0.34228233 -0.06450195 0.28610963 -0.12519562 0.49968094
0.44623747 0.3090832 0.27424517 -0.3034082 0.25581118 -0.30684152 0.09158958 0.5189779
0.4284148 -0.056414146 -0.1900567 -0.033347182 0.1989083 -0.094322205 -0.41533342 0.26346037
-0.37290707 0.34127736 0.574906 -0.08908336 -0.32057273 0.28211224 -0.3601165 -0.46126926
-0.26781124 0.15959603 -0.5313686 0.32047734 -0.36332273 -0.26763985 -0.12448122 -0.32129925
0.33248493 -0.54784316 -0.38734746 0.3998785 -0.2681688 0.049985867 0.5320261 0.39285067
-0.050170876 0.25504246 -0.40519732 0.5603672 -0.19007394 0.46064985 -0.26228043 -0.119945385
0.26242605 -0.24517047 -0.27148452 0.10158598 0.22129264

exp_avg f4 [500, 8]
00000000: d81a 8735 f17c 6cb6 214c 1e37 b5dc 9e36
00000010: bb88 1f37 b232 8736 30c4 c936 3879 2135
00000020: 8dc4 85bb c78e a3bb 4c69 0a3b a399 e13a
00000030: 4fe3 c6b9 7b5b ceb7 3419 20bb 4382 913a
00000040: 00d0 c2b8 b820 e7b8 060a 87b8 67e7 72b8
00000050: 252a 3537 5d3e b637 1806 e2b8 b8b4 22b8
00000060: 38a0 153a dd31 df39 7d4d c5ba e789 b2ba
00000070: cea3 1436 acde 2336 10cf 2bb9 6910 6cba
00000080: 79c0 2e38 a0aa 0638 0ab5 ca38 a879 af38
00000090: 83bd a4b6 92d5 9fb6 f4c0 2d38 7b8d 1336
000000a0: 993a 9538 85cd 4ab9 302d c638 1c8c 2a39
000000b0: 7b86 3fba b9c2 8cb9 9de5 1cb8 1bba 7f39
000000c0: 4563 9738 9e1a 1abb c7a8 44b9 87db 12ba
000000d0: 0877 99ba df9f c8ba 7852 abb9 1035 d5ba
000000e0: 748f 523b 47bf 733b 6adc 303a 8a75 183a
000000f0: 8c0d 843a 5ea8 d839 7dce 413b bead a9ba
00000100: 13ee 983a 7dcc af3a 5ccf 68ba 48b1 49ba
00000110: eb2e 7939 2471 9039 1607 1a3a 9d03 14ba
00000120: f955 bab9 3d20 bcb9 98ff dfb9 1755 a4b9
00000130: 9f43 b3b7 cbcc aab8 8acb c5b9 0e8d 8bb9
00000140: 165a 8b39 148e 9d38 5b62 aeb8 05aa d3b9
00000150: 737f 2938 96d7 813a 37fe ceb8 1ff7 06ba
00000160: cacf ad3a e6e0 b43a b599 073b 1888 9c3a
00000170: 2382 bfb8 0cfc 04b8 21c4 103b c06a a2b9
00000180: ab55 30b8 6919 253a 2c13 09ba ed38 c1b9
00000190: dde0 323b 99f6 af39 939f c5b9 3023 97b9
000001a0: 98d8 e7b8 cce6 9eb8 d14a 98b8 93a2 5fb7
000001b0: 44bf 9fb7 fa66 6937 44ac b3b8 60ed 9837
000001c0: 9a4c 62ba a7f5 83ba 4de4 ae39 6fff 9d39
000001d0: 3d57 9cb8 c0ae 80b7 888a 0dba cf3b 7539
000001e0: dec5 3fba c50f 65ba 51d8 58ba b39d 40ba
000001f0: 295f ee36 242f a237 1029 60ba 04f1 f2b9
00000200: d436 4eba 7a1d d439 043a 44ba 9f4f dcb9
00000210: 1aad 613a c5f3 bc3a 2c5e 2dba 5a15 af38
00000220: 2d69 7e36 45e0 d4b9 d279 a539 559a 6039
00000230: 935d 38b9 fe16 4ab9 b0fc 2b38 fc01 1239
00000240: 879a 38b8 caff d0b8 84ae dcb7 481b 3c37
00000250: 674b 2fba d604 01ba 5ae9 49b8 786b 5337
00000260: d54c faba 199e 5d3a 6e61 47bb 1a78 efba
00000270: 9715 fe3a cb1c 2c3b 6a21 22bb 4973 deb9
00000280: a1a7 3039 5b47 b4b9 1d04 d53a 1a08 b73a
00000290: 07cb 00ba e603 2eba dbd2 1f3a 2089 b83a
000002a0: ba14 d1b9 6666 19ba 0e29 0dba 5acb 19ba
000002b0: bc9e ce38 f357 3aba b849 18ba e538 bfb9
000002c0: 4dd4 2e39 d0ea c53a 2e5f a4b9 6bb6 b0b8
000002d0: 75e1 343a 40d6 9e3a ecdb 4d3a 096e 0ab9
000002e0: 6307 a03a 3386 8d3a b481 f23a ce0f c93a
000002f0: 02e7 1bb9 0d5e eab8 5a8d cc3a a3b2 623a
00000300: 0e01 07b9 418f 61b9 92aa 9637 197f 9c35
00000310: d2d4 4fb8 e51c afb8 152f 97b8 8bc2 88b8
00000320: 1d51 00b9 b64a 10bb 5092 54ba d0ea 3fba
00000330: e476 2739 6762 a338 22be e9ba 7a37 49ba
00000340: 9a74 7f3a 2cb6 223b 2d4f 5f3a 76be 403a
00000350: 36b8 483b 37d0 8c3b d6ec 143b e222 1eba
00000360: 9282 5fba 462e b6ba 797f 03ba 165f 6139
00000370: 3862 5d3c 4045 09ba 38b3 7eba ce26 6d39
00000380: b63f 5938 4f93 8eb8 a4b6 c7b9 3083 b7b9
00000390: 93d2 7b37 5d7b 9037 e15c 7cb9 7d59 88b9
000003a0: 24ae a3bb 05bd e5bb 1993 9ebb a842 81bb
000003b0: f3a0 0eba 877c a7ba 1e37 b0bb f99f 34b9
000003c0: b1b5 03ba 2ce0 a8b9 7e8d 27ba ba62 ceb9
000003d0: d3b1 55bb a7c5 de3a 72cf fab9 e4c0 69b9
000003e0: a900 a0b8 f106 42ba 8637 0039 2804 413a
000003f0: 1e94 4a39 df91 ff39 832b 3eba 6bb6 803a
1.0066096e-06 -3.5239466e-06 9.435259e-06 4.7344606e-06 9.508974e-06 4.0292152e-06 6.013106e-06 6.015357e-07
-0.0040822686 -0.0049913856 0.002111989 0.0017211925 -0.0003793486 -2.4599713e-05 -0.0024429085 0.0011101443
-9.289384e-05 -0.00011021033 -6.439169e-05 -5.7912806e-05 1.0798253e-05 2.172513e-05 -0.00010777655 -3.8792117e-05
0.00057077734 0.00042571026 -0.0015053 -0.001362142 2.2149065e-06 2.4418505e-06 -0.00016384968 -0.0009005131
4.1664087e-05 3.2106997e-05 9.665832e-05 8.3673105e-05 -4.909643e-06 -4.763432e-06 4.1426116e-05 2.198706e-06
7.115788e-05 -0.00019340783 9.4497926e-05 0.00016264658 -0.0007306111 -0.0002684796 -3.7407142e-05 0.00024388025
7.2187315e-05 -0.00235144 -0.00018754891 -0.000560217 -0.0011708448 -0.0015306434 -0.00032677106 -0.0016266424
0.0032128962 0.0037192868 0.00067467114 0.00058158545 0.0010074838 0.00041324174 0.002957254 -0.0012945456
0.0011667631 0.0013412383 -0.00088809966 -0.00076939585 0.00023763969 0.00027550117 0.00058756897 -0.00056462904
-0.0003554074 -0.00035882174 -0.00042724307 -0.00031343914 -2.1369951e-05 -8.144377e-05 -0.00037726416 -0.0002661724
0.00026579265 7.5128075e-05 -8.315287e-05 -0.0004037173 4.0411436e-05 0.0009906169 -9.870197e-05 -0.0005148518
0.0013260779 0.0013799935 0.0020690982 0.0011942415 -9.1318296e-05 -3.170599e-05 0.0022089558 -0.00030978583
-4.2041454e-05 0.0006298037 -0.0005228992 -0.00036854242 0.0027294673 0.0003356233 -0.0003769366 -0.0002882718
-0.00011055282 -7.5770164e-05 -7.2618604e-05 -1.3329688e-05 -1.9043342e-05 1.3911858e-05 -8.567472e-05 1.8230348e-05
-0.00086326303 -0.0010067717 0.00033357964 0.00030135686 -7.454909e-05 -1.5340163e-05 -0.0005399366 0.00023387301
-0.0007315556 -0.00087380066 -0.000827198 -0.0007347718 7.104031e-06 1.9333856e-05 -0.00085510407 -0.00046337408
-0.00078664464 0.00040457753 -0.00074854516 -0.00042020992 0.0008608863 0.0014415911 -0.0006613459 8.348627e-05
3.791017e-06 -0.00040602885 0.00031562016 0.00021419798 -0.00017582467 -0.00019272786 4.100491e-05 0.00013924384
-4.4012933e-05 -9.965857e-05 -2.6307309e-05 1.1212025e-05 -0.0006686956 -0.000492168 -4.813946e-05 1.2601602e-05
-0.0019096384 0.00084540393 -0.0030423063 -0.0018270046 0.0019385096 0.002626228 -0.0024739155 -0.00042429034
0.00016847115 -0.0003438544 0.0016251836 0.0013964206 -0.0004913066 -0.0006638154 0.00060967886 0.0014078952
-0.0003987903 -0.00058517454 -0.0005384841 -0.00058667886 9.852412e-05 -0.00071084424 -0.0005809325 -0.0003647275
0.00016673021 0.0015099887 -0.00031351432 -8.426312e-05 0.0006900051 0.0012118295 0.00078529003 -0.00013201697
0.0012209233 0.0010797441 0.0018501789 0.0015339793 -0.00014868009 -0.00011175508 0.0015606091 0.0008647835
-0.00012874996 -0.00021511038 1.7960821e-05 1.1659896e-06 -4.955085e-05 -8.350032e-05 -7.209011e-05 -6.521222e-05
-0.00012237248 -0.0022017187 -0.00081089605 -0.00073210616 0.00015970651 7.7907745e-05 -0.0017833153 -0.0007675808
0.0009744853 0.0024827821 0.0008518573 0.00073525996 0.0030627376 0.004297282 0.0022724173 -0.00060324196
-0.00085262314 -0.0013899289 -0.00050162483 0.00021493094 0.013512187 -0.00052364543 -0.0009716037 0.00022616537
5.1796167e-05 -6.798526e-05 -0.00038092316 -0.00035002222 1.5009794e-05 1.7223583e-05 -0.00024067193 -0.00026006615
-0.0049951244 -0.0070110583 -0.0048393128 -0.0039447136 -0.00054408534 -0.0012778201 -0.005377664 -0.00017225732
-0.00050243275 -0.00032210478 -0.00063916284 -0.0003936494 -0.0032607212 0.0016996161 -0.00047838275 -0.00022292469
-7.6295175e-05 -0.0007401547 0.00012227715 0.0007362985 0.00019319399 0.00048746073 -0.00072544086 0.000981999

exp_avg_sq f4 [500, 8]
00000000: 3016 5734 34c6 4035 8d47 bb35 9ca5 ad35
00000010: 24ad e236 4fa8 0536 d9da b135 f181 fe35
00000020: b646 1c38 970a 5e38 21b7 7538 a695 2738
00000030: a8c1 893a b64b e63a 9a29 4538 63fa f037
00000040: 5a7e cc36 ee63 8036 66d6 d936 5afe b936
00000050: 38e5 8a3a 1913 fc39 3b01 ba36 9460 b136
00000060: 4921 4a3a db76 903a 2c9b 093b 5cfb d33a
00000070: 22ce 033b a4ab 633b c7b7 003b d5e6 753a
00000080: 9911 ef37 0fa7 3338 9e19 9038 829d 6738
00000090: 9f1d 6c39 1a1f dc38 3bff 8c38 7083 f837
000000a0: a564 6037 4c9c a437 1b73 bc37 1001 7337
000000b0: b74e 5c3b 002f c739 53dd b637 767d f336
000000c0: 6e4c 2339 163c 3139 1912 513a 1c42 273a
000000d0: a0bc 2f3b 454b 483a 4708 153a a9c1 fa39
000000e0: a47f 4937 3366 b537 242c 1138 370c 0738
000000f0: f5bf 5138 606c 3d37 6e4f a437 3194 1638
00000100: 0f73 1836 5d50 e136 d9ef 2936 8af0 ad36
00000110: 37b5 8b36 3544 3337 f79c 4236 c6e5 7236
00000120: 7360 1138 c3dd 2539 4a00 1638 a2e8 fe38
00000130: 4ceb ba39 4b34 e839 3ea2 9938 65d9 8c38
00000140: e7f0 9a36 a1af 6f37 75fa 3236 bfb8 1137
00000150: 24f0 e838 144b 7d38 514c 1837 3e23 ab36
00000160: d715 e637 5081 3038 e7a8 f037 8e64 b837
00000170: 8714 cd3b b25d 5e3a 4c2e 5338 82d9 9d37
00000180: 14ac dd37 004f 1538 571d 0839 bfe6 d338
00000190: 194a 803b da22 f038 bea8 5839 858c 3538
000001a0: b37a bf37 0d2f 2a38 6fad 7538 9e8d df37
000001b0: d18d 3238 80e7 9038 f958 f937 4b8a f737
000001c0: 56d1 db36 01a9 3a37 752e 4239 b382 1c39
000001d0: 1cbf 2538 bd37 7137 3681 1839 8bf2 9638
000001e0: 0ef6 0037 f034 2937 d279 9f37 2ba1 4d37
000001f0: 578a ce36 8374 8c37 e580 0938 9f2e d336
00000200: 700a fe38 79ef 9f39 189c 1d39 eafc 4739
00000210: 7e2d 423c 4dfa 053b 6aa5 0139 d1c0 ed38
00000220: ecae 2b37 bfe7 4837 23f2 1639 22af dd38
00000230: acb7 4e39 38b9 a039 4cfb 2238 b523 2d38
00000240: 5723 3d37 866a 0538 c823 5c37 0f8a cb37
00000250: 1a0d 843a 6299 7539 7d76 2238 e3d0 7237
00000260: ed0b e938 1c56 6439 c021 d838 e6d0 3139
00000270: a8e7 863a 877d a13a 46b7 1039 f4eb f138
00000280: aff1 b738 bf19 0639 2a39 c63a 2aec 963a
00000290: 8b37 5e3a e3cf 3f3a 4499 af3a 9eac 173a
000002a0: 193f 4737 d18c a038 f4a7 da37 47e8 8c38
000002b0: 4d8a 9e3a ccf7 1139 19e6 ca39 02bc 9538
000002c0: 29f1 f337 9ea1 3a38 0712 3f38 9712 a037
000002d0: 8a45 943b f776 4c3b 9a96 1638 cd4a cf37
000002e0: bf41 de36 af9c fe36 7a80 7c37 fa49 0c37
000002f0: a630 4037 1842 6c37 e4fb 4937 34a3 8d36
00000300: db3a 2837 5ccb be37 60dd c238 07ee 3938
00000310: 0ab9 0b39 1a8f 4c39 f9f1 0a38 08a3 6638
00000320: 61a0 d638 c623 0539 f192 6739 58ab 2339
00000330: de1b 0b3a 2579 443a 4f97 3939 b7c5 ed38
00000340: 4218 0338 2a29 4238 bffb eb37 0636 b237
00000350: 7a8c fa3a 4c60 d539 f736 ad39 6e71 9d37
00000360: 660e 0439 d1e9 6739 9425 8a39 2ed8 3339
00000370: da2f 323c 2717 f33a 2883 1e39 908a 0239
00000380: 332b aa36 30b1 7e36 5250 0637 4639 0f37
00000390: 1521 e237 23b4 8d38 e56f 5037 0fd4 e236
000003a0: 3536 7838 809b f938 f0cc d038 5f4c a438
000003b0: 2b4b 823a bce7 1b39 6fc3 e638 9df4 7f38
000003c0: 8fc8 c737 6445 6537 5b86 4a38 97d5 4938
000003d0: 359c 183b 43e1 6639 dffd 1e38 68b1 6138
000003e0: bd46 5238 b134 bf37 34a6 1139 ad5c 2d38
000003f0: 2f49 9839 b62c 133a 9544 d338 b22d b638
2.0031507e-07 7.1814e-07 1.395341e-06 1.2937703e-06 6.755481e-06 1.9916513e-06 1.3251221e-06 1.8962293e-06
3.7259153e-05 5.2938787e-05 5.8583104e-05 3.9955274e-05 0.0010509985 0.0017570171 4.7007205e-05 2.8726825e-05
6.094383e-06 3.8263306e-06 6.492063e-06 5.54304e-06 0.0010596877 0.00048079414 5.543375e-06 5.2862542e-06
0.00077106484 0.001102175 0.002099703 0.0016172933 0.0020111878 0.0034739757 0.001964079 0.0009380405
2.8499215e-05 4.283251e-05 6.871227e-05 5.5221382e-05 0.00022517749 0.000104962106 6.7232606e-05 2.962511e-05
1.3374874e-05 1.9623105e-05 2.2464947e-05 1.4484176e-05 0.0033616254 0.00037991256 2.1799153e-05 7.25657e-06
0.00015573364 0.00016902419 0.0007975414 0.00063803955 0.002681531 0.00076406106 0.00056851323 0.00047828004
1.2010252e-05 2.1624472e-05 3.4611803e-05 3.2197884e-05 5.0008257e-05 1.1290511e-05 1.958731e-05 3.59008e-05
2.2716738e-06 6.714878e-06 2.5322572e-06 5.183804e-06 4.163619e-06 1.0685112e-05 2.8999618e-06 3.6194556e-06
3.466052e-05 0.00015818239 3.5763056e-05 0.00012154995 0.00035651994 0.0004428945 7.3258285e-05 6.716213e-05
4.6176024e-06 1.4286402e-05 2.6669852e-06 8.685688e-06 0.00011107352 6.0389822e-05 9.077675e-06 5.1003e-06
2.7428307e-05 4.20821e-05 2.868888e-05 2.1981334e-05 0.0062585506 0.00084825896 5.0349438e-05 1.8817143e-05
2.6425383e-05 3.5597943e-05 0.000129809 0.00010104244 0.003915083 0.000114505834 0.00020662227 4.3284632e-05
2.282611e-05 4.0574978e-05 5.8574075e-05 2.6649617e-05 4.2570584e-05 6.909575e-05 2.9724544e-05 2.9509092e-05
6.5510785e-06 1.1125813e-05 0.00018518588 0.00014926009 3.951705e-05 1.4377697e-05 0.00014543984 7.1977345e-05
7.686684e-06 1.008551e-05 1.9011004e-05 1.2256477e-05 6.1553833e-06 1.6743556e-05 3.2783388e-05 6.2937174e-06
0.00012113608 0.00030505264 0.00015030836 0.00019072337 0.0118516665 0.002044338 0.0001236402 0.000113369555
1.0233121e-05 1.1974887e-05 0.00014395318 0.00010570722 0.00019714114 0.00030655577 3.885785e-05 4.127967e-05
1.1273506e-05 3.180888e-05 1.3121353e-05 2.4263774e-05 0.0010074705 0.0002342216 3.873416e-05 1.4472959e-05
0.00011112527 0.00021775853 0.00010305969 0.00016957856 0.0010292428 0.0012320735 0.00013801185 0.00011535725
8.771137e-05 0.00012788827 0.0015123237 0.0011514474 0.00084769045 0.00073170493 0.0013397117 0.0005785915
1.1876015e-05 7.6556236e-05 2.6065834e-05 6.718985e-05 0.001209566 0.00013920589 0.00038699878 7.139893e-05
2.9080156e-05 4.4496373e-05 4.5554738e-05 1.9082143e-05 0.0045248913 0.0031198838 3.5903046e-05 2.4711155e-05
6.6237694e-06 7.5880303e-06 1.5050284e-05 8.361874e-06 1.1455419e-05 1.4082085e-05 1.20391815e-05 4.221127e-06
1.0027284e-05 2.2744462e-05 9.291875e-05 4.4329117e-05 0.00013325005 0.00019508266 3.312712e-05 5.4988108e-05
0.00010234188 0.00012697195 0.00022084617 0.00015608722 0.0005306582 0.00074948586 0.00017699342 0.00011337868
3.1255426e-05 4.629154e-05 2.8131411e-05 2.124441e-05 0.0019115352 0.00040698273 0.00033038083 1.8768678e-05
0.00012593865 0.0002211698 0.0002634941 0.00017151303 0.0108756665 0.0018546329 0.00015116914 0.00012449385
5.071424e-06 3.7952086e-06 8.005723e-06 8.536799e-06 2.6956704e-05 6.756957e-05 1.2423819e-05 6.7600117e-06
5.9178292e-05 0.000119022094 9.9563855e-05 7.8343546e-05 0.0009940615 0.0001486828 0.00011003657 6.102455e-05
2.3816041e-05 1.366562e-05 4.828568e-05 4.8121055e-05 0.0023286466 0.00022018426 3.790657e-05 5.3809403e-05
5.013378e-05 2.279351e-05 0.00013890193 4.1332725e-05 0.00029046225 0.00056142674 0.000100740384 8.686948e-05

exp_avg f4 [500, 125]
00000000: 7cb9 b3b3 1e44 91b4 8555 b832 866a dcb3
00000010: 8d49 28b3 4f1c 7a35 003b 9b34 cfbc 7535
00000020: d0c2 fc32 57e2 52b1 dfc0 3933 2a0c 1b37
00000030: 2f29 6bb2 92f8 5db3 5113 2a31 8e98 c8b3
00000040: 79b0 1c34 59de 3132 639f 9e33 dac8 0bb4
00000050: e95e 2833 8880 3634 2632 3236 6fde e434
00000060: abb7 85b3 4848 9035 c798 2a37 c6c2 24b4
00000070: a3d8 b134 060d 8db5 23a6 5633 2410 01b5
00000080: 8387 34b2 d208 b7b2 1a3f 4535 5447 c331
00000090: 6d31 57b1 e413 2d36 cde5 69b3 2616 2db2
000000a0: 14ed a435 2702 d632 04a6 3d2f b182 a137
000000b0: 41e8 ea32 e8de 3832 9e9e 6934 1684 c1b1
000000c0: bc6d afb1 11a9 6435 0900 6eb4 2478 7f34
000000d0: 6570 73b5 3b13 8434 0eb9 9ab4 5699 acb5
000000e0: afb9 0eb4 c367 4e36 ba49 07b4 81e7 f335
000000f0: 9c3c 5933 4978 1833 e6d9 5cb7 9526 5034
00000100: ec31 0db2 6c1e 17b5 84d0 c530 3545 1535
00000110: 2629 0431 9d93 88b5 fe06 2033 51a4 fa34
00000120: 91e4 5bb2 5042 d8b0 2e0e f235 e4b2 9bb2
00000130: f7e3 9332 3027 f8b3 b843 d233 4c97 db31
00000140: 26a0 4a35 7b63 16b3 080f 7e33 b52c c9b4
00000150: f54d 8235 ebe0 1eb5 69e4 39b5 5722 bc31
00000160: c69c e4b2 7d88 8934 0fa7 ed32 9b78 14b4
00000170: a97b 85b7 8462 0b32 8203 88b5 aeef 0bb3
00000180: aaf7 48b2 abdb 6532 ca46 aab3 d925 1132
00000190: 4d67 f636 5b2a 9cb0 d852 e134 d8f6 5934
000001a0: 94a7 84b3 c1bd 9ab3 47bf 48b1 3794 73b7
000001b0: bfc5 26b5 e578 83b4 487d f9b1 8523 1635
000001c0: 8a0e 1c35 25ea a033 64aa 18b3 b26c dcb3
000001d0: cc10 99b1 8099 2933 5b05 9eb4 698c d4b2
000001e0: 5613 6732 a318 dab3 d3a1 8433 8abb af32
000001f0: 0185 acb7 5f57 16b5 5889 8bb4 9589 32b3
00000200: 34c6 96b3 d01a bd31 fd69 7db6 5202 2034
00000210: bb6e 4036 0cde 1e34 123d bfb4 f4aa 2cb6
00000220: 5d56 ec39 f35d 83b3 51bb 1835 1414 9b34
00000230: 0f71 2334 a3cc 91b5 dd98 9335 42e0 f635
00000240: d7eb 7cb3 a050 2334 76dc be33 4ac6 d238
00000250: aee7 28b5 0a8d 35b5 1fbf ca37 838b d039
00000260: e558 8a35 a972 8ab3 a52f 6238 1a4f 8535
00000270: 6654 a3b6 c39c 5433 91f5 a7b5 fb35 ab37
00000280: 7511 85b4 56fe aeb4 f0da 7938 00ac 4433
00000290: 08bc 86b3 eaa5 57b5 3db6 d9b4 baf9 72b5
000002a0: 4b2e 1d3a d5db 97b6 d07d 09b5 812c 63b7
000002b0: 2800 62b3 3fb0 1134 c937 cfb6 fb79 8e33
000002c0: 6331 df33 bb3a 68b6 4803 1d35 7c90 1b36
000002d0: 2923 ebb7 f13b 0136 bc26 0539 33df 46b4
000002e0: 0617 9434 dc64 a635 e07d 6435 348f e0b9
000002f0: 9c37 7db8 d9ee 3132 397e 8cb8 02cb 4d33
00000300: 8773 ce37 29bd 5133 f95e 54b8 2c73 31b6
00000310: 3a23 d4b3 d916 ce34 7039 2831 4861 1338
00000320: 0973 00b3 bfeb 4133 ee92 66b6 58a3 06b2
00000330: d930 79b4 d59f a8b5 0bb0 f0b4 8f8f f836
00000340: ab83 1735 7ff0 d536 14ab 34b7 a6ab f3b0
00000350: 3612 f533 4906 0237 4d6a a536 8980 fc34
00000360: 9d70 14b4 f4af 0cba 2fef 07b3 2cd2 fab7
00000370: 195e 1d33 2386 d2b4 5f80 3a34 0aea 6a36
00000380: b8fe 8933 3b5c 3939 2749 1db3 ef2b 97b6
00000390: 0003 8037 b2d1 4e36 de94 de32 83dd 8832
000003a0: 225f 02ba d79b 9c34 ec16 40b5 5ee1 47b4
000003b0: 201b e531 454f aa34 4d5f 96b6 193e af35
000003c0: 8e6a eeb6 5081 8d34 2064 45b5 98fa c8b5
000003d0: 0a27 1934 7248 dcb4 fdf7 3cb5 7109 a735
000003e0: 5f04 cf33 4eed 25ba 3b95 43b5 a7b5 44b5
000003f0: 94c0 bc31 070c a832 805a c632 345c 5935
-8.3690765e-08 -2.7057916e-07 2.1459309e-08 -1.0263925e-07 -3.9182442e-08 9.317345e-07 2.8913928e-07 9.1544365e-07
2.9425252e-08 -3.0687681e-09 4.3249084e-08 9.241552e-06 -1.3688164e-08 -5.1681646e-08 2.4749236e-09 -9.340975e-08
1.4592833e-07 1.0353312e-08 7.3864406e-08 -1.3018453e-07 3.920187e-08 1.699683e-07 2.6553257e-06 4.263015e-07
-6.226704e-08 1.0749873e-06 1.0168361e-05 -1.5344548e-07 3.3126443e-07 -1.0509109e-06 4.9976858e-08 -4.807973e-07
-1.0508191e-08 -2.1308015e-08 7.3480044e-07 5.683356e-09 -3.1314713e-09 2.5790587e-06 -5.4458543e-08 -1.0074961e-08
1.2287951e-06 2.4913858e-08 1.724843e-10 1.9253554e-05 2.7346802e-08 1.0760893e-08 2.175752e-07 -5.6320557e-09
-5.1056457e-09 8.518264e-07 -2.216549e-07 2.3792433e-07 -9.068811e-07 2.4600908e-07 -2.881938e-07 -1.2859625e-06
-1.3292332e-07 3.075679e-06 -1.2599676e-07 1.8172287e-06 5.0579374e-08 3.5499657e-08 -1.3163755e-05 1.9385546e-07
-8.218631e-09 -5.6296153e-07 1.43929e-09 5.5607535e-07 1.9231918e-09 -1.0175751e-06 3.7259262e-08 4.6685685e-07
-1.2799448e-08 -1.5734916e-09 1.8034532e-06 -1.8125725e-08 1.7216719e-08 -1.1555528e-07 9.791205e-08 6.3909393e-09
7.548391e-07 -3.5015074e-08 5.9152654e-08 -3.7471696e-07 9.708443e-07 -5.9186885e-07 -6.925025e-07 5.475424e-09
-2.6613986e-08 2.5617547e-07 2.76664e-08 -1.382745e-07 -1.591242e-05 8.113265e-09 -1.013381e-06 -3.2581447e-08
-1.16978445e-08 1.3379501e-08 -7.929118e-08 8.448716e-09 7.343397e-06 -1.1362532e-09 4.1969793e-07 2.0299501e-07
-6.177211e-08 -7.2057e-08 -2.921256e-09 -1.4518438e-05 -6.212758e-07 -2.4488614e-07 -7.2610966e-09 5.593104e-07
5.8135686e-07 7.493171e-08 -3.5545227e-08 -1.026432e-07 -4.4547956e-09 3.9487986e-08 -2.943369e-07 -2.47439e-08
1.3450366e-08 -1.01558975e-07 6.176165e-08 2.0457964e-08 -2.0565933e-05 -5.6006496e-07 -2.5990698e-07 -4.1568985e-08
-7.020972e-08 5.503672e-09 -3.776163e-06 1.4902005e-07 2.8674683e-06 1.4795677e-07 -3.5620957e-07 -2.5729505e-06
0.00045077773 -6.117252e-08 5.6896994e-07 2.8885609e-07 1.5221688e-07 -1.0862899e-06 1.0996843e-06 1.8393696e-06
-5.8887817e-08 1.5209889e-07 8.887666e-08 0.000100505145 -6.2922015e-07 -6.7632993e-07 2.4169274e-05 0.00039776796
1.0307673e-06 -6.446982e-08 5.392697e-05 9.932294e-07 -4.867604e-06 4.950267e-08 -1.2513939e-06 2.0409925e-05
-2.4785882e-07 -3.259508e-07 5.9570128e-05 4.579124e-08 -6.274064e-08 -8.033518e-07 -4.0551996e-07 -9.0515425e-07
0.0005995973 -4.5257425e-06 -5.121956e-07 -1.3540616e-05 -5.2619868e-08 1.3568295e-07 -6.175575e-06 6.6345784e-08
1.039323e-07 -3.460488e-06 5.849183e-07 2.31809e-06 -2.8030556e-05 1.9257388e-06 0.00012698298 -1.8521386e-07
2.75839e-07 1.2397318e-06 8.511979e-07 -0.00042831304 -6.037169e-05 1.0357064e-08 -6.699231e-05 4.7914916e-08
2.461091e-05 4.8833645e-08 -5.063319e-05 -2.6442094e-06 -9.878427e-08 3.8387114e-07 2.4479867e-09 3.513813e-05
-2.9906946e-08 4.5150724e-08 -3.4358195e-06 -7.836967e-09 -2.3207703e-07 -1.2563493e-06 -4.4831572e-07 7.4076884e-06
5.6443486e-07 6.375892e-06 -1.0768668e-05 -1.7729362e-09 1.1412014e-07 7.750067e-06 4.9297582e-06 4.703218e-07
-1.3824543e-07 -0.0005366795 -3.1649673e-08 -2.9900191e-05 3.6639992e-08 -3.9213145e-07 1.7369301e-07 3.5004946e-06
6.425893e-08 0.00017677333 -3.6620943e-08 -4.505265e-06 1.5260186e-05 3.081845e-06 2.5911898e-08 1.5933216e-08
-0.00049732823 2.9170653e-07 -7.155893e-07 -1.8615307e-07 6.667861e-09 3.1722644e-07 -4.481443e-06 1.3056589e-06
-7.1053573e-06 2.6357384e-07 -7.353392e-07 -1.4974094e-06 1.4263438e-07 -4.1030904e-07 -7.039633e-07 1.2445217e-06
9.639984e-08 -0.00063296116 -7.286032e-07 -7.328003e-07 5.4934137e-09 1.9563243e-08 2.3091388e-08 8.097297e-07
