lightning_logs/version_112/checkpoints/epoch=4-step=6040.ckpt (torch, 643455 bytes, 27 tensors)

model.lstm.weight_ih_l0 f4 [256, 9]
-0.6619868 0.7013671 -0.037698556 -0.13070485 1.0372131 0.5924991 1.572856 1.5252782
-0.3226628 -0.24088217 -0.36277288 0.5013883 0.5584736 0.76254696 0.25694826 0.2778656
-0.28545582 0.3897493 -1.4071206 -0.74524033 0.714121 0.676469 -1.6052067 -1.1600634
0.47491002 -0.6865904 -0.4644357 1.0713583 0.55405724 -0.40763175 -0.32783338 1.0636185
0.87589365 0.6315591 0.30154923 0.18642046 1.1149739 0.8708769 0.6233638 0.26792747
0.2814019 0.20042588 1.0488442 -0.09896909 0.17292833 0.040960748 -0.681997 0.10576992
-0.5834838 -0.5266183 -0.6048938 -0.57298154 0.6886993 -0.2960798 0.58759 0.46572343
0.924118 0.60598445 0.5484455 -0.103436254 0.32906651 -0.94980216 0.16415222 0.0048829587
1.5191492 0.17156735 1.8534898 -0.12283598 -0.16975278 0.15527305 1.6129061 -0.01239146
-0.1732526 0.70535666 0.23839797 0.9612377 -0.61147904 0.021955822 0.6385911 -0.02935926
0.0010374658 0.66944 0.48109245 0.2872854 -0.11516328 -1.0466126 -1.1180704 0.34943098
-0.26178107 0.23998453 0.6303712 -0.43511316 -0.28443465 -1.1240237 -0.35544658 -0.85017884
0.41415346 -1.167591 -0.17297347 -0.06598875 0.47167882 -0.0686226 0.6852232 -0.65768224
-1.1829981 -0.060396254 0.36343798 0.020520546 -0.4048642 0.61313844 0.77342135 1.0464107
0.17945947 0.6314289 0.9643224 -0.29425123 0.65704983 -0.79307747 -0.08665771 -0.71204484
-0.55221343 -1.0958955 -1.0875008 0.104016714 -0.7667168 0.21680236 -1.0375086 -1.7151997
-0.36595243 0.650878 0.5141364 -0.19315746 -1.2580237 -0.08328562 -0.10755812 0.09993346
-0.079685405 -0.18758588 -0.36872572 -1.0108161 -3.025239 -0.09160049 -0.49908975 0.14829369
-1.1761782 -0.72270834 -0.90038306 -0.8169477 -0.12236927 -0.19338928 -0.8955772 -0.21696655
-0.045725968 0.11118973 0.22488464 -0.45307314 -0.47357976 0.44502604 0.4395394 0.24749552
1.0561699 -0.861315 0.10178947 0.3388617 0.4275586 0.045965694 -0.70928407 -0.77652955
0.7311447 -0.06596121 0.44704852 -0.4287424 0.29998532 -0.5439751 -0.073000155 -0.62394166
-0.29862255 0.011409029 -0.7567809 -0.19223642 -0.8102111 -1.2099553 -0.77862847 -0.10879545
0.28857812 -0.4766073 -0.8431424 -0.6285017 -0.30244777 -0.50342876 -0.77344084 -0.40913445
-0.27522564 0.73842925 0.4865517 -0.48385257 0.6305344 0.7893225 0.38131654 -0.23279034
-0.008310552 -0.049262475 0.31638247 0.61612326 0.4995488 -0.39690718 0.17760096 0.6189905
-0.089021556 0.4731638 0.14676784 -0.78307307 -0.33106774 0.3676267 -0.0015239608 -0.5461243
0.20868419 -0.94644827 -0.07014459 -0.566609 0.9930914 0.14469755 0.09747806 -1.26891
-0.2627627 1.2322128 1.4941521 0.8173994 0.944315 -1.0183992 0.18312599 0.35238332
-0.9923866 -0.22524035 -0.851505 -0.37278083 -1.0921301 -0.59667885 0.34986356 0.25944096
-0.509193 -0.5063002 1.0551997 -0.5383191 -1.1345583 -0.014021865 -0.5146606 -0.05115847
-0.658432 -0.8738314 1.416466 -1.400815 0.70812637 0.20340072 0.12976898 0.15524192
00000000: f877 29bf cb8c 333f cd69 1abd 7ed7 05be
00000010: 66c3 843f 05ae 173f 5853 c93f 513c c33f
00000020: 0f34 a5be d1a9 76be 5ebd b9be fc5a 003f
00000030: 20f8 0e3f 4736 433f b98e 833e 6644 8e3e
00000040: 4427 92be 388d c73e 871c b4bf 12c8 3ebf
00000050: a2d0 363f 132d 2d3f 6a77 cdbf f57c 94bf
00000060: 6827 f33e 63c4 2fbf 84ca edbe 4522 893f
00000070: b2d6 0d3f 1cb5 d0be c7d9 a7be a724 883f
00000080: 913a 603f dbad 213f a964 9a3e 01e5 3e3e
00000090: 77b7 8e3f caf1 5e3f c594 1f3f ca2d 893e
000000a0: e913 903e 713c 4d3e 8740 863f 4eb0 cabd
000000b0: 2014 313e 75c6 273d 5b97 2ebf e69d d83d
000000c0: 325f 15bf 75d0 06bf 52da 1abf ebae 12bf
000000d0: 994e 303f c697 97be 4c6c 163f 4d73 ee3e
000000e0: ff92 6c3f cc21 1b3f ed66 0c3f 63d6 d3bd
000000f0: 687b a83e 3c26 73bf 8517 283e 3a01 a03b
00000100: 7b73 c23f 5aaf 2f3e 273f ed3f 6e91 fbbd
00000110: acd3 2dbe e6ff 1e3e b573 ce3f 8d05 4bbc
00000120: 2169 31be 4192 343f 991e 743e ad13 763f
00000130: e489 1cbf b2dc b33c b57a 233f d582 f0bc
00000140: 93fb 873a 6b60 2b3f c051 f63e 1217 933e
00000150: bada ebbd 67f7 85bf ee1c 8fbf 9ee8 b23e
00000160: 2b08 86be 81be 753e 0260 213f 27c7 debe
00000170: 6ba1 91be 02e0 8fbf 18fd b5be 52a5 59bf
00000180: ec0b d43e 9f73 95bf f51f 31be 1c25 87bd
00000190: e37f f13e 018a 8cbd ca6a 2f3f dd5d 28bf
000001a0: 7b6c 97bf 1062 77bd 8b14 ba3e b41a a83c
000001b0: 5c4a cfbe a4f6 1c3f f1fe 453f c9f0 853f
000001c0: 39c4 373e 53a5 213f d5dd 763f 19a8 96be
000001d0: 6b34 283f 2007 4bbf 9979 b1bd 9248 36bf
000001e0: dc5d 0dbf 4e46 8cbf 3a33 8bbf b706 d53d
000001f0: 8d47 44bf 7001 5e3e 15cd 84bf aa8b dbbf
00000200: 1e5e bbbe f19f 263f 719e 033f 12cb 45be
00000210: ec06 a1bf a791 aabd 6e47 dcbd eaa9 cc3d
00000220: 1a32 a3bd 8316 40be 9ec9 bcbe 6c62 81bf
00000230: 849d 41c0 0a99 bbbd b188 ffbe 4dda 173e
00000240: 028d 96bf 6a03 39bf 817f 66bf 7c23 51bf
00000250: bd9c fabd d707 46be 8c44 65bf 7b2c 5ebe
00000260: 274b 3bbd 71b7 e33d 2948 663e 34f9 e7be
00000270: 0c79 f2be 74da e33e 4f0b e13e 776f 7d3e
00000280: 9330 873f 247f 5cbf ff76 d03d 487f ad3e
00000290: f6e8 da3e 8646 3c3d a493 35bf a4ca 46bf
000002a0: 4d2c 3b3f ac16 87bd 8be3 e43e 2084 dbbe
000002b0: ad97 993e f441 0bbf 1b81 95bd a4ba 1fbf
000002c0: 0ee5 98be f0ec 3a3c 65bc 41bf a0d9 44be
000002d0: ff69 4fbf d1df 9abf 3254 47bf 26d0 debd
000002e0: 83c0 933e df05 f4be 2ed8 57bf 7de5 20bf
000002f0: 6fda 9abe b5e0 00bf 3800 46bf 127a d1be
00000300: 60ea 8cbe b309 3d3f 4e1d f93e 86bb f7be
00000310: b46a 213f 0a11 4a3f ec3b c33e 9760 6ebe
00000320: fb28 08bc 73c7 49bd e2fc a13e 41ba 1d3f
00000330: dcc4 ff3e 6b37 cbbe 07dd 353e 2976 1e3f
00000340: ef50 b6bd 8742 f23e 4f4a 163e 7a77 48bf
00000350: b681 a9be 9139 bc3e a4bf c7ba cdce 0bbf
00000360: 4fb1 553e 6f4a 72bf f8a7 8fbd 4a0d 11bf
00000370: 3d3b 7e3f 982b 143e 94a2 c73d a56b a2bf
00000380: d588 86be 26b9 9d3f 6040 bf3f 1641 513f
00000390: a1be 713f e85a 82bf 6185 3b3e 966b b43e
000003a0: 0c0d 7ebf 68a5 66be 3bfc 59bf 21dd bebe
000003b0: ebca 8bbf f2bf 18bf 5121 b33e 72d5 843e
000003c0: 795a 02bf e49c 01bf c910 873f 48cf 09bf
000003d0: 3539 91bf f7bb 65bc ccc0 03bf 8b8b 51bd
000003e0: 008f 28bf 6ab3 5fbf c24e b53f e84d b3bf
000003f0: c547 353f 4748 503e 29e2 043e bdf7 1e3e

model.lstm.weight_hh_l0 f4 [256, 64]
-0.047178984 -1.4137505 0.64554805 1.5974178 0.06137747 -1.3116784 0.69159186 -0.1207467
2.1971035 -1.1551856 0.16827662 0.5390786 -0.63324445 -0.34280774 1.4632851 0.8680897
-0.45717674 -0.29454058 -1.0628386 1.3511642 1.4240783 -1.6403933 1.2854053 0.49102622
0.25430447 -0.6748351 0.026581239 0.6549371 -0.3323453 0.5247749 0.84740275 0.6617443
0.3206433 0.5983651 0.028107718 0.02109692 0.13723005 -0.23247352 -0.3742794 -0.56320363
-0.57607305 0.463122 -0.109276734 0.53433824 0.25546393 -0.96673983 1.0055022 0.16658612
0.9465619 -2.4430602 -0.42920348 -0.6309716 0.3810913 -0.57826257 0.23644537 0.7747246
-0.046457443 1.2870083 0.1359241 -0.31663504 -0.3534068 0.83543617 -0.39918676 -0.04497435
0.3251632 1.3173645 -0.29572093 -0.6891091 0.6414474 -0.0922083 0.6201115 -0.26859134
-0.601753 1.1750033 0.14862074 0.26799867 -0.27718753 -0.2843257 -0.7474424 -0.6918513
-0.21672775 -0.061771818 0.14529745 -0.5924145 -0.96087253 0.37935668 -0.7946923 0.18701857
0.30626655 0.4452404 -0.10133096 0.18637912 0.31304204 0.5375785 -0.43258086 -0.04543331
-0.6265042 -0.109593965 -0.18877639 0.035797767 -0.46711612 0.558128 -0.81096536 0.060471687
-0.021880824 -0.0076880907 0.050148554 1.361926 -0.0011486489 0.020841895 -0.7483427 -0.6072075
-0.28459325 0.7093516 0.37533817 0.3287636 -0.4100368 -0.12994961 0.3496382 -0.74814105
-0.055462867 0.2890753 -0.34702545 -0.3442806 -0.2223269 -0.3154589 -0.06313578 0.31162477
-0.42342213 -0.09745086 0.17965916 0.095072515 1.0953281 -0.27056888 -0.77490574 0.71685857
0.73813826 -0.5602713 0.13254315 -0.6094493 -0.85899234 -0.36961782 -1.8569788 0.39878476
0.74675775 0.10100386 -0.4626112 0.68209666 0.8933944 -0.36184084 0.4953886 0.6268975
-0.091718316 -0.51197267 0.805923 0.032373242 -0.4651551 -0.44891787 0.8175155 0.6573812
0.20841041 -0.6919523 -0.064133875 -0.5338139 -0.44817793 0.42320162 0.47156537 -0.2774535
-0.8591053 -0.28134757 -0.0068025566 -0.36299086 -0.6752757 -0.06736743 0.43556058 -0.6563827
0.87654245 0.3884781 -0.30745864 -0.9722964 0.8181152 0.43219754 -0.5940806 -0.74287504
-0.018565398 1.1807448 -0.093900874 -0.23770978 -0.4269611 0.17199206 -0.93685454 -0.23292828
-0.71657866 1.1246872 -0.16631308 -0.64979154 0.46345666 -0.0956759 -0.35988203 0.4951262
-1.8709297 0.16482858 0.7182804 0.23612541 0.7882825 0.18017425 -0.36002934 0.46293125
0.35549223 -0.18772167 -0.13571681 0.44530278 -0.77976024 0.6202651 -0.58192176 -0.57809645
1.0813656 0.45124784 -0.22104362 0.20686588 -0.6719062 -0.4489331 -0.39875025 -0.3423513
0.14318243 0.5956136 -0.7159832 -0.24717127 0.5316827 -0.28110126 -0.22144406 -0.11841785
-0.6336131 -0.048250813 -0.0792676 0.48212928 -0.13930434 0.5599263 -0.11308356 0.11826187
-0.6198768 0.22405823 -0.097421266 1.2850428 -0.23873076 -0.88375556 0.3337554 0.24109095
0.24819423 -1.2992928 -0.12422622 0.31936306 0.57124007 0.05958296 -0.6435531 -0.23689014
00000000: c03e 41bd c7f5 b4bf a342 253f 3078 cc3f
00000010: f166 7b3d 14e5 a7bf 2a0c 313f 0c4a f7bd
00000020: 589d 0c40 1fdd 93bf b550 2c3e 0e01 0a3f
00000030: 4f1c 22bf 7f84 afbe ed4c bb3f 203b 5e3f
00000040: 1213 eabe 06ce 96be 180b 88bf f3f2 ac3f
00000050: 3348 b63f 68f8 d1bf 2988 a43f ca67 fb3e
00000060: 3234 823e fec1 2cbf e6c0 d93c f5a9 273f
00000070: 2a29 aabe a657 063f 63ef 583f 1368 293f
00000080: 5c2b a43e 752e 193f 2842 e63c 73d3 ac3c
00000090: 0986 0c3e 8a0d 6ebe 8da1 bfbe 1d2e 10bf
000000a0: 8679 13bf 541e ed3e 7bcc dfbd 64ca 083f
000000b0: 2bcc 823e 437c 77bf 4cb4 803f 8d95 2a3e
000000c0: e151 723f 195b 1cc0 8fc0 dbbe 5b87 21bf
000000d0: 661e c33e 0409 14bf bc1e 723e 5a54 463f
000000e0: 294a 3ebd b0bc a43f b02f 0b3e fd1d a2be
000000f0: bcf1 b4be 25df 553f 3562 ccbe 0637 38bd
00000100: ca7b a63e 669f a83f bc68 97be 7469 30bf
00000110: e635 243f b5d7 bcbd a1bf 1e3f ce84 89be
00000120: 7c0c 1abf 8266 963f 0930 183e 1f37 893e
00000130: 86eb 8dbe 2393 91be 6358 3fbf 2b1d 31bf
00000140: e1ed 5dbe 7204 7dbd dbc8 143e 7aa8 17bf
00000150: befb 75bf 0a3b c23e f470 4bbf cc81 3f3e
00000160: f8ce 9c3e 8df6 e33e 9b86 cfbd 2bda 3e3e
00000170: 0c47 a03e bf9e 093f 3d7b ddbe 4718 3abd
00000180: 9462 20bf cd72 e0bd 994e 41be aea0 123d
00000190: d829 efbe 7ae1 0e3f 6d9b 4fbf 29b1 773d
000001a0: 6a3f b3bc 61ec fbbb 9268 4d3d 9753 ae3f
000001b0: 438e 96ba 9fbc aa3c 6393 3fbf f371 1bbf
000001c0: 35b6 91be 1198 353f 532c c03e b453 a83e
000001d0: 58f0 d1be 8311 05be c703 b33e 2c86 3fbf
000001e0: 082d 63bd ad01 943e 52ad b1be 8c45 b0be
000001f0: aaa9 63be d483 a1be 554d 81bd 488d 9f3e
00000200: c9ca d8be 5194 c7bd 92f8 373e 61b5 c23d
00000210: b633 8c3f 0188 8abe 3960 46bf 0b84 373f
00000220: a1f6 3c3f f16d 0fbf 64b9 073e df04 1cbf
00000230: ece6 5bbf 8c3e bdbe 7bb1 edbf 842d cc3e
00000240: 842b 3f3f 1ddb ce3d 60db ecbe e39d 2e3f
00000250: 7fb5 643f 3443 b9be 93a3 fd3e 5b7c 203f
00000260: d0d6 bbbd a410 03bf f850 4e3f ce99 043d
00000270: cf28 eebe 90d8 e5be b248 513f 224a 283f
00000280: 8a69 553e c923 31bf 9f58 83bd 07a8 08bf
00000290: 9477 e5be e2ad d83e 0471 f13e 630e 8ebe
000002a0: 53ee 5bbf ca0c 90be fbe7 debb f0d9 b9be
000002b0: dede 2cbf eff7 89bd cc01 df3e b208 28bf
000002c0: 1665 603f 9ae6 c63e 386b 9dbe 6be8 78bf
000002d0: ff6f 513f ff48 dd3e ab15 18bf 0f2d 3ebf
000002e0: 7616 98bc a522 973f 1a4f c0bd 316a 73be
000002f0: a59a dabe b01e 303e b3d5 6fbf c084 6ebe
00000300: b371 37bf c0f5 8f3f fa4d 2abe bd58 26bf
00000310: 314a ed3e baf1 c3bd 7542 b8be 2e81 fd3e
00000320: a07a efbf d3c8 283e 39e1 373f dcca 713e
00000330: e2cc 493f 997f 383e c455 b8be 5305 ed3e
00000340: 1403 b63e 1c3a 40be 59f9 0abe bafe e33e
00000350: 5e9e 47bf b2c9 1e3f d3f8 14bf 21fe 13bf
00000360: 306a 8a3f f509 e73e 4259 62be a6d4 533e
00000370: 0b02 2cbf 8fda e5be fe28 ccbe ab48 afbe
00000380: 6a9e 123e 227a 183f ad4a 37bf 771a 7dbe
00000390: 5c1c 083f 81ec 8fbe 3bc2 62be 0f85 f2bd
000003a0: 7834 22bf a5a2 45bd 0d57 a2bd a6d9 f63e
000003b0: cca5 0ebe 5457 0f3f 5a98 e7bd 4833 f23d
000003c0: 3fb0 1ebf 856f 653e cd84 c7bd 487c a43f
000003d0: d675 74be ce3d 62bf fde1 aa3e 8ce0 763e
000003e0: a126 7e3e 3a4f a6bf 516a febd 8e83 a33e
000003f0: ca3c 123f 430d 743d e5bf 24bf 5493 72be

model.lstm.bias_ih_l0 f4 [256]
-0.66905016 -0.18608414 0.12121774 0.10621773 -0.1564333 -0.014247253 -0.5656417 -0.8577921
0.33231884 -0.2224678 -0.26296264 -0.34970865 -0.63389826 -0.018208284 0.37849304 -1.3062172
-0.1751661 -0.68357486 -0.7340827 0.6972389 0.22835033 -0.06383104 0.50370353 -0.075162776
0.33416122 -0.3359539 -0.40481415 -0.47946328 -1.4203892 -1.2963316 0.33572665 -0.36058685
-0.49367443 -0.5545915 -0.046844266 -0.21978049 -0.742639 0.2119999 0.61151546 -0.57538253
-1.269564 -0.070878655 0.7435788 -0.22494228 -0.5838591 0.32681632 0.54020387 -1.0871205
-0.50420773 -0.3962722 0.05796591 0.5758336 -0.5130504 1.5779969 0.23029698 -0.11736997
0.10873599 -1.0073073 -0.34484076 -0.13979599 0.42278758 -0.16197747 0.5848018 -0.3364474
0.09044851 0.8200589 -0.512263 0.015889408 -1.0256578 -0.59458256 -0.64024687 -0.6788847
0.07233611 0.4965459 0.40096888 -0.40085548 0.34503627 -0.50922024 0.3588056 0.10842543
-0.105413094 -0.46356237 -0.24699049 -0.26463658 0.6194511 0.27170444 0.41402727 -0.54225254
-0.15754767 0.54191947 0.15974467 -1.0173091 -0.32609007 -0.9547775 -1.345525 -0.6447779
-0.30793688 -0.43586287 0.27804136 0.08574838 0.033391833 -0.40103653 0.03963057 -0.102808155
-0.8441688 -0.2879017 0.20397396 -0.55961317 -0.65690786 0.8912622 -0.901448 -0.23110425
-0.09967237 1.0975006 1.0817776 -1.6566936 0.23040938 0.78326195 -1.056365 -0.26412526
-0.021543391 -0.5321187 -0.30838957 0.14418904 0.033794135 1.1495333 -0.6105838 -0.30985615
-0.09641152 0.62061054 0.047025524 -0.7777355 0.4037567 -0.13544491 -0.42049056 -0.56404465
-1.1316876 0.25978392 -0.18823667 0.1403148 -0.35618734 -0.3009239 -1.0583346 -0.2656227
-0.41817713 0.3570706 -0.44919655 -3.470784e-06 -0.6879038 0.23374881 -0.49939564 0.5222376
-0.10104787 1.0287898 0.6863254 -0.20939773 0.21003036 -0.07151468 -0.22955437 0.039254308
-0.05159696 0.22904992 0.77700144 0.021899376 0.16333999 0.071008325 -0.029463893 -0.24564666
-0.15283981 0.7834976 0.23127633 0.33783656 -0.31241006 0.9210097 0.13634022 -0.045102473
-0.42780775 1.0025017 1.112555 -0.32646617 -0.94791037 -0.0042742942 0.14434306 0.15816283
0.66396016 -0.8948894 0.10272316 -0.36944184 -0.035511434 -0.40808257 -0.3837801 -0.22928292
-1.160959 0.6236157 0.2380916 0.0319545 -0.80912745 0.37992698 -0.40457383 0.44215056
0.30426472 0.2398462 -0.847418 -0.8074955 -0.7369948 -0.6933956 -1.4020417 0.81208336
-0.25215083 0.7148621 -0.5345989 0.46570116 0.25359505 0.55294836 0.5661547 0.33881983
-0.30330557 -0.5882832 -1.2967658 -1.1583177 -0.68540317 -1.5330338 -1.5423148 0.08068875
-0.5476677 -0.10221143 0.102989025 -0.65391624 -0.43752787 1.0589997 0.1644921 -0.6480133
-0.20070724 -0.13886416 0.7358162 -0.48064104 -0.036266822 0.63389313 0.04082294 -0.18775706
-0.023095865 -0.3155359 -0.42762724 -0.8919051 -0.11426487 -0.74609065 -0.10987195 -0.32140222
-0.19184735 -0.4398698 0.017035175 0.0914844 0.71061164 -0.8789219 -0.9282056 -0.9639422
00000000: df46 2bbf d78c 3ebe 0241 f83d ae88 d93d
00000010: 0d30 20be 4f6d 69bc e5cd 10bf 4398 5bbf
00000020: b225 aa3e 99ce 63be 0aa3 86be 030d b3be
00000030: 2847 22bf 8a29 95bc d7c9 c13e 2032 a7bf
00000040: be5e 33be c3fe 2ebf d8ec 3bbf 407e 323f
00000050: abd4 693e d9b9 82bd b7f2 003f f1ee 99bd
00000060: 2e17 ab3e 2602 acbe cd43 cfbe 367c f5be
00000070: 50cf b5bf 32ee a5bf 5de4 ab3e d79e b8be
00000080: e5c2 fcbe b5f9 0dbf c6df 3fbd 230e 61be
00000090: 971d 3ebf 8016 593e 478c 1c3f 454c 13bf
000000a0: 1381 a2bf d428 91bd 2e5b 3e3f 4557 66be
000000b0: ca77 15bf 7854 a73e cd4a 0a3f c426 8bbf
000000c0: c213 01bf 31e4 cabe a96d 6d3d d569 133f
000000d0: 4557 03bf cdfb c93f f9d2 6b3e ab5f f0bd
000000e0: fab0 de3d 72ef 80bf f88e b0be ae26 0fbe
000000f0: 9d77 d83e 6cdd 25be 92b5 153f d542 acbe
00000100: 123d b93d 61ef 513f ab23 03bf 812a 823c
00000110: c148 83bf 9036 18bf 38e7 23bf 63cb 2dbf
00000120: f424 943d 443b fe3e cb4b cd3e ee3c cdbe
00000130: 98a8 b03e 425c 02bf 5eb5 b73e 270e de3d
00000140: d2e2 d7bd 0c58 edbe 13eb 7cbe 727e 87be
00000150: 5994 1e3f d81c 8b3e 62fb d33e 10d1 0abf
00000160: 2d54 21be 3cbb 0a3f 1b94 233e 2f37 82bf
00000170: 47f5 a6be 4c6c 74bf 2a3a acbf 2a10 25bf
00000180: e7a9 9dbe 6b29 dfbe 705b 8e3e d99c af3d
00000190: e0c5 083d a954 cdbe aa53 223d 158d d2bd
000001a0: 721b 58bf da67 93be 8dde 503e cf42 0fbf
000001b0: 1d2b 28bf c229 643f 4cc5 66bf 98a6 6cbe
000001c0: 0721 ccbd e67a 8c3f b077 8a3f 890e d4bf
000001d0: 70f0 6b3e db83 483f f836 87bf 6d3b 87be
000001e0: c47b b0bc ee38 08bf 3de5 9dbe 4ba6 133e
000001f0: b86b 0a3d e823 933f 384f 1cbf 77a5 9ebe
00000200: 6773 c5bd 55e0 1e3f d69d 403d ac19 47bf
00000210: 33b9 ce3e 12b2 0abe 8a4a d7be 3b65 10bf
00000220: 24db 90bf 6602 853e 1dc1 40be afae 0f3e
00000230: 305e b6be b312 9abe 8277 87bf b3ff 87be
00000240: 501b d6be f5d1 b63e 17fd e5be 9deb 68b6
00000250: 771a 30bf d95b 6f3e c9b0 ffbe 5db1 053f
00000260: 30f2 cebd 62af 833f 05b3 2f3f 5c6c 56be
00000270: 3312 573e 4a76 92bd 4d10 6bbe 20c9 203d
00000280: 5557 53bd 108c 6a3e 91e9 463f 5266 b33c
00000290: 9942 273e d06c 913d 435e f1bc cc8a 7bbe
000002a0: 0a82 1cbe 4c93 483f b4d3 6c3e eaf8 ac3e
000002b0: 36f4 9fbe 4bc7 6b3f c59c 0b3e 5fbd 38bd
000002c0: 9e09 dbbe fa51 803f 3468 8e3f 9326 a7be
000002d0: 41aa 72bf 610f 8cbb abce 133e 70f5 213e
000002e0: 4bf9 293f 7917 65bf 8560 d23d 7b27 bdbe
000002f0: 7074 11bd 33f0 d0be d37e c4be 24c9 6abe
00000300: 4e9a 94bf 47a5 1f3f 49ce 733e b9e2 023d
00000310: fa22 4fbf ca85 c23e 4d24 cfbe 8f61 e23e
00000320: 96c8 9b3e 3e9a 753e 63f0 58bf 06b8 4ebf
00000330: b1ab 3cbf 6082 31bf 1a76 b3bf b2e4 4f3f
00000340: ea19 81be 3401 373f 79db 08bf 6270 ee3e
00000350: 36d7 813e 068e 0d3f 84ef 103f cb79 ad3e
00000360: de4a 9bbe ba99 16bf 6cfc a5bf c143 94bf
00000370: 9576 2fbf 743a c4bf 926a c5bf 2540 a53d
00000380: f333 0cbf 3a54 d1bd e9eb d23d 0e67 27bf
00000390: a703 e0be 4d8d 873f 9e70 283e 33e4 25bf
000003a0: 3386 4dbe 6832 0ebe 735e 3c3f 9516 f6be
000003b0: 858c 14bd d246 223f f535 273d 6343 40be
000003c0: 8a33 bdbc ec8d a1be f5f1 dabe e553 64bf
000003d0: b303 eabd ccff 3ebf 8b04 e1bd d58e a4be
000003e0: a273 44be 9d36 e1be 5a8d 8b3c 2c5c bb3d
000003f0: a5ea 353f 0701 61bf e29e 6dbf ebc4 76bf

model.lstm.bias_hh_l0 f4 [256]
-0.6883593 -0.2085224 0.09572509 0.0766828 -0.16848758 -0.03224272 -0.5487888 -0.891447
0.29051906 -0.20926484 -0.23665491 -0.32708594 -0.63384205 -0.0069136056 0.42565903 -1.3486559
-0.19930206 -0.6756039 -0.6959583 0.6896799 0.25141996 -0.079093926 0.550035 -0.044316
0.32887045 -0.296997 -0.41593295 -0.49775726 -1.3925697 -1.3204234 0.32590094 -0.37563524
-0.52346987 -0.55652934 -0.06171348 -0.2665586 -0.7551866 0.2535674 0.59750116 -0.576876
-1.2250005 -0.06773105 0.75185966 -0.22643259 -0.5968052 0.35916 0.5493905 -1.0945003
-0.52029794 -0.41837296 0.05669043 0.5776243 -0.5053577 1.5671598 0.26705787 -0.16884768
0.16144753 -0.97193366 -0.34298924 -0.111922994 0.4304529 -0.139174 0.52883434 -0.34141427
0.099760324 0.84054047 -0.4736222 0.006710713 -1.0196522 -0.5778932 -0.66046906 -0.67309266
0.07878354 0.507244 0.41611007 -0.4013076 0.34128132 -0.5239785 0.31015503 0.11546362
-0.12071741 -0.437802 -0.26832142 -0.25853777 0.59785444 0.30971143 0.37509522 -0.49256524
-0.14080165 0.5628512 0.17450993 -1.0317736 -0.34819907 -0.9929899 -1.3479943 -0.59284216
-0.2598511 -0.42084533 0.24406749 0.058567863 0.010614599 -0.3920538 0.010271296 -0.14033262
-0.8976583 -0.32753754 0.17046462 -0.5557013 -0.69246495 0.85034525 -0.89764273 -0.24458538
-0.091245964 1.1061739 1.0969664 -1.600521 0.19059427 0.79685545 -1.0255973 -0.24937496
0.012651691 -0.55508953 -0.31906238 0.17532866 0.060002748 1.137389 -0.58999836 -0.30140704
-0.05401881 0.59996766 0.071797594 -0.79220724 0.40916717 -0.13792932 -0.3985591 -0.5649158
-1.0988991 0.26519668 -0.145833 0.13999285 -0.34662783 -0.3094686 -1.0541748 -0.27223444
-0.4061738 0.39942062 -0.4502757 0.022638796 -0.68746376 0.24674608 -0.50777483 0.532475
-0.09837392 1.0529861 0.670267 -0.21786733 0.20500806 -0.08891661 -0.19082011 0.03820921
-0.012706435 0.1973119 0.8048546 0.0032180646 0.16993137 0.10869923 -0.06477657 -0.22769319
-0.1271847 0.8187227 0.18022113 0.31543142 -0.32857835 0.94818294 0.10133119 -0.04533138
-0.4295826 0.969127 1.11619 -0.28966758 -0.9643291 -0.00021096569 0.15322223 0.18684267
0.71324736 -0.90243125 0.09052419 -0.3669622 -0.039231483 -0.40769076 -0.3664364 -0.21312349
-1.1868104 0.6363945 0.2567308 0.04261817 -0.78882444 0.38481277 -0.42260203 0.43496114
0.31629255 0.2715663 -0.8590896 -0.79666096 -0.72838765 -0.6814858 -1.4154993 0.82850516
-0.25505444 0.7343105 -0.5405672 0.44388235 0.25678313 0.5832969 0.56868565 0.31974334
-0.27990252 -0.6138816 -1.2840624 -1.1152453 -0.65044224 -1.530174 -1.5716902 0.08985941
-0.56853986 -0.12810428 0.10005333 -0.639903 -0.4876501 1.0565547 0.16652352 -0.66165423
-0.20805663 -0.09703883 0.71518224 -0.4703536 -0.032441765 0.6559318 0.051466804 -0.14052178
-0.006076781 -0.28321612 -0.39021406 -0.92536473 -0.13545729 -0.7210385 -0.11819561 -0.33680424
-0.15774609 -0.39144742 0.039616223 0.12405076 0.67825913 -0.8315932 -0.9785302 -0.9476134
00000000: 5138 30bf e586 55be 840b c43d df0b 9d3d
00000010: 0288 2cbe f110 04bd 6c7d 0cbf df35 64bf
00000020: eabe 943e 8649 56be aa55 72be cf77 a7be
00000030: 7943 22bf 878b e2bb fbef d93e c2a0 acbf
00000040: d715 4cbe 61f4 2cbf 532a 32bf dd8e 303f
00000050: 1eba 803e fffb a1bd 18cf 0c3f b284 35bd
00000060: b561 a83e fe0f 98be 2af5 d4be 0ada febe
00000070: b93f b2bf a203 a9bf 7ddc a63e 4353 c0be
00000080: 1f02 06bf b578 0ebf 46c7 7cbd 5e7a 88be
00000090: e953 41bf 96d3 813e d6f5 183f 25ae 13bf
000000a0: d1cc 9cbf 94b6 8abd e079 403f f2dd 67be
000000b0: 3ac8 18bf d2e3 b73e dba4 0c3f 9618 8cbf
000000c0: 3f32 05bf fb34 d6be 3934 683d 30df 133f
000000d0: 1f5f 01bf b198 c83f cfbb 883e 68e6 2cbe
000000e0: 8052 253e a5d0 78bf 499c afbe e237 e5bd
000000f0: 5364 dc3e a183 0ebe b061 073f dacd aebe
00000100: 244f cc3d a92d 573f 9c7e f2be 8ae5 db3b
00000110: f783 82bf cff0 13bf 8014 29bf cd4f 2cbf
00000120: 4459 a13d beda 013f 610c d53e 3178 cdbe
00000130: 6dbc ae3e 7423 06bf a4cc 9e3e 3178 ec3d
00000140: b13a f7bd 9527 e0be 6d61 89be 105f 84be
00000150: fd0c 193f 7f92 9e3e 7b0c c03e 8331 fcbe
00000160: 4f2e 10be 0417 103f bbb2 323e 2811 84bf
00000170: 2647 b2be 9634 7ebf 148b acbf 81c4 17bf
00000180: 340b 85be 0a79 d7be d4ec 793e dbe4 6f3d
00000190: dbe8 2d3c 47bb c8be f048 283c 5bb3 0fbe
000001a0: efcc 65bf 00b3 a7be 478e 2e3e 7142 0ebf
000001b0: 6245 31bf 3ab0 593f eacb 65bf 9774 7abe
000001c0: 2adf babd 1b97 8d3f 6569 8c3f dfdd ccbf
000001d0: 252b 433e b8fe 4b3f c646 83bf 265c 7fbe
000001e0: 0a49 4f3c 591a 0ebf 255c a3be 5b89 333e
000001f0: 71c5 753d f695 913f 220a 17bf 0652 9abe
00000200: d442 5dbd 7b97 193f 9e0a 933d 18ce 4abf
00000210: 5c7e d13e 583d 0dbe f00f ccbe 529e 10bf
00000220: baa8 8cbf dcc7 873e 3f55 15be 495a 0f3e
00000230: 3479 b1be ab72 9ebe 33ef 86bf 5062 8bbe
00000240: 03f6 cfbe dc80 cc3e 898a e6be ff74 b93c
00000250: a0fd 2fbf 01ab 7c3e 88fd 01bf 4850 083f
00000260: 4478 c9bd 40c8 863f 9e96 2b3f 9d18 5fbe
00000270: a2ed 513e e919 b6bd 5966 43be 4381 1c3d
00000280: a72e 50bc 210c 4a3e f30a 4e3f 2ae6 523b
00000290: 7d02 2e3e b49d de3d 94a9 84bd 6728 69be
000002a0: b53c 02be d097 513f e38b 383e 3a80 a13e
000002b0: 6c3b a8be 1ebc 723f ba86 cf3d 66ad 39bd
000002c0: 40f2 dbbe b518 783f 50df 8e3f 4f4f 94be
000002d0: 46de 76bf ac36 5db9 4ae6 1c3e af53 3f3e
000002e0: 6197 363f bc05 67bf bf64 b93d 78e2 bbbe
000002f0: 31b1 20bd d8bc d0be 8d9d bbbe 0b3d 5abe
00000300: 67e9 97bf c0ea 223f 3872 833e 6490 2e3d
00000310: 66f0 49bf 2e06 c53e 4b5f d8be 3ab3 de3e
00000320: 19f1 a13e bd0a 8b3e 4ced 5bbf f9f1 4bbf
00000330: 9d77 3abf da75 2ebf 152f b5bf ea18 543f
00000340: 7f96 82be c6fb 3b3f 9d62 0abf 8c44 e33e
00000350: 1479 833e f252 153f 6295 113f 66b5 a33e
00000360: 624f 8fbe 5827 1dbf 285c a4bf 5cc0 8ebf
00000370: 6283 26bf bedc c3bf 252d c9bf 3608 b83d
00000380: d48b 11bf c52d 03be c3e8 cc3d afd0 23bf
00000390: 46ad f9be 2f3d 873f 2485 2a3e 2c62 29bf
000003a0: cc0c 55be 4bbc c6bd 2f16 373f 30d2 f0be
000003b0: a8e1 04bd 25eb 273f dbce 523d f1e4 0fbe
000003c0: bc1f c7bb b401 91be 23ca c7be b4e4 6cbf
000003d0: 51b5 0abe fb95 38bf 8a10 f2bd 9b71 acbe
000003e0: 3188 21be cc6b c8be 9f44 223d 530e fe3d
000003f0: 64a2 2d3f 4be3 54bf f580 7abf cb96 72bf

model.lstm.weight_ih_l1 f4 [256, 64]
-0.41473207 -0.9382298 0.117915325 0.4762824 -0.17917216 -0.29999894 0.769102 0.16215895
1.003453 -0.9898432 -0.50911415 0.55210775 -0.31090435 0.4614321 1.274573 0.40457535
0.38527223 -0.32525286 -0.8068992 1.2358919 1.3057338 -1.1590288 0.46302417 -0.44472787
0.86115205 -0.35063085 -0.17565544 -0.05257284 0.7648798 0.95272464 0.2415007 -0.062039547
0.40907454 0.9141464 -0.3448606 0.48116374 -0.14857481 -0.23136055 -0.8024561 -0.36117077
0.93795794 -1.0001274 -1.1559582 0.47101972 0.62576526 -0.98720616 1.0052314 0.3202017
0.74507064 -1.933381 -0.9475852 0.419852 -0.20637919 -0.62032336 -0.66468686 -0.56112295
-0.42756158 -0.0673669 1.3743631 0.22251058 -0.29142654 0.11477587 -0.17850505 -0.08689934
-0.15841424 -0.3135913 0.34742194 -0.8811271 0.24620517 0.4412304 0.75869274 0.54026175
-1.2777679 0.5576604 0.036394518 -0.50254273 -1.2025931 -0.77005213 -0.55383956 1.9781102
0.689666 -0.5120747 0.5158335 0.9652976 -0.5348543 0.6449189 -0.31754598 -1.0432954
-1.6698202 0.34877685 -0.27756467 0.87539357 -1.5483627 0.69796664 1.3107827 -0.24386477
1.558661 -1.6886976 3.1622753 -3.1696105 0.4383384 -0.98313504 0.44543487 -0.33472973
-0.10947832 -0.66850436 0.08685075 0.48187357 -0.045008834 0.031261258 -1.0152074 1.4799346
2.733035 0.51989216 0.52802825 -1.5907145 -1.3581754 0.92360514 -0.8011414 0.8135746
0.5886492 -0.8403837 -1.1151218 1.5477477 0.583585 -0.06689681 1.5386099 1.3023137
-0.12668647 -1.0762906 0.95538723 -0.49272215 0.29655033 0.5774899 -0.37549675 -0.8100474
0.34615466 -1.4027424 -0.005260567 0.65084153 -0.082666844 0.52226436 -0.0024314267 0.43145874
0.7141174 0.108197466 0.2389908 0.15979399 -0.26900426 0.017363604 0.7508794 -0.3070359
-0.62065196 -0.034386 -0.5804011 -0.046703205 0.23579614 -0.015215233 0.3274292 0.047462594
0.21748486 0.3749278 0.24677551 0.1442113 -0.06758257 -0.051941615 0.13104707 0.502661
-0.053849176 -0.7166688 -0.37096912 -0.66688424 0.2709895 -1.1746083 -0.23024318 -1.1154598
0.27858344 -0.36663446 -0.32796156 0.17260903 -1.0794159 -0.21094206 -0.25572893 -0.06004986
-0.36787942 0.2693931 0.89577883 0.008114928 0.30047017 0.16943586 0.12347436 0.38007718
-0.88387376 -0.4326789 0.26215804 -0.6538813 0.5204694 -0.039002225 1.6494662 1.080727
0.40877688 -0.14009388 -0.40124565 0.009297715 -0.10938647 0.34153375 0.15191332 0.5974107
1.006889 -0.15825517 0.73176163 0.31298476 0.72150874 -0.5507467 0.78128785 -0.18967143
0.60265845 -0.8289476 -0.46599558 -0.44742137 0.13938522 -0.27839175 0.16036113 0.40964854
-0.06793365 0.30727136 0.6406516 -1.0483892 -0.1045564 -0.7517148 -0.5380328 -0.86611086
0.02258314 -0.03252553 -0.30197543 0.20546879 0.085344404 -0.95062137 0.3653497 -0.6247391
0.7232174 1.6367638 -0.6831541 -0.26243415 0.6080253 -1.0750667 -0.017346933 -0.6216085
-0.7272461 0.34219855 -1.4177808 1.3955504 -0.54120475 0.4296707 0.33177194 -0.1376762
00000000: c357 d4be d42f 70bf 977d f13d 49db f33e
00000010: e878 37be 7699 99be dee3 443f ff0c 263e
00000020: 2671 803f 5d66 7dbf 4e55 02bf ef56 0d3f
00000030: db2e 9fbe d440 ec3e 3525 a33f 8024 cf3e
00000040: 6742 c53e 8b87 a6be f290 4ebf b531 9e3f
00000050: 4922 a73f 0e5b 94bf 8111 ed3e 5fb3 e3be
00000060: 7674 5c3f e385 b3be 05df 33be 9e56 57bd
00000070: 2acf 433f c3e5 733f f64b 773e 2e1d 7ebd
00000080: 3872 d13e 8005 6a3f 9291 b0be 185b f63e
00000090: ff23 18be c8e9 6cbe c36d 4dbf 60eb b8be
000000a0: 031e 703f 2d04 80bf 70f6 93bf 7f29 f13e
000000b0: 2732 203f 8bb9 7cbf 6cab 803f 7af1 a33e
000000c0: f3bc 3e3f 0779 f7bf f294 72bf d7f6 d63e
000000d0: 1155 53be 83cd 1ebf eb28 2abf c1a5 0fbf
000000e0: 5ae9 dabe a8f7 89bd 21eb af3f d0d9 633e
000000f0: dc35 95be 9d0f eb3d 07ca 36be 48f8 b1bd
00000100: 5837 22be 0a8f a0be 4ae1 b13e 8c91 61bf
00000110: 351d 7c3e f3e8 e13e b039 423f 984e 0a3f
00000120: e68d a3bf d5c2 0e3f 6b12 153d a4a6 00bf
00000130: 92ee 99bf 2322 45bf 6ec8 0dbf b732 fd3f
00000140: f38d 303f 5417 03bf aa0d 043f be1d 773f
00000150: 36ec 08bf 6819 253f 6395 a2be b48a 85bf
00000160: abbc d5bf e192 b23e f51c 8ebe cb19 603f
00000170: c030 c6bf f1ad 323f bac7 a73f b0b7 79be
00000180: 3482 c73f 3e27 d8bf b862 4a40 e6da 4ac0
00000190: e46d e03e bdae 7bbf 0a10 e43e b261 abbe
000001a0: 2b36 e0bd 1a23 2bbf cede b13d 22b8 f63e
000001b0: 2f5b 38bd ce0b 003d 51f2 81bf 7f6e bd3f
000001c0: 0cea 2e40 a717 053f dc2c 073f 889c cbbf
000001d0: b1d8 adbf 6371 6c3f 9a17 4dbf 6d46 503f
000001e0: b7b1 163f 6323 57bf 50bc 8ebf 991c c63f
000001f0: d465 153f 3201 89bd 2bf1 c43f 37b2 a63f
00000200: 19ba 01be e4c3 89bf 4294 743f 1446 fcbe
00000210: 72d5 973e 61d6 133f 1c41 c0be 445f 4fbf
00000220: 2f3b b13e 108d b3bf d660 acbb 8d9d 263f
00000230: 3c4d a9bd 1eb3 053f 9258 1fbb 29e8 dc3e
00000240: 66d0 363f a296 dd3d 01ba 743e 09a1 233e
00000250: edba 89be 1e3e 8e3c a239 403f cf33 9dbe
00000260: 0ce3 1ebf 56d8 0cbd 2b95 14bf dc4b 3fbd
00000270: 8b74 713e 5049 79bc cda4 a73e 2368 423d
00000280: 5ab4 5e3e 89f6 bf3e b8b2 7c3e 21ac 133e
00000290: bb68 8abd bbc0 54bd 3431 063e 64ae 003f
000002a0: f490 5cbd 9b77 37bf aaef bdbe edb8 2abf
000002b0: 23bf 8a3e 9159 96bf dec4 6bbe 63c7 8ebf
000002c0: 7da2 8e3e 83b7 bbbe 94ea a7be 6cc0 303e
000002d0: 4d2a 8abf 3201 58be e7ee 82be d8f6 75bd
000002e0: b15a bcbe e4ed 893e c351 653f 7af4 043c
000002f0: 3ad7 993e 9880 2d3e 20e0 fc3d 7a99 c23e
00000300: 8d45 62bf 1788 ddbe 9439 863e c464 27bf
00000310: 7c3d 053f ccc0 1fbd b521 d33f 4355 8a3f
00000320: 344b d13e c574 0fbe 1270 cdbe 7155 183c
00000330: 0306 e0bd 83dd ae3e 2a8f 1b3e e8ef 183f
00000340: bde1 803f a50d 22be bb54 3b3f 8a3f a03e
00000350: ccb4 383f bcfd 0cbf 7b02 483f 3a39 42be
00000360: d347 1a3f e935 54bf f996 eebe 6a14 e5be
00000370: 00bb 0e3e 5d89 8ebe b535 243e 74bd d13e
00000380: cc20 8bbd ac52 9d3e be01 243f 9e31 86bf
00000390: aa21 d6bd 6270 40bf 85bc 09bf 71b9 5dbf
000003a0: 4700 b93c 7d39 05bd 869c 9abe 6966 523e
000003b0: 0cc9 ae3d ec5b 73bf 1e0f bb3e e7ee 1fbf
000003c0: c724 393f 7a81 d13f 30e3 2ebf c55d 86be
000003d0: 8ca7 1b3f c99b 89bf 281b 8ebc bc21 1fbf
000003e0: cd2c 3abf a634 af3e d779 b5bf 65a1 b23f
000003f0: 658c 0abf ccfd db3e 03de a93e fdfa 0cbe

model.lstm.weight_hh_l1 f4 [256, 64]
-0.012659812 -0.03106269 0.7055349 0.12267335 0.4690452 -0.37572122 0.9290322 0.27798358
0.08050949 -0.21586365 -0.08972454 0.10033364 0.38542598 -0.4818039 -0.056074828 -0.15880427
-0.05381666 0.36255756 0.4255879 -0.6462055 0.44608456 0.22447032 0.25872597 -0.041186024
0.049748145 0.1465048 -0.08675501 -0.083925724 -0.24413587 0.29952148 0.13478003 -0.40682918
-0.5111724 -1.5869356 0.10028082 0.17529431 0.39212283 0.028988464 0.24691099 0.35037938
0.20897023 1.9800403 -0.66434014 0.46020845 -0.34043586 0.46509525 -0.20168677 0.45780873
0.124123864 0.16024001 -0.3356636 0.33244342 0.6955675 -0.09484627 -0.15125169 -0.10174494
-0.02790883 -0.77673733 -0.4653568 -0.020165998 -0.12322612 -0.72011656 -0.104420826 -0.98396885
-0.10612504 -0.82932657 -0.025323048 0.22149158 1.0925065 -0.3603185 -0.40964937 0.07514548
0.39987272 -0.3018454 -0.68500775 0.71875423 -0.8817875 1.2276446 -0.37473017 -0.096061684
-0.32630506 0.1671014 0.19857997 -0.8245962 2.328284 0.4180282 0.23723765 0.311614
0.13380803 1.114215 0.20794384 0.2276814 -0.4595446 1.388689 0.7674448 0.5079815
0.18426505 1.2889855 -0.21445012 -0.18480182 0.45977643 0.2276161 0.8584402 0.5986241
0.07348394 -1.5150998 -0.23751366 0.33294398 -0.6416329 0.60666347 1.0273633 0.6754331
-0.37182152 -0.2091709 -0.34821084 -0.30058303 1.9988794 0.010706587 0.902974 -0.308673
0.18684292 0.5149193 0.027036956 0.073618986 1.0106553 0.4399506 -1.0690702 -0.8664261
0.04360063 0.24446009 -0.35654682 0.11789091 0.3654992 -0.0684966 0.44599238 0.1765391
0.52540576 -0.16172232 -0.096054025 0.455248 -0.33428594 0.33556965 0.33557227 0.115549825
-0.8297648 -0.15020408 1.0327275 -0.6146709 -0.2490109 0.25765863 0.15375035 -0.15813881
0.031667843 0.28690627 -0.15178716 -0.046665248 -0.4683875 -0.5337087 -0.14893724 -0.22877629
0.33152446 -0.18590572 0.1613677 0.0974929 -0.32927448 -0.36112633 -0.3346781 0.079267696
0.20970154 0.07564018 -0.41981533 -0.07296738 0.47989762 -0.019231835 0.0770044 0.49978244
-0.057421595 -0.11013838 0.29606792 0.13227442 0.056932632 0.026810698 -0.12070372 -0.4486886
-1.2183719 0.10367111 0.32759333 -0.60998875 0.39080885 -0.00656806 -0.40271667 0.041439217
-0.14810392 1.1958051 0.2428847 -0.20145221 0.2268439 -0.29210612 0.2429678 0.12194148
0.23257796 -0.36179748 -0.089987904 0.068208225 -0.15469773 0.1857707 0.20797819 -0.051042695
-0.010327971 0.20845751 0.6157132 0.07985495 0.27653208 0.05526474 0.31168082 0.29427892
0.23761351 -0.4716965 0.24166588 0.23514606 -0.3790236 0.63385516 0.4961027 -0.0065041096
-0.10283296 -0.6007462 -0.10964213 -0.04001539 0.23338777 0.22954172 0.2803649 0.24207366
-0.2877476 -0.49652022 -0.21477185 0.33993044 -0.6781839 0.028069006 -0.057361603 0.06116701
-0.08927958 -0.091018945 -0.20249237 0.4708951 -0.123782486 -0.49569184 0.0992641 0.028423604
0.19335485 0.2946706 -0.2777784 -0.71763897 0.66691554 0.034120124 -0.29811797 -0.2657247
00000000: 1a6b 4fbc 2f77 febc ef9d 343f 2a3c fb3d
00000010: b126 f03e 885e c0be 0ed5 6d3f dd53 8e3e
00000020: 29e2 a43d 5c0b 5dbe 80c1 b7bd b97b cd3d
00000030: 8e56 c53e 00af f6be b8ae 65bd 969d 22be
00000040: dc6e 5cbd 25a1 b93e a8e6 d93e b96d 25bf
00000050: 3265 e43e 8cdb 653e bb77 843e adb2 28bd
00000060: b6c4 4b3d 5b05 163e 9cac b1bd 40e1 abbd
00000070: c1fe 79be e15a 993e c703 0a3e ea4b d0be
00000080: 32dc 02bf b520 cbbf 0860 cd3d 5a80 333e
00000090: 53c4 c83e 3779 ed3c 3cd6 7c3e ed64 b33e
000000a0: 4bfc 553e f671 fd3f 3212 2abf 71a0 eb3e
000000b0: 9c4d aebe f720 ee3e fa86 4ebe e865 ea3e
000000c0: a734 fe3d f515 243e 19dc abbe 0636 aa3e
000000d0: b610 323f c33e c2bd b9e1 1abe a75f d0bd
000000e0: 0fa1 e4bc 42d8 46bf 3f43 eebe 2a33 a5bc
000000f0: fa5d fcbd 8f59 38bf 96da d5bd 62e5 7bbf
00000100: 1658 d9bd bf4e 54bf 4872 cfbc b0ce 623e
00000110: 41d7 8b3f ab7b b8be 90bd d1be e0e5 993d
00000120: 1ebc cc3e 7b8b 9abe ab5c 2fbf 4700 383f
00000130: d3bc 61bf 7523 9d3f a2dc bfbe fdbb c4bd
00000140: 7511 a7be a11c 2b3e 8c58 4b3e bd18 53bf
00000150: 9b02 1540 cb07 d63e 6dee 723e df8b 9f3e
00000160: f904 093e 999e 8e3f 3bef 543e 5025 693e
00000170: 6e49 ebbe 90c0 b13f 4377 443f 130b 023f
00000180: faaf 3c3e 7afd a43f d098 5bbe b03c 3dbe
00000190: d167 eb3e 3214 693e bdc2 5b3f 6e3f 193f
000001a0: bf7e 963d caee c1bf c836 73be a277 aa3e
000001b0: 0e42 24bf 4c4e 1b3f a480 833f 2fe9 2c3f
000001c0: 645f bebe e530 56be b148 b2be 05e6 99be
000001d0: 48db ff3f ae6a 2f3c 4e29 673f 630a 9ebe
000001e0: c053 3f3e c0d1 033f 9b7c dd3c 8dc5 963d
000001f0: 275d 813f 3441 e13e 4bd7 88bf 1ace 5dbf
00000200: 9396 323d bf53 7a3e 4e8d b6be ca70 f13d
00000210: b622 bb3e f247 8cbd 1d59 e43e aac6 343e
00000220: fe80 063f 899a 25be f9b7 c4bd 4416 e93e
00000230: 8727 abbe c9cf ab3e 21d0 ab3e 63a5 ec3d
00000240: 776b 54bf 19cf 19be 6a30 843f 125b 1dbf
00000250: b7fc 7ebe d5eb 833e bb70 1d3e 24ef 21be
00000260: 24b6 013d 61e5 923e 186e 1bbe 0f24 3fbd
00000270: 7dd0 efbe 22a1 08bf 0183 18be 5544 6abe
00000280: 93bd a93e 125e 3ebe 933d 253e 5caa c73d
00000290: aa96 a8be 8de5 b8be ee5a abbe 1a57 a23d
000002a0: 00bc 563e 3de9 9a3d 09f2 d6be ec6f 95bd
000002b0: 24b5 f53e 158c 9dbc 7cb4 9d3d 7ce3 ff3e
000002c0: e832 6bbd 3b90 e1bd 3796 973e f272 073e
000002d0: 3132 693d 1ca2 db3c 8333 f7bd 83ba e5be
000002e0: 9cf3 9bbf 8551 d43d 50ba a73e 3928 1cbf
000002f0: 1918 c83e e138 d7bb e130 cebe 2bbc 293d
00000300: 8ea8 17be 2410 993f c4b6 783e 7d49 4ebe
00000310: c449 683e ef8e 95be 8dcc 783e 74bc f93d
00000320: eb28 6e3e 853d b9be 944b b8bd c1b0 8b3d
00000330: 1569 1ebe ad3a 3e3e 3cf8 543e 2512 51bd
00000340: a636 29bc e375 553e 619f 1d3f fe8a a33d
00000350: 9d95 8d3e 485d 623d a194 9f3e baab 963e
00000360: f550 733e 3482 f1be 4377 773e 21ca 703e
00000370: 620f c2be 5544 223f 2c01 fe3e 6d20 d5bb
00000380: 169a d2bd 81ca 19bf 0e8c e0bd 2de7 23bd
00000390: 34fd 6e3e fc0c 6b3e fd8b 8f3e 28e2 773e
000003a0: a753 93be e637 febe 27ed 5bbe 5d0b ae3e
000003b0: 769d 2dbf f9f0 e53c 00f4 6abd 428a 7a3d
000003c0: 36d8 b6bd 2468 babd 295a 4fbe 2a19 f13e
000003d0: ac81 fdbd 52cb fdbe fa4a cb3d 9ed8 e83c
000003e0: d0fe 453e 11df 963e f838 8ebe 30b7 37bf
000003f0: faba 2a3f 8bc1 0b3d eba2 98be 110d 88be

model.lstm.bias_ih_l1 f4 [256]
-1.3451594 -1.2534045 -1.0112393 -0.96433467 -0.95074147 -0.74384254 -0.523836 -0.8845749
-0.5453489 -0.07767308 -1.4585975 -0.56183094 -0.8705767 -0.20278193 -0.47422662 -0.44101846
-0.84875655 -0.78784865 -0.7637402 -1.1878976 -0.07146225 0.21522965 0.34582704 -0.54150546
-0.9540534 -0.0584151 -0.2758061 -0.5517839 -0.6173638 0.5393343 -0.84703094 0.49830565
0.45547044 -0.32198748 -0.83290285 -0.7017699 0.12962776 -0.7884477 0.28772888 -0.4911267
-1.3422419 0.028393332 -0.7209413 -1.4759145 -0.81421 -0.059233118 -0.8963791 0.19072056
-0.7196518 -1.1411217 -0.92325926 0.18227373 -0.72360736 -0.19243655 -0.24946402 0.30152154
-0.70527965 -0.35698438 -0.14631112 -0.46692264 -1.3677943 -1.0057986 -0.17522892 -0.42336935
-0.62583727 1.0169971 -0.6215691 -0.48480606 -0.7225375 -0.43999636 -0.37705198 -0.2805791
-0.43133405 -0.44265464 -0.87173176 -0.19285882 0.71145314 -0.85514843 0.47814056 0.41609246
-0.7372553 -0.23158634 -1.052893 -0.12883969 1.2828206 -0.19635285 0.2709791 -0.18998206
-0.2569233 -0.98438525 -0.23160325 -0.3707842 -1.11458 -0.9728245 -0.0036905357 -0.7639194
0.008780971 -1.2021736 -0.20438518 -0.37762058 0.2786772 -0.49698725 0.24667856 -0.25953093
-0.5053737 -0.64994335 -0.88362473 -0.18362395 -0.7196095 -0.63012874 -0.4136764 0.40789014
-0.45663384 -0.70421684 0.11101809 -0.6574613 -0.054934237 -0.7355549 0.43390626 -0.8083091
-0.5912066 -0.22584885 -1.437481 -0.98355687 -0.15296672 -0.6620823 0.17930588 -0.6958256
-0.17927097 0.20150562 0.42005613 0.033121355 -0.6263723 0.10280016 -0.9524046 -0.124806456
-0.09264047 0.420043 0.18200877 0.022216702 -0.40590867 -0.5269498 -0.10333872 -0.24032168
0.6860565 0.27610657 -1.0098964 0.120980114 0.16555725 -0.5947992 -0.31575972 -0.30132028
-0.018421547 -0.6364608 -0.33298945 0.30614877 0.37539092 -0.4951728 -0.27136692 -0.939049
-0.80163294 1.1047448 -0.13516183 0.093536586 -0.5329299 0.20690683 -0.3814928 -0.41820946
-0.3324257 -0.42141712 0.38125652 0.08462092 0.4104352 -0.18213159 1.0687821 -0.38137895
0.030127889 0.1856931 0.27417943 -0.49006605 -0.39840284 0.4662346 -0.24676268 -0.07636555
0.31528988 -0.18147159 0.8171044 0.6881531 -0.34755066 0.39084774 -0.07347301 0.25378108
-1.208204 -1.4409317 -0.9964124 -0.79997337 -0.29156157 -0.6682833 -1.3585865 -0.6265577
-0.9321225 -0.7611361 -1.2539939 -1.1443751 -1.2774519 -1.0072864 -1.0485643 -0.11086077
-1.1552899 -0.4466994 -0.113909714 -1.35578 -1.300462 -0.8077677 -1.1072578 -0.7526623
-0.65413034 -0.46522227 -0.72585475 -0.78354037 -1.2858117 -0.7186812 -0.65270513 -0.21285047
-1.2194479 -0.7422128 -0.5532376 -0.7401266 -1.4155086 -0.843958 -1.2337006 -0.6524439
-1.3467729 -1.0926981 -1.132022 -0.37104213 -1.0969802 -1.2945045 -0.2754794 -1.0698892
-1.3092378 -0.9415101 -0.7065192 -1.5117466 -1.5052987 -1.304117 -1.6239053 -0.7880615
-1.2468443 -0.7709875 -1.3055236 -0.587919 -0.3295483 -1.0199139 -1.2657012 -0.7788703
00000000: 2f2e acbf 8f6f a0bf 4a70 81bf a3de 76bf
00000010: cb63 73bf 776c 3ebf 1e1a 06bf 8073 62bf
00000020: fc9b 0bbf 1013 9fbd 53b3 babf 27d4 0fbf
00000030: 1dde 5ebf 11a6 4fbe d5cd f2be 2ccd e1be
00000040: 1c48 59bf 73b0 49bf 7a84 43bf 070d 98bf
00000050: cd5a 92bd 2965 5c3e 3e10 b13e 1aa0 0abf
00000060: d83c 74bf ac44 6fbd 7536 8dbe b641 0dbf
00000070: 8e0b 1ebf d011 0a3f 05d7 58bf eb21 ff3e
00000080: 6c33 e93e 8bdb a4be 1f39 55bf 31a7 33bf
00000090: 24bd 043e b5d7 49bf 3351 933e f574 fbbe
000000a0: 95ce abbf 2299 e83c 9c8f 38bf c4ea bcbf
000000b0: 1170 50bf 6d9e 72bd 1a79 65bf 404c 433e
000000c0: 1a3b 38bf 4710 92bf b85a 6cbf f7a5 3a3e
000000d0: 553e 39bf 160e 45be 7f73 7fbe 0861 9a3e
000000e0: 358d 34bf a8c6 b6be 95d2 15be 7c10 efbe
000000f0: e213 afbf 02be 80bf 366f 33be dec3 d8be
00000100: df36 20bf f62c 823f 271f 1fbf 8038 f8be
00000110: 38f8 38bf 3447 e1be f50c c1be 10a8 8fbe
00000120: d1d7 dcbe a1a3 e2be d029 5fbf c87c 45be
00000130: cb21 363f 02eb 5abf d7ce f43e 120a d53e
00000140: c3bc 3cbf f824 6dbe 33c5 86bf 8dee 03be
00000150: 7733 a43f b910 49be c6bd 8a3e a88a 42be
00000160: 738b 83be ac00 7cbf 6729 6dbe 6dd7 bdbe
00000170: 8faa 8ebf 070b 79bf eadc 71bb 3990 43bf
00000180: 10de 0f3c d3e0 99bf 594a 51be 7c57 c1be
00000190: c7ae 8e3e 1d75 febe 4e99 7c3e 3de1 84be
000001a0: 2c60 01bf b062 26bf 3b35 62bf eb07 3cbe
000001b0: 5438 38bf 1e50 21bf 65cd d3be fad6 d03e
000001c0: e9cb e9be 8e47 34bf 745d e33d 624f 28bf
000001d0: b902 61bd 534d 3cbf f628 de3e 58ed 4ebf
000001e0: 5159 17bf ec44 67be 61ff b7bf 62ca 7bbf
000001f0: 4fa3 1cbe 3a7e 29bf f69b 373e a021 32bf
00000200: cf92 37be 7d57 4e3e 9911 d73e 42aa 073d
00000210: ef59 20bf e488 d23d cad0 73bf 879a ffbd
00000220: 49ba bdbd e00f d73e 8260 3a3e cdff b53c
00000230: 43d3 cfbe 2fe6 06bf 40a3 d3bd e316 76be
00000240: 66a1 2f3f d75d 8d3e 4944 81bf 6cc4 f73d
00000250: d787 293e c344 18bf 42ab a1be a746 9abe
00000260: c9e8 96bc 18ef 22bf 987d aabe 88bf 9c3e
00000270: 3d33 c03e 4a87 fdbe 9bf0 8abe 8465 70bf
00000280: d137 4dbf 4768 8d3f dd67 0abe 1c90 bf3d
00000290: 186e 08bf 62df 533e 0653 c3be 8d1f d6be
000002a0: b433 aabe fcc3 d7be 0e34 c33e bc4d ad3d
000002b0: 9024 d23e b480 3abe dacd 883f 1a44 c3be
000002c0: c3ce f63c 5526 3e3e 3f61 8c3e f0e9 fabe
000002d0: 75fb cbbe 4db6 ee3e 5baf 7cbe 8b65 9cbd
000002e0: ad6d a13e b0d3 39be c12d 513f cd2a 303f
000002f0: 29f2 b1be 321d c83e 0479 96bd 98ef 813e
00000300: 6ea6 9abf 7370 b8bf e214 7fbf 0ecb 4cbf
00000310: 8f47 95be 9d14 2bbf 2ae6 adbf 1666 20bf
00000320: 959f 6ebf d1d9 42bf df82 a0bf e27a 92bf
00000330: 8b83 a3bf c3ee 80bf 5b37 86bf f90a e3bd
00000340: 8ae0 93bf c9b5 e4be 7f49 e9bd 338a adbf
00000350: 8a75 a6bf ddc9 4ebf a0ba 8dbf 7aae 40bf
00000360: 1675 27bf 9d31 eebe 9ed1 39bf 1a96 48bf
00000370: 7a95 a4bf 7efb 37bf af17 27bf 79f5 59be
00000380: de16 9cbf a801 3ebf fba0 0dbf f078 3dbf
00000390: 632f b5bf a20d 58bf e7e9 9dbf 9006 27bf
000003a0: 0e63 acbf 88dd 8bbf 19e6 90bf 3cf9 bdbe
000003b0: d969 8cbf 53b2 a5bf a30b 8dbe 21f2 88bf
000003c0: 1b95 a7bf ce06 71bf 71de 34bf ea80 c1bf
000003d0: a1ad c0bf 4eed a6bf 21dc cfbf 66be 49bf
000003e0: 9898 9fbf 705f 45bf 661b a7bf dc81 16bf
000003f0: 8eba a8be 8a8c 82bf 7f02 a2bf 0b64 47bf

model.lstm.bias_hh_l1 f4 [256]
-1.3881986 -1.2803328 -0.9846731 -0.95518076 -0.9641075 -0.7509245 -0.5131838 -0.90842646
-0.54994893 -0.11285201 -1.4872223 -0.5488869 -0.8786204 -0.19101177 -0.50371 -0.47839287
-0.8147564 -0.7834837 -0.76929384 -1.1838717 -0.03569715 0.22601274 0.36318275 -0.53003925
-0.9206069 -0.019385204 -0.2681953 -0.5558068 -0.6707442 0.5589111 -0.878599 0.50085276
0.45162073 -0.28300786 -0.80694395 -0.7084589 0.09315162 -0.792406 0.25806025 -0.48585847
-1.3826374 0.060360227 -0.73787767 -1.5004072 -0.8577021 -0.061562877 -0.8722734 0.1780216
-0.70862746 -1.1266224 -0.8819545 0.168181 -0.71054816 -0.1509988 -0.21468218 0.27930373
-0.7013044 -0.30288705 -0.12868613 -0.514099 -1.3485798 -1.0227348 -0.19494906 -0.4109267
-0.6501816 0.988327 -0.59533864 -0.46812725 -0.6898795 -0.45190746 -0.40414527 -0.31566074
-0.39782885 -0.42277932 -0.8736715 -0.20400034 0.6695743 -0.85737556 0.5060142 0.4604561
-0.6964402 -0.25774628 -1.0282294 -0.11576855 1.2415648 -0.16726786 0.30982342 -0.15700811
-0.2888689 -1.0328188 -0.20204253 -0.38353974 -1.1167859 -0.9275296 -0.0072479583 -0.77914786
-0.013419181 -1.2427756 -0.21335417 -0.3617145 0.27841032 -0.47821048 0.2251058 -0.27752808
-0.5492545 -0.701843 -0.87521875 -0.1913268 -0.7042194 -0.6268904 -0.42846403 0.42292738
-0.4277129 -0.6579456 0.101871744 -0.6360859 -0.08308589 -0.7235619 0.42592078 -0.77903485
-0.5934618 -0.21779752 -1.4185483 -1.0018053 -0.16777256 -0.6567736 0.22098692 -0.7043585
-0.22377579 0.2157637 0.41985413 0.010251467 -0.61251515 0.107105285 -0.98510075 -0.10243224
-0.09881729 0.42855033 0.18198101 0.033404443 -0.3708335 -0.5256221 -0.10629729 -0.23470092
0.69026583 0.25857732 -1.0117345 0.14391069 0.17659539 -0.575437 -0.33949718 -0.2602253
-0.03902372 -0.67012036 -0.32035077 0.26928073 0.37005582 -0.48748493 -0.26732004 -0.94351053
-0.76876116 1.0936773 -0.1018286 0.082300745 -0.53771037 0.21020207 -0.40070137 -0.40838414
-0.3041937 -0.40859005 0.37062427 0.06464715 0.42315078 -0.17457451 1.0848566 -0.40411326
0.009567153 0.21614397 0.25761428 -0.46913078 -0.41450092 0.44436452 -0.25771275 -0.06745532
0.3112757 -0.1620774 0.83341473 0.6520554 -0.3695194 0.38190246 -0.02517693 0.21017109
-1.2183415 -1.4332337 -0.99553925 -0.790217 -0.29119143 -0.66672885 -1.3842287 -0.60560143
-0.9151244 -0.73259014 -1.2075391 -1.0884153 -1.2622355 -0.95550185 -1.0801635 -0.13084677
-1.1458238 -0.46548387 -0.07541474 -1.3544204 -1.3041097 -0.8333655 -1.0769908 -0.7215266
-0.608306 -0.46250677 -0.67916864 -0.74256396 -1.2496665 -0.7086238 -0.64305615 -0.2522101
-1.167257 -0.76864576 -0.54837227 -0.73978853 -1.422437 -0.8357364 -1.2453806 -0.663167
-1.3706325 -1.0891285 -1.1165729 -0.3996383 -1.111098 -1.3044977 -0.284505 -1.0664713
-1.2778339 -0.98776907 -0.6757047 -1.5030775 -1.5267427 -1.2903254 -1.6669878 -0.821972
-1.2897698 -0.7504307 -1.3003916 -0.5483173 -0.33679244 -1.0192878 -1.2504137 -0.77759445
00000000: 7eb0 b1bf f2e1 a3bf 8913 7cbf ba86 74bf
00000010: c0cf 76bf 973c 40bf 0360 03bf a38e 68bf
00000020: 74c9 0cbf f41e e7bd 4d5d bebf da83 0cbf
00000030: 44ed 60bf 9798 43be 23f3 00bf e9ef f4be
00000040: e093 50bf 6392 48bf 71f0 44bf 1c89 97bf
00000050: 2d37 12bd e26f 673e 17f3 b93e a7b0 07bf
00000060: e5ac 6bbf b8cd 9ebc e550 89be 5b49 0ebf
00000070: e4b5 2bbf cc14 0f3f ddeb 60bf e337 003f
00000080: d53a e73e 68e6 90be e193 4ebf 905d 35bf
00000090: 47c6 be3d 1fdb 4abf 7920 843e 71c2 f8be
000000a0: 43fa b0bf 493c 773d 8de5 3cbf 580d c0bf
000000b0: 5d92 5bbf 5b29 7cbd 4f4d 5fbf 4b4b 363e
000000c0: 9c68 35bf 2a35 90bf c5c7 61bf a437 2c3e
000000d0: 7ce6 35bf 6e9f 1abe a5d5 5bbe e600 8f3e
000000e0: af88 33bf 0314 9bbe 4cc6 03be fe9b 03bf
000000f0: 439e acbf f9e8 82bf baa0 47be fc64 d2be
00000100: 4d72 26bf 0003 7d3f 1d68 18bf 60ae efbe
00000110: f19b 30bf 6a60 e7be 21ec cebe 499e a1be
00000120: 39b0 cbbe 8876 d8be efa8 5fbf 77e5 50be
00000130: 3969 2b3f f77c 5bbf 268a 013f e7c0 eb3e
00000140: e849 32bf 52f7 83be 059d 83bf 1018 edbd
00000150: 98eb 9e3f 4448 2bbe 2da1 9e3e bcc6 20be
00000160: a0e6 93be 6833 84bf 3de4 4ebe 525f c4be
00000170: d7f2 8ebf 9472 6dbf 4880 edbb 3c76 47bf
00000180: 20dc 5bbc 4513 9fbf 8479 5abe a532 b9be
00000190: cc8b 8e3e 01d8 f4be 2382 663e 2918 8ebe
000001a0: f19b 0cbf fcab 33bf 560e 60bf 2ceb 43be
000001b0: b947 34bf e47b 20bf a35f dbbe f089 d83e
000001c0: 2ffd dabe 1f6f 28bf 22a2 d03d 87d6 22bf
000001d0: ef28 aabd 5a3b 39bf 4a12 da3e d46e 47bf
000001e0: 1ded 17bf 5006 5fbe fe92 b5bf 283b 80bf
000001f0: 92cc 2bbe 5122 28bf 654a 623e d750 34bf
00000200: 7b25 65be 29f1 5c3e 1ff7 d63e c5f5 273c
00000210: cbcd 1cbf 045a db3d 902f 7cbf ffc7 d1bd
00000220: b860 cabd f36a db3e 3b59 3a3e 19d3 083d
00000230: e3dd bdbe 2c8f 06bf 65b2 d9bd 7055 70be
00000240: 43b5 303f 3f64 843e 8480 81bf 535d 133e
00000250: 6cd5 343e d74f 13bf 93d2 adbe 403c 85be
00000260: 56d7 1fbd 028d 2bbf 0405 a4be 2adf 893e
00000270: f577 bd3e a097 f9be 2cde 88be e889 71bf
00000280: 88cd 44bf 9efd 8b3f 838b d0bd 4b8d a83d
00000290: 63a7 09bf 363f 573e bb28 cdbe ba17 d1be
000002a0: 47bf 9bbe b732 d1be 77c2 bd3e ba65 843d
000002b0: 38a7 d83e a9c3 32be 95dc 8a3f efe7 cebe
000002c0: 8cbf 1c3c d854 5d3e 05e6 833e e931 f0be
000002d0: 7739 d4be bf83 e33e edf2 83be 0426 8abd
000002e0: 875f 9f3e 9ef7 25be ab5a 553f 1aed 263f
000002f0: a631 bdbe b888 c33e d93f cebc 1737 573e
00000300: 9df2 9bbf 3474 b7bf a9db 7ebf a94b 4abf
00000310: 0b17 95be beae 2abf 682e b1bf b208 1bbf
00000320: 9845 6abf 078b 3bbf a490 9abf 3151 8bbf
00000330: ef90 a1bf c59b 74bf cc42 8abf b2fc 05be
00000340: 5baa 92bf e753 eebe 0b73 9abd a65d adbf
00000350: 11ed a6bf 7157 55bf d6da 89bf f8b5 38bf
00000360: f1b9 1bbf b0cd ecbe ffdd 2dbf ac18 3ebf
00000370: 12f5 9fbf 5f68 35bf 549f 24bf af21 81be
00000380: ad68 95bf f8c5 44bf 2062 0cbf c862 3dbf
00000390: 6a12 b6bf d2f2 55bf a268 9fbf 50c5 29bf
000003a0: e370 afbf 9068 8bbf dceb 8ebf 649d ccbe
000003b0: 7638 8ebf c8f9 a6bf a4aa 91be 2282 88bf
000003c0: 1090 a3bf 6fde 7cbf fcfa 2cbf d864 c0bf
000003d0: 4e6c c3bf 6229 a5bf db5f d5bf c26c 52bf
000003e0: 2d17 a5bf 3a1c 40bf 3b73 a6bf 865e 0cbf
000003f0: 0f70 acbe 0678 82bf 8e0d a0bf 6e10 47bf
