lightning_logs/version_101/checkpoints/epoch=4-step=12080.ckpt (torch, 359651 bytes, 15 tensors)

model.lstm.weight_ih_l0 f4 [320, 9]
0	0xbe29cd66	-0.1658226
1	0x3ec566e7	0.3855507
2	0xbe8fa32c	-0.28054178
3	0xbe879659	-0.26481894
4	0x3e15f577	0.14644419
5	0xbe3562eb	-0.17713515
6	0xbd98f893	-0.07469287
7	0x3e056062	0.13025048
8	0xbf001f7a	-0.5004803
9	0x3e544443	0.20729165
10	0x3e98fa2d	0.2987837
11	0xbeb32a43	-0.3499318
12	0xbd1e6bfc	-0.0386772
13	0xbe6daf35	-0.23211367
14	0xbe7cd2ae	-0.24689743
15	0xbe39e006	-0.18151864
16	0xbe849d02	-0.25901037
17	0xbafb145d	-0.0019155849
18	0x3e1693a2	0.14704755
19	0x3e28cf17	0.16485249
20	0x3c4d6c9f	0.012538104
21	0xbda2511d	-0.079256274
22	0xbeb36cf3	-0.3504406
23	0xbecc8169	-0.39942482
24	0x3db4b0e8	0.08822805
25	0xbc96cb05	-0.018407354
26	0x3e5ee93c	0.2176866
27	0xbed41ca9	-0.41428116
28	0x3e17ae30	0.14812541
29	0xbf1515b1	-0.58236223
30	0xbeb34458	-0.3501308
31	0xbe20b472	-0.15693834
32	0xbece9ecc	-0.40355527
33	0xbe337ba4	-0.17527634
34	0xbdc05f71	-0.09393204
35	0x3e66102e	0.2246711
36	0xbe5de934	-0.21670991
37	0xbc840a10	-0.01611808
38	0xbe19504a	-0.14972034
39	0x3db015c5	0.08597902
40	0xbea00122	-0.31250864
41	0xbdfa6d7b	-0.12227913
42	0xbe21e0f6	-0.15808472
43	0x3ee33d27	0.44382593
44	0xbec89f3c	-0.39183986
45	0xbdf7ca9e	-0.12099193
46	0x3daedb5d	0.08537934
47	0xbebbbfd7	-0.366698
48	0x3e2ef114	0.17084152
49	0x3ebf8f22	0.3741389
50	0x3dd66397	0.10468214
51	0xbe31864e	-0.1733639
52	0x3e7093b2	0.23493841
53	0x3d18581c	0.037193403
54	0x3e92909f	0.28625962
55	0x3e6ee453	0.23329286
56	0x3ac6af72	0.0015158488
57	0xbf109a78	-0.564857
58	0xbf0086fb	-0.50205964
59	0xbf1b0255	-0.60550433
60	0x3e13e6d6	0.14443526
61	0xbca98aac	-0.020696007
62	0xbc43b49d	-0.011944917
63	0xbe7c1d56	-0.24620566
64	0xbd05c465	-0.032658
65	0xbe93719b	-0.28797612
66	0xba912c99	-0.0011075913
67	0xbe5083a9	-0.20362724
68	0xbe8c399b	-0.273877
69	0x3d7f50e4	0.062333003
70	0x3e5ca590	0.21547532
71	0xbc9c4715	-0.019076863
72	0x3dd2b320	0.10288072
73	0x3e8240ca	0.25440055
74	0xbe808bc1	-0.25106624
75	0xbe781e67	-0.24230348
76	0x3ec6d5b8	0.3883493
77	0x3f11891b	0.5684983
78	0xbd9e9726	-0.07743673
79	0x3e3dd41d	0.18537946
80	0xbe45f1af	-0.19330476
81	0x3ef0be6e	0.47020286
82	0x3ea50600	0.3223114
83	0x3e8c7c45	0.2743856
84	0x3de9f4fe	0.11423682
85	0xbde3aeff	-0.11117362
86	0xbe2f7678	-0.17135036
87	0x3ea036e9	0.31291893
88	0xbea9c4e9	-0.33158043
89	0xbe3c3262	-0.18378595
90	0xbe708423	-0.23487906
91	0x3e710f7f	0.23541068
92	0xbf656917	-0.8961348
93	0x3d848876	0.0647134
94	0x3e4355d0	0.19075704
95	0xbe2f26a4	-0.17104584
96	0xbe7a0bc2	-0.24418548
97	0x3f077bb2	0.5292312
98	0xbea02a81	-0.31282428
99	0xbe0c355e	-0.13692233
100	0x3e069754	0.13143665
101	0x3de4a033	0.11163368
102	0x3e0ea037	0.13928305
103	0x3e2d0196	0.16895136
104	0xbdfc1c69	-0.12310106
105	0x3daa0629	0.08301956
106	0x3d98fd09	0.074701376
107	0xbf0992bb	-0.5373952
108	0x3e8f86c4	0.28032506
109	0x3e88aeb4	0.26695788
110	0x3e8f4eb9	0.27989748
111	0x3eb1ed65	0.3475143
112	0x3d17770f	0.036978777
113	0xbe8f80eb	-0.28028044
114	0x3e4285b3	0.18996315
115	0xbcf88e9f	-0.030341445
116	0x3de2f089	0.11081035
117	0x3dc153bf	0.094398014
118	0x3cb8f2aa	0.022576649
119	0xbe0db11e	-0.13837096
120	0xbeb3f061	-0.35144332
121	0xbc130d40	-0.008975327
122	0xbf1868e5	-0.59535056
123	0x3d1c46d5	0.03815349
124	0x3e990969	0.29889992
125	0x3eddde24	0.43333542
126	0x3f01bb08	0.5067601
127	0x3e92f576	0.28702897
128	0x3d274a5a	0.04084239
129	0x3da31061	0.079621084
130	0x3dac6ca5	0.0841916
131	0x3db704ec	0.08936486
132	0x3e93be4b	0.2885612
133	0x3e73579f	0.23763894
134	0x3f1307be	0.5743369
135	0x3e320e88	0.17388356
136	0xbe542766	-0.20718154
137	0xbd3d29a0	-0.046182275
138	0xbf356847	-0.7086224
139	0xbe7589ce	-0.2397835
140	0x3ebf61d1	0.37379315
141	0x3d4a7dec	0.049436495
142	0xbf07ccf1	-0.5304709
143	0x3efaed97	0.49009392
144	0xbe11cedd	-0.14239068
145	0x3f335d46	0.700642
146	0xbe87c713	-0.2651907
147	0x3e2f06bb	0.17092411
148	0x3d92d0c7	0.07168727
149	0x3f38f698	0.7225127
150	0x3d8c0591	0.06836999
151	0xbe9928ce	-0.29913944
152	0x3e74ce92	0.23906925
153	0x3f321e5e	0.69577587
154	0x3f06ebc1	0.5270348
155	0xbc8b12d9	-0.01697676
156	0xbeddeecc	-0.4334625
157	0xbeb5f3aa	-0.35537463
158	0xbf26132a	-0.6487299
159	0x3e05c9c7	0.13065253
160	0x3f6a8ffc	0.9162595
161	0xbebdbfd5	-0.3706042
162	0xbe2b96a3	-0.16756682
163	0xbe46151f	-0.19343995
164	0x3cddc1cf	0.027069954
165	0x3e58bb2c	0.2116515
166	0xbe4e3dfa	-0.2014083
167	0xbdbc8532	-0.092050925
168	0xbe4c72c0	-0.19965649
169	0xbe52440b	-0.20533769
170	0x3f3afce5	0.73042136
171	0x3c9be32f	0.019029228
172	0x3db314ae	0.08744179
173	0x3df2789e	0.11839412
174	0x3d5c8318	0.05383596
175	0xbdfc0d74	-0.123072535
176	0xbec2fe14	-0.3808447
177	0x3e3d463f	0.18483828
178	0xbe617a66	-0.22019348
179	0x3e54766c	0.207483
180	0x3e74a628	0.23891509
181	0xbda26bb7	-0.07930701
182	0xbe32ed46	-0.17473325
183	0xbe967f2d	-0.29393902
184	0x3ea20a2a	0.3164838
185	0x3e4c3f3b	0.19945996
186	0x3c9e4388	0.01931931
187	0xbe8108c8	-0.25202012
188	0x3dc85872	0.097824946
189	0x3c6bd131	0.014393137
190	0x3ec3c24a	0.38234168
191	0x3d908947	0.070574336
192	0x3e29d5f7	0.16585527
193	0xbee92d4f	-0.4554238
194	0xbe0b5733	-0.13607483
195	0xbcf5c985	-0.030003319
196	0xbeeea36f	-0.46609065
197	0x3d2fb9b5	0.042901713
198	0xbc30e72a	-0.010797301
199	0x3e6a6344	0.2288943
200	0xbdb63f6a	-0.08898814
201	0x3d3bebdb	0.045879226
202	0xbec07c1d	-0.3759469
203	0xbe190800	-0.14944458
204	0xbe3bfeff	-0.18358992
205	0x3e15a8d8	0.1461519
206	0xbeaa8061	-0.3330107
207	0xbef28f42	-0.47374922
208	0x3f0179c1	0.50576407
209	0xbea89d0f	-0.32932326
210	0x3dd20a15	0.10255829
211	0x3e064c92	0.13115147
212	0xbd21b67a	-0.039480664
213	0x3da136db	0.07871791
214	0xbc785b38	-0.015158467
215	0x3bc35881	0.005961478
216	0xbc0da068	-0.008644201
217	0x3e16eccd	0.1473877
218	0xbdd538cd	-0.104112245
219	0x3e934931	0.28766778
220	0x3dfedb11	0.12444127
221	0x3ce63ca9	0.028105097
222	0x3e4094a4	0.18806702
223	0x3c1e83f3	0.009675014
224	0xbc48974c	-0.012243103
225	0xbb0bfcc0	-0.0021360368
226	0xbd2a3c90	-0.041561663
227	0x3e3a038f	0.1816542
228	0x3ee68201	0.4502106
229	0xbe25e309	-0.16199888
230	0xbda072e7	-0.07834416
231	0x3e4b3d20	0.19847536
232	0x3daf9c10	0.085746884
233	0x3e7a02ca	0.24415126
234	0xbe94d401	-0.29067996
235	0xbe9c1fee	-0.3049311
236	0xbda4547c	-0.080239266
237	0xbf08f614	-0.53500485
238	0xbf74445c	-0.9541681
239	0xbedcf4d9	-0.43155554
240	0x3dea6495	0.11444966
241	0xbf28b409	-0.6589971
242	0x3e2f889f	0.1714196
243	0x3eb6b1d4	0.35682547
244	0xbe16f31b	-0.14741175
245	0xbeacb48d	-0.337315
246	0xbe891d67	-0.26780245
247	0x3d8acdb0	0.06777513
248	0xbf20ac21	-0.6276265
249	0xbe08e398	-0.1336807
250	0xbecfa13e	-0.40552706
251	0xbd31b7a0	-0.04338801
252	0xbea40ed3	-0.3204256
253	0x3e0ae1a1	0.13562633
254	0xbedba74f	-0.42901084
255	0xbce6b56b	-0.028162679

model.lstm.weight_hh_l0 f4 [320, 80]
0	0xbf058dc1	-0.52169424
1	0x3e6253f2	0.22102335
2	0xbe186280	-0.14881325
3	0x3dde61cd	0.10858498
4	0xbf47c9a1	-0.78042036
5	0xbe2031c1	-0.1564398
6	0xbe0dd113	-0.13849287
7	0x3e83bf21	0.25731757
8	0x3e491d66	0.19640121
9	0xbf0a54ef	-0.5403585
10	0x3e455ccd	0.19273682
11	0x3e17fcad	0.14842482
12	0x3ebb85e0	0.36625576
13	0xbe9c4203	-0.30519113
14	0x3f1e477f	0.61827844
15	0xbd7b8759	-0.061408374
16	0xbf322e20	-0.6960163
17	0xbf1213bd	-0.5706137
18	0x3f0e0304	0.5547335
19	0x3e0c73fb	0.13716118
20	0xbeaece2e	-0.34141678
21	0x3d6308fa	0.055428483
22	0xbe804fc8	-0.25060868
23	0xbf06800e	-0.52539146
24	0x3c0a65ff	0.008447169
25	0xbe32f5ef	-0.17476629
26	0xbf52ce67	-0.82346195
27	0x3e539f50	0.20666242
28	0xbf2a5fb9	-0.6655231
29	0x3d915b48	0.07097489
30	0xbdc4e3ca	-0.0961376
31	0x3d8de895	0.06929127
32	0x3edb976e	0.4288897
33	0xbe20820f	-0.15674613
34	0xbe57326c	-0.21015328
35	0x3deb896d	0.11500821
36	0xbea2404c	-0.3168968
37	0x3ea3b0f8	0.31970954
38	0xbe8c928f	-0.27455565
39	0xbf36d827	-0.7142357
40	0xbf5ef84d	-0.87097627
41	0xbea497ad	-0.3214697
42	0xbf2a37e4	-0.6649153
43	0x3de1bb27	0.110220246
44	0x3ec72267	0.38893434
45	0x3ecae97d	0.39631262
46	0x3e80d4ec	0.25162446
47	0x3ef68168	0.48145604
48	0xbf44e5c6	-0.76913106
49	0xbe9660c9	-0.29370716
50	0x3e8e2687	0.2776377
51	0x3f3b3098	0.73121023
52	0xbe527ee3	-0.20556216
53	0x3f46405f	0.7744197
54	0xbf40265a	-0.7505852
55	0xbeaf69a5	-0.34260288
56	0x3bbe1563	0.0058008893
57	0xbecafaf2	-0.3964458
58	0xbe158261	-0.14600517
59	0xbe7a3467	-0.24434052
60	0xbee5c729	-0.4487851
61	0x3e2bd38c	0.16779917
62	0x3fb69731	1.426489
63	0xbe09e72f	-0.13467096
64	0xbed26f28	-0.4110043
65	0x3f20b692	0.6277858
66	0x3ef8fc93	0.486302
67	0x3f1a94dc	0.6038339
68	0x3e9b5af2	0.30342823
69	0xbd5ba49c	-0.05362378
70	0xbf2b4fba	-0.6691853
71	0xbf0bbb0b	-0.5458228
72	0xbed1e5a8	-0.40995526
73	0xbf1f9fea	-0.62353384
74	0x3e143217	0.14472233
75	0x3f405e54	0.75143933
76	0x3e48bdaa	0.19603601
77	0xbc582188	-0.013191588
78	0x3e745e94	0.23864204
79	0xbe5a28ce	-0.21304628
80	0xbeed1fdc	-0.4631337
81	0xbf0bd2f5	-0.5461877
82	0x3ebfc4bd	0.37454787
83	0xbe7e38e3	-0.24826388
84	0x3ec5fa4a	0.38667518
85	0xbeb9f194	-0.36317122
86	0xbe056131	-0.13025357
87	0xbe24a236	-0.16077504
88	0x3eafaccf	0.3431153
89	0xbe94c2c6	-0.2905485
90	0x3e836990	0.25666475
91	0x3d524e1b	0.05134402
92	0xbed3acb8	-0.4134271
93	0x3d54e521	0.051976327
94	0x3ee98c66	0.45614928
95	0xbeb25b82	-0.3483544
96	0x3e33cdb5	0.1755894
97	0xbea20e85	-0.31651703
98	0xbe6edf49	-0.23327364
99	0x3ed8814b	0.42286143
100	0xbe6d9c70	-0.23204207
101	0xbeae3d4a	-0.34031135
102	0xbd98a716	-0.07453744
103	0x3dd8e7c8	0.10591084
104	0x3e80098e	0.2500729
105	0xbeba28a8	-0.36359143
106	0x3e568081	0.20947458
107	0x3eabc8f3	0.3355175
108	0xbd5bcfa9	-0.053664837
109	0x3f00e7da	0.5035378
110	0xbe5df7b2	-0.2167652
111	0x3ebc0f47	0.36730406
112	0xbe3fce4d	-0.18731041
113	0xbeaab6fc	-0.3334273
114	0xbda9fb8c	-0.08299932
115	0xbea94b78	-0.3306539
116	0xbe62ba9d	-0.221415
117	0x3e68f194	0.22748405
118	0xbe68de83	-0.22741131
119	0xbf27e420	-0.65582466
120	0xbdabcee5	-0.083890714
121	0x3e41a80b	0.1891176
122	0xbe773ed3	-0.2414506
123	0x3daa023d	0.08301208
124	0x3e9ae94d	0.3025612
125	0x3d1acbce	0.03779202
126	0x3e16f3c3	0.14741425
127	0x3ce09a9e	0.027417477
128	0x3e97bf69	0.29638222
129	0x3da93efa	0.08263965
130	0xbe22613c	-0.15857404
131	0xbe8b32e9	-0.2718728
132	0x3d051d33	0.03249855
133	0xbeddb535	-0.43302312
134	0xbe86d22f	-0.26332232
135	0x3f0d6cd3	0.5524418
136	0xbdc74e0a	-0.09731682
137	0x3f3db235	0.7410005
138	0xbe86f8f5	-0.26361814
139	0xbf23b1da	-0.63943255
140	0xbe824418	-0.25442576
141	0xbe27ff20	-0.16405916
142	0x3e40c79f	0.1882615
143	0xbe67f22e	-0.22650978
144	0xbdab9414	-0.08377853
145	0xbf309336	-0.68974626
146	0x3ea08b5a	0.31356317
147	0x3dd96d4e	0.10616551
148	0xbe0c6fcb	-0.1371452
149	0xbea97479	-0.33096674
150	0x3ed16627	0.4089825
151	0x3e9d8477	0.30765125
152	0x3d8a22e7	0.06744938
153	0xbea2f3b7	-0.31826565
154	0x3e559f7d	0.20861621
155	0xbdf71b99	-0.12065811
156	0x3ec6ef78	0.38854575
157	0x3e0c87f0	0.13723731
158	0x3ea6d608	0.32585168
159	0x3e361678	0.17782009
160	0xbeac1d25	-0.33615986
161	0xbf08b390	-0.5339899
162	0x3da7403b	0.08166548
163	0x3e9dad8b	0.30796465
164	0xbcf84ecc	-0.03031101
165	0xbc7a7b7b	-0.015288229
166	0xbebe5288	-0.3717234
167	0x3f064d57	0.5246176
168	0x3e6ef55c	0.23335785
169	0xbd594a1b	-0.053049188
170	0xbe94d4bc	-0.29068553
171	0xbe972e57	-0.29527542
172	0x3eb120c7	0.3459532
173	0x3ee33fb2	0.44384533
174	0x3f103db3	0.56344146
175	0x3e3dca50	0.18534207
176	0xbed04bc0	-0.40682793
177	0xbebdd00a	-0.37072784
178	0x3e343737	0.17599188
179	0x3dc40ea0	0.09573102
180	0x3d9bdc75	0.07610408
181	0xbf39f27c	-0.72635627
182	0xbea03af0	-0.31294966
183	0x3f01c37c	0.5068891
184	0xbcad4cef	-0.021154849
185	0xbe40d36e	-0.18830654
186	0xbe23b1e4	-0.15985829
187	0x3f61dfff	0.88232416
188	0xbd6d0580	-0.057866573
189	0xbeee6613	-0.4656225
190	0x3f3a082e	0.7266873
191	0x3e9609cb	0.29304346
192	0xbe372251	-0.17884184
193	0xbf29f28d	-0.6638573
194	0x3e5601e9	0.20899166
195	0xbef8f450	-0.48623896
196	0xbec2a82f	-0.3801894
197	0x3e9c73da	0.30557138
198	0xbf37b25d	-0.71756536
199	0xbf96a88e	-1.1770189
200	0xbea8790f	-0.3290486
201	0xbeb8c6aa	-0.3608907
202	0x3f0103a9	0.5039621
203	0x3f04dbb1	0.5189772
204	0xbe088fa8	-0.1333605
205	0x3ea917f0	0.33026075
206	0x3df3a800	0.11897278
207	0x3d5b16e5	0.05348863
208	0xbf1df641	-0.6170388
209	0x3e75e8d1	0.24014594
210	0x3f084b1b	0.532396
211	0x3e5cf88f	0.21579193
212	0xbdb99b1f	-0.0906279
213	0x3e41e76a	0.18935934
214	0xbf11c5ae	-0.5694226
215	0xbe2eaec8	-0.17058861
216	0xbd2b8af5	-0.041880567
217	0xbdbe9f1d	-0.09307692
218	0xbeea76b3	-0.45793685
219	0xbe0146da	-0.12624684
220	0xbf0c23b1	-0.5474196
221	0x3f07f1e4	0.5310347
222	0xbd6c9597	-0.057759847
223	0x3e8e0812	0.27740532
224	0xbe00709c	-0.12542957
225	0x3ed1f73b	0.41008934
226	0x3e6de0c5	0.23230274
227	0xbef7dfeb	-0.48413023
228	0xbe2fa830	-0.17154002
229	0x3d044bf0	0.032298982
230	0x3f21e770	0.6324377
231	0xbf1dd047	-0.6164593
232	0xbd38f993	-0.045159888
233	0xbf1ff1cd	-0.62478334
234	0xbc337e70	-0.010955438
235	0x3f2b85ff	0.67001337
236	0x3d4856d4	0.04891093
237	0x3e4554c3	0.19270615
238	0x3eea4b9b	0.45760807
239	0xbe916724	-0.28399003
240	0xbe9fd7c7	-0.31219313
241	0xbf1ab8bc	-0.6043813
242	0x3e16ea55	0.14737828
243	0xbe0cc165	-0.13745649
244	0x3ba72c58	0.0051017217
245	0x3e844e13	0.25840816
246	0xbe233806	-0.1593934
247	0xbeb6ed3f	-0.3572788
248	0x3f355fa4	0.7084906
249	0x3de9bb23	0.114126466
250	0x3e10f7d7	0.14157043
251	0x3d2a0e6b	0.041517656
252	0x3ee4dccd	0.44699708
253	0xbd9d29f3	-0.07674017
254	0xbe95e644	-0.2927724
255	0x3d939617	0.07206362

model.lstm.bias_ih_l0 f4 [320]
0	0xbeebc067	-0.4604523
1	0xbeb43ded	-0.35203496
2	0xbf847dd3	-1.0350899
3	0xbe8e8675	-0.27836958
4	0xbe919294	-0.28432143
5	0xbf6ebf4e	-0.9326066
6	0xbf48c344	-0.7842295
7	0xbf15ae5b	-0.5846917
8	0xbd7b9d1a	-0.06142912
9	0xbf1c4551	-0.6104327
10	0xbf561241	-0.83621603
11	0xbf074996	-0.5284666
12	0xbf58275d	-0.84435064
13	0xbf8afc69	-1.085828
14	0xbf24e736	-0.644153
15	0xbe80bc1b	-0.25143513
16	0xbdb4f726	-0.08836202
17	0xbd0b8779	-0.034064744
18	0xbf2aea9d	-0.6676424
19	0xbf7358fe	-0.95057666
20	0xbe1e5042	-0.15460303
21	0x3c0c7bdb	0.008574451
22	0xbf899215	-1.0747706
23	0xbe35e6d3	-0.17763834
24	0xbf446f2a	-0.7673212
25	0xbf64f412	-0.8943492
26	0x3db00638	0.08594936
27	0xbef6a27a	-0.48170835
28	0xbf726887	-0.94690746
29	0xbea5eb2b	-0.3240598
30	0xbe00f8ae	-0.12594864
31	0xbf584c2b	-0.84491223
32	0xbe68358c	-0.22676677
33	0xbed06907	-0.4070513
34	0xbee0cbfd	-0.4390563
35	0xbf115b3b	-0.5677983
36	0xbeb6125d	-0.35560885
37	0xbf7579a1	-0.95888716
38	0xbe82145f	-0.25406167
39	0xbf0a6752	-0.54063904
40	0xbf6c2c18	-0.9225478
41	0xbfa9e72b	-1.3273672
42	0xbe547888	-0.20749104
43	0xbf377f7e	-0.7167891
44	0xbedaefb0	-0.42760992
45	0xbf56ee8a	-0.8395773
46	0xbf41f796	-0.7576841
47	0xbe1c7b66	-0.15281448
48	0xbf2f4929	-0.6847101
49	0xbf61d8bf	-0.88221353
50	0xbf6ce873	-0.9254219
51	0xbf2d45d6	-0.67684686
52	0x3b79d586	0.0038121655
53	0xbf43b744	-0.76451516
54	0xbedd4502	-0.4321671
55	0xbdf4aba8	-0.11946803
56	0xbf2041dd	-0.626005
57	0xbf03df7f	-0.515129
58	0xbf065179	-0.5246807
59	0xbefada22	-0.48994547
60	0xbe4e6668	-0.20156252
61	0xbf0ec5b1	-0.55770403
62	0xbe8eec43	-0.27914628
63	0xbf104d7d	-0.5636824
64	0xbf3a7ca1	-0.7284642
65	0xbf077763	-0.52916545
66	0xbede94eb	-0.4347299
67	0xbedef011	-0.4354253
68	0xbf3617cf	-0.7113008
69	0xbf36b649	-0.71371895
70	0xbf21f429	-0.63263184
71	0xbf2b2519	-0.6685348
72	0xbf48f30a	-0.7849585
73	0xbf037241	-0.5134621
74	0xbf277979	-0.6541973
75	0x3e0adb65	0.13560255
76	0xbf063806	-0.52429235
77	0xbec8b79e	-0.3920259
78	0xbf6dd29c	-0.9289949
79	0xbf4eac69	-0.8073183
80	0x3e2c2618	0.16811407
81	0xbd947924	-0.07249668
82	0xbf374f2d	-0.7160519
83	0xbf5c7c22	-0.8612691
84	0xbf2ab44b	-0.66681355
85	0xbf2197ce	-0.6312226
86	0xbc1d3068	-0.0095940605
87	0xbdfdbcc3	-0.12389519
88	0xbf577279	-0.84159046
89	0xbf0afa08	-0.5428777
90	0xbec2e607	-0.38066122
91	0xbe8ce0fe	-0.27515405
92	0xbf1254e5	-0.5716079
93	0xbf375b03	-0.7162325
94	0xbe426ed3	-0.18987589
95	0xbe292fe3	-0.16522174
96	0xbefb56cc	-0.49089658
97	0x3ef47009	0.47741726
98	0xbea0c166	-0.3139755
99	0xbee6752a	-0.45011264
100	0xbe23a68a	-0.15981498
101	0xbcde353c	-0.027124994
102	0xbf302e6e	-0.68820846
103	0x3cf88912	0.030338798
104	0xbee476f4	-0.44622004
105	0xbf37386d	-0.71570474
106	0xbc5bc156	-0.013412794
107	0xbe998308	-0.2998278
108	0xbf60f25f	-0.8786983
109	0xbe26c702	-0.16286853
110	0xbf046a1e	-0.5172442
111	0x3d52fce1	0.051510695
112	0xbf26bb3e	-0.6512946
113	0xbef2b36e	-0.4740252
114	0x3d2b804b	0.041870397
115	0x3cdae298	0.026719376
116	0x3e8e194a	0.2775367
117	0xbe4841f4	-0.19556409
118	0x3a027e6a	0.00049779436
119	0x3e856184	0.2605096
120	0xbe467e86	-0.19384202
121	0xbeec00e1	-0.4609442
122	0xbf1128d2	-0.5670291
123	0xbea1104f	-0.31457755
124	0xbf3436ac	-0.7039592
125	0xbf276998	-0.653955
126	0xbef85acf	-0.4850678
127	0x3d8b3cba	0.06798692
128	0x3e22d7c2	0.15902618
129	0xbe180898	-0.14847028
130	0xbf3e807e	-0.74414814
131	0x3ceac976	0.028660517
132	0xbea01652	-0.3126703
133	0xbe0d6175	-0.13806708
134	0x3c3d3584	0.011548404
135	0xbf01b549	-0.50667244
136	0xbea7cf9b	-0.32775578
137	0xbec2c2cc	-0.38039243
138	0xbeaea61f	-0.34111115
139	0xbe2280d4	-0.15869457
140	0xbe4dd6ab	-0.2010142
141	0xbeec2197	-0.46119377
142	0x3f29c430	0.66314983
143	0xbec6aa2d	-0.3880171
144	0xbeb82b31	-0.35970452
145	0x3e7a0ff4	0.24420148
146	0xbd8696ff	-0.06571769
147	0xbee1a173	-0.44068488
148	0xbe1da1d8	-0.1539377
149	0xbf022af7	-0.5084681
150	0xbbcdc269	-0.006279279
151	0xbe1f1ad2	-0.15537575
152	0xbc1e441b	-0.009659792
153	0xbdfbc801	-0.12294007
154	0xbe9d343e	-0.3070392
155	0xbe82624e	-0.25465626
156	0xbef1a0c5	-0.4719297
157	0xbf1c71a4	-0.611109
158	0xbec1929b	-0.37807164
159	0xbe9a7635	-0.3016831
160	0x3e86b8d4	0.26312888
161	0x3e91876a	0.28423625
162	0xbe1fa969	-0.15591969
163	0x3c56855b	0.013093318
164	0x3dd640cb	0.10461577
165	0x3eb73e79	0.3578985
166	0xbe645899	-0.22299422
167	0xbdcb04f6	-0.099130556
168	0x3d13cc42	0.036083467
169	0x3d969b74	0.07353869
170	0x3ea67767	0.32512972
171	0x3ebbf1ba	0.3670786
172	0x3eddd558	0.4332683
173	0x3eaa2143	0.33228502
174	0xbd887f0c	-0.06664857
175	0xbe3ba4b3	-0.18324547
176	0xbbdf715e	-0.0068189343
177	0xbd65147e	-0.055927746
178	0xbb687c8d	-0.0035474629
179	0x3ea72092	0.32642037
180	0xbe637377	-0.22212015
181	0x3ee1dd99	0.44114378
182	0x3df50694	0.11964145
183	0xbed9d476	-0.42544907
184	0xbd51d71d	-0.05123054
185	0xbe205096	-0.15655741
186	0xbee68cda	-0.45029336
187	0xbd186662	-0.037207015
188	0xbe8c94e2	-0.2745734
189	0x3de8b156	0.11361949
190	0xbe3d3b7b	-0.18479721
191	0x3e6bf7b2	0.23043707
192	0x3da865dc	0.08222553
193	0x3ea12565	0.31473842
194	0xbdbfe955	-0.093706764
195	0x3e8e2583	0.27762994
196	0x3f06fb39	0.52727085
197	0xbe086e94	-0.13323432
198	0x3ef9af84	0.4876672
199	0x3e496d29	0.19670548
200	0xbeb5b535	-0.35489812
201	0x3ea89b62	0.32931048
202	0xbe23c90c	-0.15994662
203	0x3e097625	0.13423975
204	0x3e3c7e1a	0.18407479
205	0x3e54b2c3	0.20771317
206	0x3e7cc9de	0.24686381
207	0x3e84fce6	0.25974196
208	0x3e510585	0.20412262
209	0x3e1c8dca	0.15288463
210	0x3b4ecba3	0.0031554482
211	0x3d30e3fa	0.043186165
212	0x3d172c3d	0.036907423
213	0x3de34785	0.11097626
214	0x3da8b42e	0.082374915
215	0xbe983140	-0.29725075
216	0x3e0cd497	0.13752972
217	0xbdcbad2d	-0.0994514
218	0x3e456925	0.1927839
219	0x3e1e0315	0.15430863
220	0x3f1936d5	0.5984929
221	0xbe72c6b1	-0.23708607
222	0x3e5815e7	0.21102105
223	0xbdae6d3f	-0.08516931
224	0x3c933d4e	0.017973568
225	0x3ea47797	0.3212249
226	0x3e0a3398	0.13496244
227	0x3debeb21	0.11519457
228	0x3eb79583	0.35856256
229	0xbca26148	-0.019821778
230	0x3baa5a14	0.0051987264
231	0xbd04b52a	-0.032399334
232	0xbce5017d	-0.027954811
233	0x3c896276	0.016770583
234	0xbf01bb90	-0.5067682
235	0xbe6a026d	-0.22852488
236	0x39880208	0.00025941455
237	0xbdb0ebe5	-0.08638743
238	0xbd31821d	-0.043336976
239	0xbec408e2	-0.38288027
240	0xbf8a41bb	-1.0801309
241	0xbf0e74fd	-0.5564726
242	0xbfaefb7e	-1.3670499
243	0xbf377ef7	-0.7167811
244	0xbef839d5	-0.48481622
245	0xbf9905fa	-1.1954949
246	0xbefdf061	-0.49597457
247	0xbe87b210	-0.26503038
248	0xbe7424ef	-0.23842214
249	0xbf71a772	-0.94396126
250	0xbf469861	-0.7757626
251	0xbf673450	-0.903142
252	0xbf549bb0	-0.8305006
253	0xbf88c38a	-1.0684674
254	0xbf1ccacf	-0.6124696
255	0xbf3f6d90	-0.74776554

model.lstm.bias_hh_l0 f4 [320]
0	0xbeb78ef5	-0.35851255
1	0xbe9b37e3	-0.30316076
2	0xbf8b05de	-1.0861166
3	0xbe95f713	-0.29290065
4	0xbe9e00e0	-0.30860043
5	0xbf5f513a	-0.87233317
6	0xbf5e0cc4	-0.8673823
7	0xbeee4e27	-0.46544
8	0xbe2263d6	-0.15858397
9	0xbf2931a1	-0.6609135
10	0xbf42dc57	-0.7611746
11	0xbef15c58	-0.47140765
12	0xbf619620	-0.881197
13	0xbf94930c	-1.1607375
14	0xbf36fcec	-0.7147968
15	0xbe9e1f91	-0.30883458
16	0xbd95a16a	-0.07306178
17	0xbdf87676	-0.1213197
18	0xbf227f50	-0.63475513
19	0xbf78d8db	-0.97205895
20	0xbe08ff52	-0.13378647
21	0x3d1d53d1	0.03841001
22	0xbf84d2ce	-1.0376832
23	0xbe2e1714	-0.17000991
24	0xbf33ad5a	-0.7018639
25	0xbf60a83a	-0.87756693
26	0x3e1def72	0.15423372
27	0xbeffd51b	-0.49967274
28	0xbf58f526	-0.84749067
29	0xbea38bba	-0.3194254
30	0xbda0aa97	-0.078450374
31	0xbf55d6f9	-0.8353115
32	0xbe958f85	-0.2921106
33	0xbf02d523	-0.5110647
34	0xbee20574	-0.44144785
35	0xbf075fad	-0.52880365
36	0xbeea241d	-0.45730677
37	0xbf73a773	-0.9517738
38	0xbe44fc73	-0.19236927
39	0xbf23680e	-0.6383065
40	0xbf6c02a9	-0.9219156
41	0xbf9ae308	-1.2100534
42	0xbe66540a	-0.22492996
43	0xbf3ccad3	-0.73746985
44	0xbef124d8	-0.47098422
45	0xbf601af6	-0.8754114
46	0xbf4c5921	-0.798235
47	0xbe5b9204	-0.2144242
48	0xbf29f089	-0.6638265
49	0xbf496254	-0.7866566
50	0xbf79f952	-0.9764606
51	0xbf20ee61	-0.6286374
52	0x3de21ee1	0.11041046
53	0xbf3d5151	-0.73952204
54	0xbed5a74e	-0.41729206
55	0xbe45e499	-0.19325484
56	0xbf36caf4	-0.7140343
57	0xbf01a206	-0.50637853
58	0xbf2014e8	-0.625319
59	0xbef654da	-0.48111612
60	0xbe4a951d	-0.19783445
61	0xbf111499	-0.56672055
62	0xbeac59c5	-0.3366224
63	0xbee0b050	-0.43884516
64	0xbf3b31be	-0.73122776
65	0xbefa62e8	-0.48903584
66	0xbee3ef83	-0.4451867
67	0xbebefbce	-0.37301487
68	0xbf34f3d9	-0.7068458
69	0xbf502030	-0.81299114
70	0xbf20504c	-0.62622523
71	0xbf31416d	-0.69240457
72	0xbf55eea1	-0.83567244
73	0xbf163ffa	-0.5869137
74	0xbf1c2077	-0.6098704
75	0x3ba4dcb8	0.0050311945
76	0xbf125ebb	-0.571758
77	0xbef5f669	-0.4803956
78	0xbf80f4c7	-1.00747
79	0xbf57bc1e	-0.8427142
80	0x3e55fb1e	0.20896575
81	0xbddf2cfb	-0.10897251
82	0xbf1ffccf	-0.6249513
83	0xbf552d2a	-0.8327204
84	0xbf0b1fff	-0.543457
85	0xbf146aa2	-0.5797521
86	0x3dc80e4f	0.09768354
87	0xbdb71359	-0.08939237
88	0xbf50803e	-0.8144568
89	0xbf0d6111	-0.55226237
90	0xbed3299e	-0.4124269
91	0xbecbaaa3	-0.39778623
92	0xbf2b3c65	-0.6688903
93	0xbf341528	-0.7034478
94	0xbe4fee35	-0.20305713
95	0xbd8c422b	-0.06848558
96	0xbec8fa8a	-0.39253646
97	0x3f05be96	0.52243936
98	0xbeb96867	-0.36212465
99	0xbee52562	-0.44755083
100	0xbdd81584	-0.10550979
101	0xbd711f30	-0.058867633
102	0xbf336f6f	-0.7009191
103	0xbcfea2f6	-0.031083565
104	0xbee71db3	-0.45139846
105	0xbf3ecb9f	-0.7452945
106	0xbd394746	-0.045233987
107	0xbe76ecf6	-0.24113831
108	0xbf54703e	-0.8298377
109	0xbe399741	-0.18124105
110	0xbf167e19	-0.5878616
111	0x3d0c72c3	0.034289133
112	0xbf377cff	-0.71675104
113	0xbefff55a	-0.49991876
114	0x3d414354	0.04718335
115	0x3dfb368c	0.12266263
116	0x3e43c50b	0.19118135
117	0xbe240487	-0.16017352
118	0x3d6dbcb7	0.0580413
119	0x3ea2bf76	0.31786698
120	0xbe2273db	-0.15864508
121	0xbf09cd9b	-0.53829354
122	0xbf073961	-0.5282193
123	0xbeaef3ec	-0.34170473
124	0xbf241e8a	-0.641091
125	0xbf3be424	-0.7339499
126	0xbeec03dd	-0.46096697
127	0x3dac5399	0.084143825
128	0x3e545777	0.2073649
129	0xbe7b2f94	-0.24529868
130	0xbf2900c9	-0.66016823
131	0x3cd2a5b8	0.025713786
132	0xbeb1f410	-0.34756517
133	0xbe3019f9	-0.17197408
134	0x3d8ba7f3	0.06819143
135	0xbef7fe65	-0.48436275
136	0xbeb9e9b6	-0.3631112
137	0xbea6ed8b	-0.32603106
138	0xbe9920b8	-0.29907775
139	0xbe6d0db0	-0.23149753
140	0xbe895db7	-0.2682931
141	0xbeb6b816	-0.3568732
142	0x3f1b098b	0.60561436
143	0xbeab55e0	-0.33463955
144	0xbec093fa	-0.37612897
145	0x3e1d43f4	0.15357953
146	0xbd064226	-0.032777928
147	0xbeb6f26a	-0.35731822
148	0xbe1ffd95	-0.15624078
149	0xbf06696a	-0.525046
150	0x3d3f679b	0.046729665
151	0xbd9c440f	-0.07630169
152	0x3ccc83b9	0.024965154
153	0xbd7b1c20	-0.06130612
154	0xbe85a15f	-0.2609968
155	0xbe81c86e	-0.25348228
156	0xbed1d83a	-0.4098528
157	0xbf0c45bb	-0.547939
158	0xbeaa398a	-0.33247024
159	0xbec96e7f	-0.39342114
160	0x3eacd2ed	0.33754674
161	0x3e93107d	0.28723517
162	0xbe017ce5	-0.126453
163	0x3d38042d	0.044925857
164	0x3dd0b099	0.10189933
165	0x3e7cd278	0.24689662
166	0xbe3fcae8	-0.18729746
167	0xbdaf2bf7	-0.085533075
168	0x3de015da	0.10941668
169	0x3d0c90f0	0.03431791
170	0x3eaec740	0.3413639
171	0x3e976805	0.29571548
172	0x3ed5501e	0.41662687
173	0x3e8c166e	0.27360862
174	0xbdc2363f	-0.09483003
175	0xbe53cc9d	-0.20683523
176	0xbdc3e835	-0.09565774
177	0xbe1b48a9	-0.15164436
178	0xbd2ac46b	-0.041691225
179	0x3e7d6e3d	0.24749084
180	0xbe5ba15a	-0.2144827
181	0x3ef7bb95	0.483853
182	0x3e37833a	0.17921153
183	0xbeb3d0d2	-0.35120255
184	0xbd7c9cb7	-0.061672892
185	0xbe57df4d	-0.21081276
186	0xbed1a583	-0.40946588
187	0xbda01d69	-0.078181095
188	0xbe93443d	-0.28763
189	0x3d99b2c9	0.07504804
190	0xbe8b6843	-0.27227983
191	0x3e79ca29	0.24393524
192	0x3e16ab3f	0.14713763
193	0x3e9a3671	0.3011966
194	0xbdccdcf8	-0.10003084
195	0x3ec04ac1	0.37557033
196	0x3f025395	0.50908786
197	0xbcedd51d	-0.029032284
198	0x3ef6d829	0.48211792
199	0x3e44acf9	0.19206609
200	0xbed775bf	-0.4208202
201	0x3eb782d6	0.35842007
202	0xbe1ca66b	-0.15297858
203	0x3cc1138d	0.023568893
204	0x3e3f8701	0.18703844
205	0x3e5861ed	0.21131106
206	0x3e313ebb	0.17309086
207	0x3e8528a5	0.26007572
208	0x3e61ce03	0.22051243
209	0x3dedcb0a	0.11610992
210	0x3c584215	0.013199349
211	0x3d956319	0.07294292
212	0x3da33a67	0.07970124
213	0x3e049f33	0.12951355
214	0x3e15205d	0.14563127
215	0xbe92ada3	-0.286481
216	0x3d898fe9	0.06716902
217	0xbc01df49	-0.0079267705
218	0x3e081f0c	0.13293093
219	0x3e46811f	0.19385193
220	0x3f14b1d4	0.58083844
221	0xbe345bde	-0.1761317
222	0x3e51efcd	0.20501633
223	0x3d4d1beb	0.050075453
224	0xbda6319c	-0.08114931
225	0x3e869d39	0.26291826
226	0x3e401f89	0.1876203
227	0x3e4eb57a	0.20186415
228	0x3e698a6c	0.2280671
229	0x3c7cd215	0.015430947
230	0xbc79876e	-0.015230043
231	0xbd6f6690	-0.05844742
232	0xbd594f9f	-0.05305445
233	0xbc339c05	-0.010962491
234	0xbf0be332	-0.5464355
235	0xbe008078	-0.12549007
236	0x3c9a167d	0.018809551
237	0xbc456000	-0.012046814
238	0xbd7c36b4	-0.061575606
239	0xbebe0b39	-0.37117937
240	0xbf8c77b8	-1.0974035
241	0xbf083287	-0.532021
242	0xbfa3e729	-1.280492
243	0xbf4904af	-0.7852277
244	0xbf09821a	-0.53714144
245	0xbf9bac7f	-1.2162017
246	0xbf0e85c7	-0.5567288
247	0xbe3503a4	-0.1767717
248	0xbeab1cda	-0.3342045
249	0xbf6ee004	-0.9331057
250	0xbf500d3c	-0.81270194
251	0xbf6edbc1	-0.9330407
252	0xbf486e9d	-0.7829378
253	0xbf75ab78	-0.95964766
254	0xbf1cc210	-0.61233616
255	0xbf4edd4e	-0.80806434

model.fc.weight f4 [1, 80]
0	0x3e999873	0.29999122
1	0xbdcf5b2d	-0.10124812
2	0xbe1b9805	-0.1519471
3	0x3ecaac0f	0.39584395
4	0xbdffed35	-0.124964155
5	0xbeb50811	-0.35357717
6	0x3e5c2c05	0.21501167
7	0xbe6ee2fe	-0.23328778
8	0xbf1d3ec9	-0.6142393
9	0xbd8164fb	-0.063180886
10	0xbefa63bd	-0.4890422
11	0x3d6afc9a	0.057369806
12	0xbd9ff5f4	-0.07810584
13	0xbf38f809	-0.7225347
14	0x3e8ae03c	0.27124202
15	0x3eb04734	0.34429324
16	0xbf0070e0	-0.50172234
17	0xbe7c99b6	-0.24668011
18	0x3e946bea	0.28988582
19	0x3e538f70	0.20660186
20	0x3dd058a3	0.10173156
21	0xbdae16f4	-0.08500472
22	0xbeb065a9	-0.3445256
23	0xbef48217	-0.477555
24	0xbe2d5dba	-0.16930285
25	0x3d052d5a	0.032513954
26	0x3f12059f	0.5703983
27	0xbd8b7397	-0.068091564
28	0x3ecfd258	0.40590167
29	0x3e4e09ca	0.20120922
30	0x3e14f0c8	0.14544976
31	0xbe8afbc9	-0.27145222
32	0xbeb91a11	-0.361527
33	0x3e4f645a	0.20253125
34	0xbe6404ae	-0.2226741
35	0x3ee8535d	0.453761
36	0x3f3a18f6	0.7269434
37	0xbe223876	-0.1584185
38	0xbc12335a	-0.008923376
39	0x3e2378b0	0.15964007
40	0x3f545253	0.82938117
41	0x3d9c1a4a	0.07622202
42	0xbf4905a9	-0.7852426
43	0xbec8281c	-0.390931
44	0xbf07e89f	-0.53089327
45	0xbf45ec04	-0.77313256
46	0x3be2ca02	0.006921054
47	0xbe5c1165	-0.2149101
48	0xbe456b7e	-0.19279286
49	0xbf2029b7	-0.6256365
50	0x3d310039	0.043213103
51	0xbdbece5d	-0.093167044
52	0x3e85caca	0.26131278
53	0x3d49835b	0.049197536
54	0xbccc0da4	-0.024908848
55	0xbe0792f3	-0.1323965
56	0xbe36a3bd	-0.17835899
57	0xbf5ecc22	-0.8703023
58	0x3ec544e1	0.38529113
59	0x3df927ba	0.1216578
60	0x3eb5982d	0.35467663
61	0x3ea988ac	0.33112085
62	0xbdd3a4f9	-0.103342004
63	0xbf10ba30	-0.565341
64	0x3dcf3542	0.1011758
65	0xbec6808d	-0.3876995
66	0xbdd01e16	-0.101619884
67	0xbeda292f	-0.42609546
68	0xbf1097ec	-0.56481814
69	0x3da048f0	0.07826412
70	0x3eb43321	0.35195258
71	0xbf36f950	-0.7147417
72	0x3f31a1f4	0.69387746
73	0xbe840ea2	-0.25792414
74	0xbe004afa	-0.12528601
75	0xbe884835	-0.2661759
76	0xbe10ab80	-0.14127922
77	0xbe55d392	-0.20881489
78	0xbe7558b7	-0.23959623
79	0x3f43c686	0.764748

exp_avg f4 [320, 9]
0	0xb896fdc0	-7.199822e-05
1	0xb998a4fa	-0.00029114616
2	0x39189e96	0.00014554927
3	0xb93c15bf	-0.00017937178
4	0xbba538ba	-0.0050421627
5	0xbba606f0	-0.005066745
6	0x344f8fcb	1.9330689e-07
7	0xb8a6496c	-7.929173e-05
8	0xb80dabba	-3.3776952e-05
9	0xb9fac3e7	-0.00047829674
10	0xb9a1f14e	-0.000308881
11	0xba6fe970	-0.00091519114
12	0xb9eba0cb	-0.00044942493
13	0x3ac33a56	0.0014894705
14	0x3ae8c2ff	0.0017758309
15	0xba5459c1	-0.00081005326
16	0x39bc0c93	0.00035867523
17	0x392a06df	0.00016215023
18	0x37501a56	1.2403898e-05
19	0x368a8107	4.1277412e-06
20	0x3610307f	2.14859e-06
21	0xb6aab2c8	-5.0872077e-06
22	0xb7a89a09	-2.0098889e-05
23	0xb78d1303	-1.6817363e-05
24	0x35afc22e	1.309503e-06
25	0xb69e015e	-4.708926e-06
26	0xb6cb4010	-6.0573293e-06
27	0x37a84ef1	2.006392e-05
28	0x38ab9c93	8.1830796e-05
29	0x393ee02d	0.00018203324
30	0x389c7b32	7.4616066e-05
31	0xb811274f	-3.4607303e-05
32	0xb9c8804e	-0.00038242567
33	0x3919bfe8	0.00014662708
34	0xb98e81a3	-0.00027180937
35	0xb928215e	-0.00016034159
36	0x3a05c6b3	0.0005103156
37	0xb9689b19	-0.00022183023
38	0x39951046	0.0002843162
39	0xb9cd5f46	-0.0003917163
40	0x386b9192	5.616394e-05
41	0x39970f2f	0.00028812277
42	0xb8a90d9c	-8.061083e-05
43	0x3978bc2e	0.00023721225
44	0x398315c0	0.00025002472
45	0xb826db1b	-3.9781542e-05
46	0xb81865fb	-3.63346e-05
47	0x3893e118	7.051433e-05
48	0x381ed259	3.7866037e-05
49	0x378d5b51	1.6851032e-05
50	0xb70ed0bf	-8.512462e-06
51	0x381ad44e	3.6914185e-05
52	0x38500c8f	4.960276e-05
53	0x384d52a6	4.895278e-05
54	0x391a74a4	0.00014730036
55	0x3923dd53	0.00015627341
56	0x3a010968	0.0004922361
57	0x38424514	4.631754e-05
58	0xb99c8ad7	-0.00029858082
59	0xb9e73f20	-0.00044106785
60	0x396ca4a6	0.0002256805
61	0x399181b8	0.00027753203
62	0xb93025a1	-0.00016798686
63	0x37a129a1	1.921208e-05
64	0xb86ce9b5	-5.648444e-05
65	0x3a70f3a8	0.0009191581
66	0x3a31008c	0.00067520957
67	0x3a60d518	0.00085766753
68	0x3ab1f33d	0.0013576519
69	0x3a3f65be	0.00073012325
70	0xb9e615bc	-0.00043885212
71	0xb9ebc1bf	-0.00044967045
72	0xba93a672	-0.0011264815
73	0xba861568	-0.0010229768
74	0xb7fea4de	-3.0355932e-05
75	0x3a11eac9	0.0005566297
76	0x3a2f0111	0.0006675879
77	0x3a2fa7ab	0.00067007047
78	0x3a2164ba	0.0006156672
79	0xba04e358	-0.0005069277
80	0x386b9a18	5.6171877e-05
81	0xb98c1e2e	-0.00026725366
82	0xb7fff812	-3.0513886e-05
83	0xb9333ed7	-0.0001709418
84	0x371815fd	9.065026e-06
85	0x39401668	0.00018318894
86	0xb6fec4b4	-7.592689e-06
87	0xb82fbc29	-4.189849e-05
88	0x38a82473	8.0176535e-05
89	0x38b1c5c1	8.476852e-05
90	0xb8d55ea8	-0.000101742626
91	0xb90a380f	-0.00013181589
92	0x38ab6d96	8.1743274e-05
93	0x387cc3d7	6.0263872e-05
94	0xb95fcc22	-0.00021342983
95	0xb9a9af6b	-0.00032364888
96	0xb7c2458b	-2.3158986e-05
97	0x39730757	0.0002317702
98	0x3987c7a7	0.0002589796
99	0xb8034818	-3.1299976e-05
100	0x3810418e	3.4393328e-05
101	0x370deffc	8.460131e-06
102	0x3792d8e9	1.7505563e-05
103	0xb8b66c2c	-8.698585e-05
104	0xb935b604	-0.00017329311
105	0x36d5471d	6.3561733e-06
106	0xb850778e	-4.970241e-05
107	0x36c1ba1d	5.7735147e-06
108	0xb8a6a7da	-7.9467616e-05
109	0xb7bc71a4	-2.2464264e-05
110	0xb8d93819	-0.00010357815
111	0xb7aa0d90	-2.0271895e-05
112	0x3814f8c4	3.551763e-05
113	0x3922f5a3	0.00015541031
114	0xb8c1b8b9	-9.2373644e-05
115	0x3837d52b	4.3829128e-05
116	0x37f7af94	2.9526454e-05
117	0xb6890ea1	-4.084621e-06
118	0x38b70da6	8.728662e-05
119	0x397dee63	0.00024216766
120	0x397262e1	0.00023115754
121	0x39003958	0.00012228393
122	0x38fed39c	0.00012151079
123	0x3970eb0c	0.00022975745
124	0x3884b1fb	6.327402e-05
125	0x38b54d68	8.6451706e-05
126	0x3a91b7b3	0.0011117369
127	0xb9e5b642	-0.00043814076
128	0x3a9784b3	0.0011559933
129	0xba3964ed	-0.0007072229
130	0xbbd2ed3c	-0.006436972
131	0xbbe00bc3	-0.0068373396
132	0x399f5f66	0.0003039792
133	0x39b2f64c	0.0003413431
134	0xba8b539b	-0.0010629775
135	0x398c9d43	0.0002682005
136	0xb8a34ff1	-7.787336e-05
137	0x3a2c7369	0.0006578477
138	0x39695d82	0.00022255446
139	0x3b88bd7d	0.0041729794
140	0x3b7c11e2	0.0038462807
141	0x3a6e30ec	0.00090862694
142	0xb9bd10b9	-0.00036061349
143	0xb8aeb5ac	-8.3308056e-05
144	0x383d8b7f	4.5191027e-05
145	0x3940e6cc	0.00018396525
146	0x39160a33	0.00014308914
147	0x3881f244	6.196325e-05
148	0x390a72e5	0.00013203507
149	0xb980fd94	-0.00024602993
150	0x399697b0	0.00028723245
151	0xb8bed1d5	-9.09899e-05
152	0xb9906600	-0.00027541816
153	0x39c908eb	0.00038344352
154	0xba3dd585	-0.0007241595
155	0xb9247752	-0.00015684709
156	0xb97cdf5f	-0.00024115805
157	0x3a98824a	0.0011635509
158	0x3aac5cab	0.0013150176
159	0xb8d3c9d9	-0.00010098861
160	0xba8dfb4c	-0.0010832339
161	0xba17d894	-0.00057924655
162	0xba015a36	-0.0004934402
163	0xba04d7fc	-0.00050675846
164	0xba1cf225	-0.000598701
165	0xb99452bf	-0.0002829041
166	0x3a42ea9e	0.00074354734
167	0x3a8feb92	0.001098024
168	0xba01cc4c	-0.0004951402
169	0xb980493f	-0.00024468635
170	0xb94e1d40	-0.00019656587
171	0x37c86a94	2.3891487e-05
172	0x3836c5b6	4.3576314e-05
173	0x38ba8825	8.89453e-05
174	0x38b9fda9	8.868735e-05
175	0xb8d2209f	-0.000100196565
176	0xb8004be8	-3.058827e-05
177	0xb928823c	-0.00016070245
178	0xb8f2cae2	-0.00011577249
179	0xb9dfcbdc	-0.00042685762
180	0xb8b43370	-8.59265e-05
181	0xb91f137b	-0.00015170679
182	0x3906d24a	0.00012857575
183	0xb8dea8ca	-0.00010617224
184	0xb9b2de25	-0.00034116316
185	0xb9eb899b	-0.00044925217
186	0x38b69710	8.706574e-05
187	0x39461b23	0.0001889286
188	0x39b45b8b	0.0003440048
189	0x39620c7f	0.00021557695
190	0x399fa20e	0.00030447583
191	0x398ad69f	0.00026481316
192	0x3980941c	0.00024524413
193	0x369d473e	4.6872583e-06
194	0xb700687f	-7.653724e-06
195	0x39a29b97	0.0003101497
196	0x3a00f7b5	0.0004919724
197	0x3a0a259a	0.00052698853
198	0x3a4aa5e5	0.00077304087
199	0xb9faed1a	-0.0004786037
200	0xb58e6d31	-1.0611603e-06
201	0xb9865eda	-0.00025629142
202	0xb965f041	-0.00021928643
203	0x3ad7eac3	0.0016473163
204	0xb9f650c1	-0.00046980943
205	0x388d9862	6.7517874e-05
206	0x39a749c9	0.00031907696
207	0xbb0472f4	-0.002021012
208	0xb902e347	-0.00012482434
209	0x3a6d805a	0.00090599584
210	0x3ad47f32	0.0016212224
211	0xbb876381	-0.004131735
212	0xbc0f057a	-0.008729333
213	0x3a6f41d4	0.00091269356
214	0xba29019d	-0.0006447079
215	0xb9c6fa61	-0.0003795205
216	0xb7617479	-1.34381635e-05
217	0x389284b9	6.986544e-05
218	0xb927d867	-0.00016006977
219	0xb90cfd0a	-0.00013445705
220	0xb8967c4f	-7.175712e-05
221	0xb819f01a	-3.6701655e-05
222	0xb8c3f3cb	-9.3437346e-05
223	0xb87e2f7b	-6.060254e-05
224	0x3829ed87	4.0513954e-05
225	0xb8c88b80	-9.562727e-05
226	0xb85db2ee	-5.2857147e-05
227	0xb8003979	-3.0571104e-05
228	0x3749ab3e	1.2020404e-05
229	0xb7c6e181	-2.3708448e-05
230	0xb803e836	-3.1449097e-05
231	0xb85db0ca	-5.2855154e-05
232	0xb8ec5f35	-0.000112710906
233	0xb86f8cc7	-5.711315e-05
234	0x37c93c69	2.3989198e-05
235	0x3743370c	1.1635722e-05
236	0x37f2651e	2.8895734e-05
237	0xb801d3dd	-3.095331e-05
238	0xb7bd4184	-2.2561064e-05
239	0xb770d2f3	-1.435423e-05
240	0x38230fac	3.8876824e-05
241	0x3891fc05	6.961081e-05
242	0x38449897	4.6872152e-05
243	0xb8f5c216	-0.00011718662
244	0xb7517997	-1.2485681e-05
245	0xba09a46e	-0.0005250637
246	0xb9572549	-0.00020517888
247	0x39410bcf	0.00018410313
248	0x3a0f930c	0.0005476929
249	0xb96f3f3a	-0.0002281637
250	0x377ae030	1.4953359e-05
251	0xb887612f	-6.4554035e-05
252	0xb8da8cc6	-0.00010421271
253	0xb9217931	-0.00015399304
254	0xb6127613	-2.1824424e-06
255	0xb8932f3a	-7.018303e-05

exp_avg_sq f4 [320, 9]
0	0x3b14e6d8	0.0022720601
1	0x3b479365	0.0030452844
2	0x3b3c6afa	0.0028750286
3	0x3b0bd68d	0.00213376
4	0x3ae9e3a6	0.0017844334
5	0x3a9101e5	0.0011063187
6	0x3a276af2	0.00063864805
7	0x36a1cbe5	4.8219104e-06
8	0x36f52f09	7.3070446e-06
9	0x381b026c	3.6957135e-05
10	0x382b189d	4.07925e-05
11	0x38948fab	7.08395e-05
12	0x388365e1	6.265543e-05
13	0x37aebe71	2.0831098e-05
14	0x38775ec5	5.897765e-05
15	0x383dd1a3	4.525635e-05
16	0x3595398b	1.1118112e-06
17	0x362691ce	2.4820797e-06
18	0x36baf793	5.5720534e-06
19	0x3755833b	1.2726344e-05
20	0x36e15719	6.715662e-06
21	0x36a8c5aa	5.0298013e-06
22	0x36c8db83	5.986019e-06
23	0x35d30030	1.572078e-06
24	0x373e55de	1.1344875e-05
25	0x3313ca7b	3.441026e-08
26	0x33caa9c6	9.4372396e-08
27	0x38275908	3.989882e-05
28	0x386221ff	5.391426e-05
29	0x370802d5	8.106891e-06
30	0x37abe2ee	2.049046e-05
31	0x38dc2807	0.00010497873
32	0x37a901cf	2.0147212e-05
33	0x37526754	1.2541033e-05
34	0x358667ab	1.0013949e-06
35	0x35b50bd3	1.3488992e-06
36	0x37ecf055	2.8245306e-05
37	0x38dc3f4e	0.00010502209
38	0x383cab49	4.4982215e-05
39	0x38a189d9	7.7027544e-05
40	0x3789e6fe	1.6439237e-05
41	0x37d3e085	2.525771e-05
42	0x38206946	3.8245016e-05
43	0x36054536	1.985883e-06
44	0x366d9dda	3.5407634e-06
45	0x375c29bb	1.3122738e-05
46	0x38d57a58	0.0001017942
47	0x373e8453	1.1355692e-05
48	0x387e8557	6.06825e-05
49	0x372e128c	1.03755265e-05
50	0x370adbe2	8.276636e-06
51	0x38710795	5.746594e-05
52	0x34dd7f14	4.125692e-07
53	0x35aef5ef	1.3035586e-06
54	0x383926c0	4.4143526e-05
55	0x391f224b	0.00015176197
56	0x389c9492	7.466333e-05
57	0x387e79c9	6.067174e-05
58	0x37463e81	1.18162725e-05
59	0x36f25593	7.222124e-06
60	0x389d1f80	7.492211e-05
61	0x3635fbb8	2.7117621e-06
62	0x36b0d42e	5.2699097e-06
63	0x38a1475c	7.69037e-05
64	0x395a74b6	0.00020833578
65	0x396241aa	0.00021577501
66	0x394ff0e0	0.00019830791
67	0x3867a9bf	5.523278e-05
68	0x3857e288	5.1470968e-05
69	0x39e0c7d2	0.00042873487
70	0x3743afff	1.1663883e-05
71	0x3836b230	4.355813e-05
72	0x399d2add	0.0002997731
73	0x3985fa7f	0.0002555437
74	0x398e16bb	0.00027101286
75	0x3953ba08	0.0002019183
76	0x38ebb066	0.0001123853
77	0x37a57377	1.97233e-05
78	0x3989cf8d	0.00026285314
79	0x370d5d4d	8.425978e-06
80	0x37c9cee6	2.4057412e-05
81	0x360c6b1b	2.092397e-06
82	0x35fe3a90	1.8941519e-06
83	0x361dc122	2.3507241e-06
84	0x36405185	2.865768e-06
85	0x39312767	0.00016894714
86	0x3813b9b6	3.5220488e-05
87	0x3610b8a1	2.156514e-06
88	0x349b5b48	2.8937416e-07
89	0x34a33c98	3.0405204e-07
90	0x3768ddf8	1.3879959e-05
91	0x39982ae1	0.00029023646
92	0x3762e1af	1.3523196e-05
93	0x396778da	0.00022074897
94	0x39568a79	0.00020460215
95	0x39d1eea7	0.00040041396
96	0x3963eb9c	0.00021736178
97	0x35c00c23	1.4308647e-06
98	0x36396a08	2.7628867e-06
99	0x3622d3fd	2.4263275e-06
100	0x3a6665da	0.0008788981
101	0x370d3ffa	8.419151e-06
102	0x389bf433	7.4364616e-05
103	0x3ca2ac15	0.019857446
104	0x385e5746	5.3010204e-05
105	0x3834004e	4.2915628e-05
106	0x34acca66	3.218476e-07
107	0x3537efc4	6.852172e-07
108	0x3718e57f	9.11334e-06
109	0x376db528	1.41684795e-05
110	0x37721b03	1.4430613e-05
111	0x3746ee08	1.1857141e-05
112	0x3a25ab30	0.00063197594
113	0x38e63ccd	0.0001097858
114	0x3791cfe9	1.7382163e-05
115	0x36003138	1.9102135e-06
116	0x36801c7e	3.818014e-06
117	0x3a4174bd	0.0007379761
118	0x3a9d01a1	0.0011978635
119	0x3a4cdabb	0.0007814576
120	0x39e5b1ef	0.00043810855
121	0x3b93f735	0.0045155534
122	0x3919d663	0.00014671082
123	0x3a9fe42f	0.0012198741
124	0x3693adfc	4.401196e-06
125	0x3723527c	9.734762e-06
126	0x38804bb2	6.117615e-05
127	0x385fb462	5.3335338e-05
128	0x38b5430e	8.6432425e-05
129	0x3892481b	6.975253e-05
130	0x39a9553b	0.00032297694
131	0x39b865ac	0.00035170966
132	0x387b48a6	5.9910722e-05
133	0x371475a7	8.8488805e-06
134	0x37f64994	2.9359748e-05
135	0x399eb745	0.00030272655
136	0x398a0001	0.00026321414
137	0x39d5b5ba	0.00040761923
138	0x38a49cf6	7.849366e-05
139	0x3b4abc87	0.0030935125
140	0x3ad9fe48	0.0016631568
141	0x3a2f9db2	0.00066992186
142	0x3746aa39	1.1841353e-05
143	0x3842f6ea	4.648316e-05
144	0x3988d634	0.00026099535
145	0x3990ff21	0.00027655906
146	0x3b157e3e	0.0022810842
147	0x3aff8e90	0.0019497443
148	0x3bbb6ca4	0.005719738
149	0x399a700c	0.0002945665
150	0x3ae50914	0.0017474019
151	0x372e7132	1.03975635e-05
152	0x37de14e2	2.6474187e-05
153	0x393fb401	0.00018282236
154	0x394ad121	0.00019342128
155	0x39da60a6	0.0004165221
156	0x397f546e	0.00024350148
157	0x393cd337	0.00018007761
158	0x398ae76a	0.00026493828
159	0x3927bceb	0.00015996739
160	0x37da50dd	2.602528e-05
161	0x389c893c	7.4642216e-05
162	0x3b634bc5	0.0034682613
163	0x3c763040	0.015026152
164	0x3ba0af82	0.0049037347
165	0x3b9bd1c9	0.004755233
166	0x3e5f6fb0	0.21819949
167	0x3936e57c	0.00017442362
168	0x3a9116a6	0.0011069372
169	0x36662b4b	3.429787e-06
170	0x3712f252	8.758698e-06
171	0x37525368	1.2536395e-05
172	0x388d28ab	6.730979e-05
173	0x3792ef02	1.7515853e-05
174	0x37ebf24d	2.8127013e-05
175	0x3a0e8633	0.00054368674
176	0x37982d08	1.8140781e-05
177	0x38701d0d	5.7247515e-05
178	0x359d359a	1.1713012e-06
179	0x363afd09	2.7863446e-06
180	0x38ce1c1d	9.828082e-05
181	0x391f72ec	0.00015206233
182	0x39182afc	0.00014511863
183	0x38814034	6.163158e-05
184	0x37a41d82	1.9564064e-05
185	0x3826f3b0	3.9804436e-05
186	0x39057c85	0.00012730256
187	0x367ade06	3.7382138e-06
188	0x374524c7	1.1750678e-05
189	0x3744bbbe	1.17262225e-05
190	0x37948c28	1.770824e-05
191	0x3707864e	8.077897e-06
192	0x36c6f5c8	5.9294725e-06
193	0x3678520b	3.7002635e-06
194	0x365c677d	3.2842793e-06
195	0x38857054	6.362857e-05
196	0x359d2800	1.1709053e-06
197	0x3688d0d3	4.077426e-06
198	0x38962815	7.160023e-05
199	0x3927b736	0.00015994612
200	0x3967bf3b	0.00022101116
201	0x395e40eb	0.00021195754
202	0x385aea32	5.219336e-05
203	0x38eeae99	0.00011381246
204	0x39812f18	0.00024639885
205	0x363ada74	2.7843316e-06
206	0x36bcb31c	5.6236877e-06
207	0x39f1edf4	0.0004614439
208	0x3a297c79	0.0006465386
209	0x3a7d53f0	0.0009663692
210	0x3a3a3a32	0.00071040087
211	0x38f85a59	0.0001184239
212	0x397d5cd8	0.00024162547
213	0x3a3e8ae9	0.0007268624
214	0x3821c80e	3.8571707e-05
215	0x38eb97a7	0.00011233921
216	0x36d46ddf	6.330883e-06
217	0x372bcfc8	1.0240772e-05
218	0x37aaf6ab	2.0380443e-05
219	0x374f2145	1.2345908e-05
220	0x380655ca	3.2027987e-05
221	0x3682a790	3.8938088e-06
222	0x37218ca9	9.629098e-06
223	0x3488ccc9	2.5480975e-07
224	0x355b8c0b	8.1787647e-07
225	0x3b4b8fb8	0.0031061005
226	0x3b2bfffa	0.0026245103
227	0x3b21d42c	0.0024693115
228	0x3ae6daa8	0.0017612772
229	0x388a1e2a	6.585971e-05
230	0x3839b0d6	4.427213e-05
231	0x3a18e795	0.0005832848
232	0x34c48d2c	3.661056e-07
233	0x35581153	8.049148e-07
234	0x379e7e75	1.8893954e-05
235	0x371ffb21	9.535609e-06
236	0x38c3e75b	9.341418e-05
237	0x3736591f	1.08687955e-05
238	0x370cf356	8.401306e-06
239	0x35bb20ac	1.3942094e-06
240	0x3844ae7e	4.689255e-05
241	0x35cc5a36	1.5225439e-06
242	0x36ccd90f	6.1049427e-06
243	0x38941385	7.060826e-05
244	0x38af3d8d	8.356115e-05
245	0x388f6e1c	6.839281e-05
246	0x381422f6	3.531851e-05
247	0x3a1e8a6d	0.0006047849
248	0x374c8f0d	1.2192654e-05
249	0x38fd1b6c	0.00012069088
250	0x36953c8d	4.447595e-06
251	0x379ffe6b	1.907275e-05
252	0x381bc0f4	3.713458e-05
253	0x399dafed	0.00030076448
254	0x39ad6871	0.00033074946
255	0x39b29a84	0.0003406593
